Model exports/best_model_Oct22_protANDmRNA_weights_residual_2024_11191523.pth (torch, 183558 bytes, 28 tensors)

conv1.weight f4 [16, 3, 2, 2]
00000000: 877a 81bd b268 94bd a6cb 533d b0ce 2b3d
00000010: afa9 453e 3a6a 8b3e c452 233e b33e 5c3e
00000020: 0351 013e 5ee2 7ebe a9af 91be 3c19 5a3b
00000030: e4a0 25be e33c dcbd a40f 6cbe 79f6 153e
00000040: 3435 8e3e ddbb 71bd cbf3 483e a573 1c3e
00000050: f5dc 75be 2be5 44be 0e1a fe3b 60ed 2a3e
00000060: a0ca c23d 9b2b 30be 3b09 01be e009 3b3e
00000070: bff8 e03d b365 6b3e 28ef 87bd 8fa7 fc3d
00000080: 63dc 35be 0433 933e 5389 9e3d a783 8abe
00000090: 2122 5c3e a155 71be 0e6d 6e3e 6317 86be
000000a0: c394 673e 577e 49be 1bd3 90be 745b c63d
000000b0: ffb8 703e f594 ffbd c0c7 683d 920b 883d
000000c0: bda0 b23d 46b1 ef3d 0d94 14be 9cfa 35bd
000000d0: 5ab8 ddbd 1d8e debd d14d 73be bf36 233e
000000e0: 0d0b a53d 2383 3b3d a654 f5bd fb55 8c3c
000000f0: fc0a 113e 1f23 c13a d793 9bbd 26cb d93d
00000100: f38c b7bc ca87 5a3e 85cd 4a3e 9302 12be
00000110: ba4c 5cbb d196 293e 9899 fe3d ed27 643c
00000120: 8bc4 703d 2ed0 a53d 7ade 2fbe 2bae 7c3e
00000130: 0277 3fbe f87a aa3d b812 3e3d f784 a73d
00000140: 8a50 71be 243f c23d 848e fd3d 8dae 86be
00000150: fde8 3d3e 4d9e 31bd 10cf 3d3d 3064 903e
00000160: cfaf 1ebc 4fa2 e6bd 5b8d 6a3e 29cf b13d
00000170: e22c 113e 67c9 6bbe 6921 753e 86f5 ec3d
00000180: 3a2a 913e 5885 26be f72c e9bd 6643 883e
00000190: f97c a73d e841 8d3e 0802 3f3e a1bd 393d
000001a0: 387a 413e 173c 30be 3876 5fbe 60d3 593c
000001b0: ae0b 803e 6316 f63d 83d1 54bc 12a1 613e
000001c0: 9f19 4abd 8688 cabd 0a97 91be cc53 893e
000001d0: 315c 3a3e 540f 8ebe 2e2b 38be 7d64 f43c
000001e0: c753 6e3e 8fc5 203e 7161 f63d 0a6b 12be
000001f0: 2773 223e b7ac 6cbe b862 a3bc ac6d da3c
00000200: 380b f63d ea6c a6bd 5ed3 6abe f744 073e
00000210: e906 57be 0001 8a3e fb97 0c3e c226 8d3e
00000220: baf6 3f3e 8739 bfba 15d6 4bbe 5f0d fdbd
00000230: c258 2e3e be1e af3c 31fb 713d 1e03 773d
00000240: 366f 3abe 6da6 6a3e abdd b5bc 7d9b 40be
00000250: f27a 463e 85d6 093e 930e 8b3e 5fc3 8f3d
00000260: 666f 073e 310c 8cbe befd c8bb 213c 683e
00000270: f9c9 583d 91f2 633e f5e0 2cbe a2cb 0a3e
00000280: 0cfd 7a3e dbf5 f7bc 8266 93be 0366 723e
00000290: c53d 423e f884 843e 0575 6d3e 0547 d1bd
000002a0: 23b1 5f3d d85b 31be c183 243d 838b 7fbe
000002b0: dd31 ab3c 87cf d3bd 9f7d 8e3d c5a2 573d
000002c0: 7b3a 3a3e 7d9f 46be 342a 1b3d 79f0 2dbe
000002d0: fcf9 0a3e deac 043d 805c c9bd 7516 053e
000002e0: 5bdb 23be 0795 4abe 5fdb 5ebd 5e39 823e
000002f0: 7fdf 14be 9fe3 01bd 87b1 403c 16c1 93be
-0.06322198 -0.072465315 0.051707886 0.04194516 0.1930301 0.27229482 0.15949541 0.21508293
0.1262856 -0.2489104 -0.2845433 0.00332792 -0.16174656 -0.10753801 -0.23052841 0.14644803
0.27774966 -0.05901705 0.1962425 0.1527849 -0.2401007 -0.19228046 0.007754571 0.16692114
0.09511304 -0.17204134 -0.12601177 0.18265486 0.109849446 0.22988014 -0.06637412 0.12336647
-0.17759852 0.2874986 0.07741036 -0.27053568 0.21497394 -0.23567821 0.23283789 -0.26189718
0.22615342 -0.19677101 -0.2828606 0.09685412 0.2350807 -0.12479583 0.05683112 0.06642832
0.08722065 0.11703734 -0.14509602 -0.044428453 -0.10826178 -0.1086695 -0.23760153 0.15938853
0.080587484 0.04577936 -0.11979036 0.017130842 0.14164346 0.0014735198 -0.075965576 0.106344506
-0.022406077 0.21340862 0.19804962 -0.14258794 -0.0033615069 0.16561438 0.124316394 0.013925535
0.058781188 0.08096348 -0.17174712 0.24675815 -0.18697742 0.08324236 0.04640457 0.08179658
-0.2356588 0.09484699 0.12380698 -0.26305047 0.18545909 -0.043363858 0.04634005 0.28201437
-0.009685471 -0.11261427 0.22905485 0.08682091 0.14177278 -0.23026048 0.23938526 0.115702674
0.2835253 -0.16261804 -0.113855295 0.2661392 0.081781335 0.27589345 0.18653119 0.04534686
0.18894279 -0.17210422 -0.2182244 0.013295025 0.2500891 0.12015989 -0.012989405 0.220341
-0.04934084 -0.09889321 -0.28435546 0.26821744 0.1819923 -0.2774607 -0.17985222 0.029833073
0.23274146 0.15700363 0.12030304 -0.14298645 0.1586424 -0.2311276 -0.019944534 0.026663624
0.120138586 -0.081262425 -0.22932193 0.13209902 -0.2099873 0.26953888 0.13729851 0.27568632
0.18746462 -0.0014589288 -0.19905885 -0.12356066 0.17026046 0.021376964 0.059077445 0.060305707
-0.18206486 0.22915049 -0.022200426 -0.18809314 0.19382837 0.13460739 0.27159557 0.07019686
0.13226089 -0.2735305 -0.006133764 0.22679187 0.05292699 0.222605 -0.1688269 0.13554242
0.24510592 -0.0302686 -0.28789145 0.23671727 0.18968876 0.25882697 0.2318917 -0.10218624
0.05461229 -0.17320192 0.040164713 -0.24955563 0.0208978 -0.10342317 0.06957554 0.052645463
0.18186371 -0.19396777 0.037882045 -0.16986264 0.13571924 0.03239142 -0.09832096 0.12996848
-0.16001646 -0.19783412 -0.054408427 0.25434393 -0.14538382 -0.031711217 0.011761076 -0.2885825

conv1.bias f4 [16]
00000000: 7077 2e3e b79d 88be 7f63 a8bd 07f1 423e
00000010: bce5 ff3d 0ea4 79bc a751 423c 14dc 22be
00000020: 3d1a 87bc 6c5d 913e e74e 503e 4075 1b3e
00000030: f122 293e 9192 013e 227a d2bd 9172 adbb
0.1703775 -0.26682827 -0.082221024 0.19037257 0.1249499 -0.015236868 0.011860288 -0.15904266
-0.016492004 0.28391588 0.20342599 0.15181446 0.16517235 0.12653567 -0.10277201 -0.0052931984

bn1.weight f4 [16]
00000000: 0000 803f 0000 803f 0000 803f 0000 803f
00000010: 0000 803f 0000 803f 0000 803f 0000 803f
00000020: 0000 803f 0000 803f 0000 803f 0000 803f
00000030: 0000 803f 0000 803f 0000 803f 0000 803f
1.0 1.0 1.0 1.0 1.0 1.0 1.0 1.0
1.0 1.0 1.0 1.0 1.0 1.0 1.0 1.0

bn1.bias f4 [16]
00000000: 0000 0000 0000 0000 0000 0000 0000 0000
00000010: 0000 0000 0000 0000 0000 0000 0000 0000
00000020: 0000 0000 0000 0000 0000 0000 0000 0000
00000030: 0000 0000 0000 0000 0000 0000 0000 0000
0.0 0.0 0.0 0.0 0.0 0.0 0.0 0.0
0.0 0.0 0.0 0.0 0.0 0.0 0.0 0.0

bn1.running_mean f4 [16]
00000000: 0c90 61c2 8e48 9cc2 0891 65c1 846b c041
00000010: cafe 9a40 a65b 6f42 8175 32c1 af52 b942
00000020: 62da 0e41 f7df 1c42 528e 1142 0d5e cc42
00000030: bc41 05c1 1817 d642 1c90 6ac2 0870 0fc2
-56.39067 -78.14171 -14.347908 24.052498 4.843602 59.8395 -11.1536875 92.66149
8.928316 39.218716 36.388985 102.18369 -8.328548 107.045105 -58.64073 -35.859406

bn1.running_var f4 [16]
00000000: 8400 6242 196b 5741 52a5 2643 7dec 6342
00000010: 4291 af3f f229 ff41 2c48 0c43 fc5b 1442
00000020: 2a16 3542 4b8d 0543 c1cd 1243 de7b 1d43
00000030: 0c56 5643 a8be 2643 31b5 9241 e62c f742
56.500504 13.463647 166.64578 56.980946 1.3716204 31.895481 140.28192 37.08983
45.271645 133.55193 146.80373 157.48386 214.33612 166.74475 18.338472 123.58769

conv2.weight f4 [32, 16, 2, 2]
00000000: 34d2 babd e802 afbd c013 a7bb 4087 923d
00000010: ac56 a03d 10ba 0c3d e8e4 fb3d e8e4 823d
00000020: aa4b b43d c0c3 7bbd a85e 87bd 3073 5bbc
00000030: 4437 ef3d 8c38 c83d e0a7 c9bd a433 75bd
00000040: 70b5 35bd 28d5 563d 3075 ddbd 385d ea3c
00000050: b6c9 bb3d 7eff 97bd be8a 8fbd 8862 debc
00000060: f080 b23c 4069 933c 6ce2 6b3d 0c8f 1c3d
00000070: c0e8 b5bd 5447 063d 12dc 853d aab5 ffbd
00000080: 9801 87bd 28e5 c9bc e4c6 003d 20bc 86bc
00000090: a049 aabd aa5b d8bd 08d1 d53c 6c0c fbbd
000000a0: a285 ca3d c824 f03c 98d9 c63c 2023 b43d
000000b0: f803 e63d f098 273c 6042 78bc e868 fc3d
000000c0: 5af3 da3d ce7c c6bd b4ce 213d 80f0 923a
000000d0: c879 fdbd 3a0a da3d 3ccf fcbd fe5c 85bd
000000e0: 56ef d1bd e04c 45bc ec02 6ebd 660c 9bbd
000000f0: 00b1 583b e20b c2bd 1052 463d 9e36 fa3d
00000100: 1ca6 963d 225a e53d 74be aabd 4460 3fbd
00000110: 0081 c1bb 88aa 193d 445a 173d e021 c7bd
00000120: 26d4 b2bd 2837 103d 9633 dabd 3279 85bd
00000130: c8bc e53c 808a e93a a08c 1d3d c01e 5abd
00000140: ec77 4f3d dc61 bd3d b493 6a3d 228a 85bd
00000150: 168e bdbd e05a 93bb 2869 293d c026 84bd
00000160: 142f a7bd 682f 7c3d 3a04 f53d 5473 43bd
00000170: a8f1 ecbd aeaf a9bd 109f e23c a02c 3dbd
00000180: c257 edbd 6482 613d 409e 4e3d 7a3d f6bd
00000190: a22b dd3d a0cb a83d 883e 50bd 38a0 9dbc
000001a0: f8d8 bdbc fe66 f9bd 4a43 f93d 444d 1abd
000001b0: 6cc1 2dbd e88f d53c a428 be3d 00f4 6fbb
000001c0: 707a 933d 7292 95bd c068 503d 903e c63d
000001d0: 002f 7b3a 3865 6c3d 9e75 d13d 1004 0dbc
000001e0: e06f 12bd 8024 dc3a 0eb7 a53d 8012 e93b
000001f0: 18c7 96bd ae0e 86bd 808d 71bb 80ef c2bc
00000200: 2098 c7bc e425 f8bd 7060 debc c029 a0bd
00000210: ba58 e7bd cc5f 8c3d 8085 223b 0c8b 57bd
00000220: 0aff a53d 161d e1bd 0e26 9a3d 009f cfba
00000230: daf5 9f3d 4895 903d 3c4d a53d 2228 e7bd
00000240: 38ab 92bd 4433 e23d e829 cebc f636 a0bd
00000250: b082 6ebd 58fd d1bd 0646 ec3d cc5d fabd
00000260: e068 b3bd 7421 5fbd 1431 75bd 0c8a 62bd
00000270: 3437 b3bd f6b5 c23d 6610 8abd a8bd fc3c
00000280: f81e aabd 301c 31bd a060 523c e89d bdbd
00000290: ea69 cbbd ae90 f23d 2c4b 51bd 18a9 91bd
000002a0: 700b b0bd 50e8 f03c 82b5 cebd 84f7 fbbd
000002b0: 9c55 d9bd a045 c13c dcdd 813d 84c7 e6bd
000002c0: 3016 0bbc a253 97bd 926e e2bd a0dd 3abc
000002d0: c6a1 a03d 903c 83bc 4cd5 e8bd 4859 ff3d
000002e0: 8611 9a3d 2ed1 c63d 3824 3bbd f0a8 913d
000002f0: c82c 61bd 58f0 f73c 7208 e43d 2a43 a5bd
00000300: 10c4 e8bc e836 ed3d 289a b2bd 8862 4abd
00000310: 40a0 5e3d 2818 97bc b0ed 673d 9046 493c
00000320: 06e5 ebbd 308e 5f3c e01c 713c 9c1f 9f3d
00000330: aa5d b83d fed6 f5bd 1210 c93d 4e8b 9abd
00000340: 6ea9 e4bd 9864 3b3d c041 a33b 7cc4 b83d
00000350: 0c66 d1bd 5afa a63d 70d7 58bc 0060 383b
00000360: 3c12 78bd a0fe 233c 6a27 c8bd 044b 793d
00000370: daf5 babd 3e9e f23d 1637 ef3d bef4 99bd
00000380: a451 c43d 7096 f1bc e2b7 c73d 7c12 3abd
00000390: 90bb 3ebd 30d7 03bd 8260 f33d 70c3 033d
000003a0: bc4c 2b3d 08be f2bd a87d d7bd 0496 173d
000003b0: 1895 cdbc 244a e1bd c0e8 fd3c 442a 0ebd
000003c0: 5e7b 933d 60a3 51bc f83f 02bd 2437 b0bd
000003d0: eaec b03d 6ceb 3dbd b8ab b53c 4ac7 e1bd
000003e0: 1a44 ddbd 40b1 07bc c0c1 31bc 60df 58bc
000003f0: 404d e3bc 1805 d63c e0d9 a4bb 0059 a1ba
-0.09122124 -0.08545476 -0.00509879 0.07154703 0.07829031 0.03435713 0.1229952 0.06391317
0.08803494 -0.06146598 -0.06609851 -0.013394162 0.11680463 0.097764105 -0.09846473 -0.0598637
-0.044362485 0.052449375 -0.10813367 0.028608903 0.09169333 -0.07421778 -0.07008885 -0.027146593
0.021789998 0.017994523 0.05758898 0.038222358 -0.08882284 0.032782868 0.06536116 -0.124858215
-0.06592101 -0.024645403 0.031439677 -0.016447127 -0.08314824 -0.105643585 0.02610065 -0.12258229
0.0988877 0.029314414 0.024273679 0.08795762 0.11231226 0.010229334 -0.015152544 0.12324697
0.10690947 -0.09691773 0.039503768 0.0011210591 -0.123767436 0.10646482 -0.12344214 -0.065118775
-0.10250728 -0.012042254 -0.058108255 -0.07570724 0.0033064485 -0.09474923 0.048418105 0.12217449
0.073559016 0.11198832 -0.08337107 -0.046722665 -0.0059052706 0.037516147 0.03695132 -0.09723258
-0.0873187 0.03520885 -0.106543705 -0.06517257 0.02804412 0.0017817765 0.03846419 -0.05325198
0.050651476 0.09247181 0.057269767 -0.06520487 -0.09255616 -0.004496917 0.04136005 -0.064527035
-0.08163276 0.061568648 0.11963697 -0.047717407 -0.1156953 -0.08285461 0.027663738 -0.046185136
-0.11589004 0.05505599 0.050443888 -0.120234445 0.10799338 0.082419634 -0.050840884 -0.019241437
-0.023174748 -0.12177847 0.121710375 -0.037671342 -0.04242079 0.026069596 0.09285095 -0.0036613941
0.072010875 -0.07303323 0.050881147 0.096799016 0.00095818937 0.057713717 0.10227512 -0.008606926
-0.035751224 0.0016795546 0.080915555 0.007112801 -0.07362193 -0.06545769 -0.0036858022 -0.023795843
-0.024364531 -0.12116602 -0.027145594 -0.07820463 -0.1129622 0.06854209 0.002479881 -0.05262284
0.081052855 -0.10991876 0.075267896 -0.0015840232 0.07810564 0.07059723 0.08071372 -0.112869516
-0.07161564 0.110449344 -0.025166467 -0.07822983 -0.058230102 -0.102533996 0.115367934 -0.122249216
-0.08760238 -0.054475263 -0.059861258 -0.055307433 -0.087507635 0.095073625 -0.06741409 0.030852154
-0.08306688 -0.043239772 0.01284042 -0.09258634 -0.09932311 0.11844002 -0.05109708 -0.0711233
-0.085959315 0.02940765 -0.100932136 -0.12303069 -0.10612032 0.02359277 0.063411444 -0.11268523
-0.008489177 -0.073889986 -0.11056246 -0.011405379 0.07843356 -0.01602009 -0.11368808 0.12468201
0.075228736 0.097078666 -0.045688838 0.071123004 -0.054974347 0.030265972 0.11134423 -0.08069451
-0.028413802 0.11582738 -0.08720809 -0.049410373 0.054352045 -0.018444136 0.05662316 0.01228489
-0.11518292 0.01364474 0.014716357 0.07769701 0.0900224 -0.12003897 0.09817518 -0.075461015
-0.11165129 0.04575023 0.0049822032 0.090218514 -0.10224542 0.081532195 -0.013234958 0.0028133392
-0.060564265 0.010009438 -0.09773143 0.060862556 -0.09128924 0.118465886 0.11680429 -0.07517384
0.09585884 -0.02949068 0.0975187 -0.045427784 -0.046565592 -0.03218764 0.11883642 0.032168806
0.041821226 -0.11852652 -0.10522014 0.0370083 -0.025095508 -0.11000469 0.030994773 -0.034708276
0.07201265 -0.012795299 -0.031799287 -0.08604267 0.08638938 -0.046367094 0.022176608 -0.110243395
-0.10804005 -0.008282006 -0.010849416 -0.0132368505 -0.027746797 0.026125476 -0.0050308555 -0.0012309849

conv2.bias f4 [32]
00000000: 503a 0c3d d42c 623d 1e8d 9c3d b2ba 96bd
00000010: b466 7a3d 322c 8f3d d820 efbd 8649 8d3d
00000020: c018 86bb ac94 4a3d 7cee 10bd 28b9 c73d
00000030: da53 f6bd de19 a63d 1058 343c 1e3b a33d
00000040: 1820 efbd 28b8 d33d 8274 fa3d 4ceb 0dbd
00000050: 6ab0 a4bd c890 90bd 2471 aebd 48b1 85bc
00000060: c2a4 c93d f8f6 e03c a06e d63d 10fa f13d
00000070: f059 e5bd 1079 993c 82eb cc3d 5c9b 63bd
0.0342353 0.055218533 0.076441035 -0.07359828 0.0611331 0.069908515 -0.11676186 0.06898789
-0.004092306 0.04945819 -0.035383686 0.097521126 -0.12027712 0.081104025 0.011007324 0.0797026
-0.11676043 0.103378594 0.12229253 -0.034648225 -0.08041461 -0.07058865 -0.085176736 -0.016319886
0.09845878 0.027461514 0.10470319 0.11815274 -0.11198795 0.018734485 0.10005857 -0.055568084

bn2.weight f4 [32]
00000000: 0000 803f 0000 803f 0000 803f 0000 803f
00000010: 0000 803f 0000 803f 0000 803f 0000 803f
00000020: 0000 803f 0000 803f 0000 803f 0000 803f
00000030: 0000 803f 0000 803f 0000 803f 0000 803f
00000040: 0000 803f 0000 803f 0000 803f 0000 803f
00000050: 0000 803f 0000 803f 0000 803f 0000 803f
00000060: 0000 803f 0000 803f 0000 803f 0000 803f
00000070: 0000 803f 0000 803f 0000 803f 0000 803f
1.0 1.0 1.0 1.0 1.0 1.0 1.0 1.0
1.0 1.0 1.0 1.0 1.0 1.0 1.0 1.0
1.0 1.0 1.0 1.0 1.0 1.0 1.0 1.0
1.0 1.0 1.0 1.0 1.0 1.0 1.0 1.0

bn2.bias f4 [32]
00000000: 0000 0000 0000 0000 0000 0000 0000 0000
00000010: 0000 0000 0000 0000 0000 0000 0000 0000
00000020: 0000 0000 0000 0000 0000 0000 0000 0000
00000030: 0000 0000 0000 0000 0000 0000 0000 0000
00000040: 0000 0000 0000 0000 0000 0000 0000 0000
00000050: 0000 0000 0000 0000 0000 0000 0000 0000
00000060: 0000 0000 0000 0000 0000 0000 0000 0000
00000070: 0000 0000 0000 0000 0000 0000 0000 0000
0.0 0.0 0.0 0.0 0.0 0.0 0.0 0.0
0.0 0.0 0.0 0.0 0.0 0.0 0.0 0.0
0.0 0.0 0.0 0.0 0.0 0.0 0.0 0.0
0.0 0.0 0.0 0.0 0.0 0.0 0.0 0.0

bn2.running_mean f4 [32]
00000000: dedc bd3d cbe7 69bd f5ca a3be 2cac 20be
00000010: 9668 97bd 6807 593d 288d 34be e36a 4f3e
00000020: 5e52 a1bd af44 d03e 2ce6 973d 808f 793e
00000030: aaab 2bbe 993b 153e eeee 913e 96e9 78ba
00000040: c5a4 d13d 724e dc3d e85e 5f3e a1db 7ebe
00000050: c78a e1be 3f00 e33d 463c e5bd cd53 f0bd
00000060: 44c9 da3e d94c 7cbd 1446 21be b477 9f3e
00000070: 261c 323c 0305 d4bc 4bef 8abd 6080 17be
0.09270643 -0.05710582 -0.3199078 -0.15690678 -0.07392995 0.05298558 -0.17631972 0.20255618
-0.078770384 0.406774 0.07416949 0.24371147 -0.16764703 0.14573516 0.285026 -0.0009495256
0.102365054 0.1075715 0.21813548 -0.2488847 -0.4405119 0.11084031 -0.11193137 -0.11734734
0.42731678 -0.061596725 -0.15749389 0.31146014 0.010870969 -0.025881296 -0.06783923 -0.14795065

bn2.running_var f4 [32]
00000000: 573f 2d3d c084 bf3d ffd4 133e 226c 783d
00000010: feb4 0c3e 7d3c 853d a2b9 0e3d 5598 883d
00000020: 1793 7e3d e9e9 8b3d 4dac ce3d a379 a03d
00000030: e8db 1f3e 4f6b 4c3d 1743 763d 4ce8 b13d
00000040: 1939 883d 6ae6 5b3d cc37 fa3d a3a9 8e3d
00000050: 2aaa 0c3e b89a 0a3e 4449 4f3d 9ef6 8d3d
00000060: 280e af3d ada5 193d 3088 c73d 9777 8c3d
00000070: a9af b73d 681f e33d f85b e53d 0d96 553d
0.042296734 0.09351492 0.1443672 0.06065 0.13740918 0.06505678 0.034845002 0.0666968
0.062151995 0.06831724 0.100914575 0.078357 0.15611231 0.049907025 0.060122576 0.08686885
0.066515155 0.053686537 0.12217674 0.069659494 0.13736787 0.13535583 0.05060698 0.06931804
0.08547622 0.037511516 0.097427726 0.068587475 0.089690514 0.11089975 0.11199182 0.052145053

conv3.weight f4 [16, 32, 2, 2]
00000000: 6c1a 123d 268c 143d 2ec8 78bc 1259 9cbd
00000010: 4b6e 0e3d bbf7 93bd aae0 9d3d 1a67 943c
00000020: ffc6 763d c9df 09bd 3645 ac3d 9060 823d
00000030: 2971 a43c dc51 483b cb45 35bd 3b72 1a3b
00000040: dcfb 82bd 6a54 13bd 7c23 27bd 1eed 90bc
00000050: 4ccc b7bc f1f1 a73d b28f 893d c6a6 16bd
00000060: 54fb cb3c fcff 173d 3157 2dbd 0dc6 7bbd
00000070: 5b65 1a3d ea5c 60bc 67b4 19bd 6ff8 bebc
00000080: 2869 3a3d 2946 7ebd 5f20 8c3d b036 9b3d
00000090: cd58 aebd be98 9bbd 1d4f e23b b878 adbd
000000a0: bb0f 7bbd d061 6e3d 59d8 803d f0b9 bf3c
000000b0: 12af 9f3d ff80 73bd e57d 873d efcc 883d
000000c0: 8260 a2bb 99e6 853d 779b 7ebc bdfe 52bd
000000d0: a729 b23d 7715 44bd 05c3 aebd b71d 75bc
000000e0: fbce 293c caa0 44bd 15f5 bdbc f970 bf3c
000000f0: 7918 283d 9d6f 00bd 6f57 713d 0d42 7e3d
00000100: ece0 e83c d681 ad3d c219 b43d 27b6 a63d
00000110: dfe7 96bc cd77 e1bb 3ca5 a13c 002d 70bd
00000120: fd08 1f3d 6300 0db9 c936 1fbc 71bb 88bd
00000130: cee2 bd3c 888a 71bd 5e0f 9e3c b074 0cbc
00000140: 1122 aabd 4aab 5c3c 5645 f13c d5c3 9d3d
00000150: 8226 6f3d d9cc 7bbd d24f 5c3d 59bc 85bd
00000160: 3740 a43c 41a7 cebc 7767 a73d d724 82bb
00000170: e3b4 3dbc c06d d8bc 07ac cabc 983b 853d
00000180: a7c6 8ebd 0a21 843d fcdd be3c f107 8b3d
00000190: c210 9ebc 7d78 9f3d d85c 00bc 21c0 123d
000001a0: ec33 aebc 6803 883d 9b23 05bd 0efb ad3d
000001b0: 4574 1d3d 8632 40bc 04f4 6abd b61f 243d
000001c0: 1460 703d 1d29 a23d faea 66bd a0e9 06bd
000001d0: c13c 44bb de50 aa3c 1c48 90bd 6b5e 993d
000001e0: 37a4 743d dc39 963c ff92 b4bd f59e 99bc
000001f0: a6e5 75bc 6140 aebd a0f9 c7bc 851f c0ba
00000200: 9878 85bc 0300 3d3d c199 923d ab40 803d
00000210: 6faf 9dbd 3bc7 7c3b 0e70 81bd 4fde 813d
00000220: 0e46 77bd 2377 11bd b9d3 74bd 71dd 973d
00000230: 20c3 593d d065 783d 602c 06bd 2820 8a3d
00000240: 3e08 b1ba e104 4b3d fc35 cebc 8a2a 283d
00000250: 0791 69bd 74b8 2b3d b947 4fbd 3705 a2bd
00000260: e2ae 01bc 7967 2a3d c32c 903b 4f9c 3a3c
00000270: 6c91 e33c 10bc 5a3d 5c4a 97ba 65da 18bd
00000280: 7f72 b2bd a52b 92bd 4ea3 383d c765 4abc
00000290: fa73 3bbc ea26 2c3c 96bd 54bd e9a8 883d
000002a0: af51 22bd 44e1 4d3b 5f63 dbba 0e58 ca3c
000002b0: 8664 173c 3fde 903d 63db 79bd 723d b2bd
000002c0: 8629 43bd 00e6 7e3d 5d00 ac3d c977 83bc
000002d0: 6c34 013d 194d 8ebd b96f 203c 74d4 9ebd
000002e0: ddb0 0bbd cfc8 063d 7780 973d 93ae a23d
000002f0: a0be 0cbd 9c2f d0bb ee0b 7bbd d280 493d
00000300: f28c a0bd d12d 9cbd 523d a5bd 397d 83bc
00000310: 6792 833d 826c 81bd 7ae7 05bc 39ce 4abd
00000320: 51b2 9e3d ff3a 3a3d f56b 92bd 9d6b 8d3d
00000330: 709a cebb 9804 79bc 051b 363c 6918 883c
00000340: be74 493d 82f7 aebd 2038 b53b f7ae 8bbd
00000350: 039c 66bd 7f15 29bd 5351 7dbd bf27 883c
00000360: 8a2c 833d 6dd0 92bc 2d43 20bd c93f ed3c
00000370: 9e6f a1bd bf02 5ebd 0f4d 623d 506a f3bc
00000380: 67fd a1bc 4a75 a9bd 0dfb 923d 40b5 353d
00000390: 41ef ad3d 6da5 afbd cf96 a83d 5f97 8abd
000003a0: 40a3 86bd b436 953b 9b47 78bd 0cbc a93d
000003b0: 604d 7ebb 1920 a2bc 8bb0 163d be80 30bc
000003c0: 7079 563d 9355 a13d e528 edbb ee71 933d
000003d0: 5369 893d d0fc a33d 5dcf 32bd 71f8 c9bb
000003e0: 5256 553c cdf2 353d b7a8 71bd e460 c7bc
000003f0: d671 aabd 87dd 4bbd 5268 70bd fff2 60bc
0.03566973 0.03626647 -0.015184445 -0.07634176 0.034773152 -0.07224985 0.07708867 0.018115569
0.06024837 -0.033660684 0.084116384 0.06366074 0.02007349 0.003056637 -0.044256013 0.0023566622
-0.063956946 -0.035969175 -0.040805325 -0.017691191 -0.022436284 0.082004435 0.06716861 -0.03678014
0.024900116 0.03710936 -0.04231948 -0.061468173 0.037694316 -0.013694027 -0.03752556 -0.023311822
0.04551044 -0.06207863 0.06842112 0.0757879 -0.08513031 -0.07597493 0.0069064037 -0.08470291
-0.0612943 0.05819875 0.06291265 0.023404092 0.07797064 -0.059449192 0.06615809 0.06679713
-0.0049553523 0.06538124 -0.015539995 -0.05151247 0.08699351 -0.047872033 -0.08533291 -0.014960698
0.010364289 -0.048004903 -0.023188153 0.0233693 0.041038964 -0.031356443 0.058921274 0.06207471
0.028427564 0.0847203 0.087939754 0.081402116 -0.018421112 -0.0068807364 0.01973211 -0.058636665
0.03882693 -0.00013446952 -0.009717652 -0.066763766 0.023179438 -0.058970004 0.019294437 -0.008572742
-0.08307279 0.013468573 0.029452007 0.077033676 0.058386333 -0.061474655 0.05378706 -0.06530065
0.020050151 -0.025226237 0.08174031 -0.003971677 -0.011578771 -0.02641952 -0.024740232 0.06505507
-0.06971484 0.06451614 0.02329921 0.06788624 -0.0192951 0.07786653 -0.007834636 0.03582776
-0.021264993 0.06641275 -0.03250466 0.084951505 0.03844096 -0.011730796 -0.057361618 0.040069304
0.058685377 0.07917998 -0.056376435 -0.032937646 -0.0029943439 0.020790514 -0.07045004 0.07488712
0.05972692 0.018338136 -0.088171 -0.018752554 -0.015008366 -0.08508373 -0.024411023 -0.0014657831
-0.016292855 0.04614259 0.071582325 0.062623344 -0.07699477 0.00385709 -0.06320201 0.0634123
-0.060369544 -0.03551401 -0.059772227 0.074152835 0.0531646 0.06064397 -0.032757163 0.067444146
-0.0013506485 0.0495652 -0.025172226 0.041056193 -0.057023074 0.041923955 -0.05060551 -0.07911151
-0.0079152305 0.041602585 0.0043998673 0.011389806 0.027779303 0.053402007 -0.0011542547 -0.037317652
-0.08713245 -0.07137231 0.045077614 -0.012353367 -0.011441225 0.010507325 -0.051938616 0.06672842
-0.03962868 0.0031414786 -0.0016737989 0.02470019 0.009240275 0.0707364 -0.06100024 -0.08703126
-0.04764702 0.062231064 0.08398507 -0.016048329 0.031544134 -0.06948299 0.009792262 -0.07755366
-0.034104217 0.03290635 0.073975496 0.07943454 -0.03436148 -0.0063533317 -0.061290674 0.04919512
-0.07839383 -0.07625926 -0.080683365 -0.016050922 0.064244084 -0.06319524 -0.008172864 -0.049513076
0.07748855 0.04546642 -0.071494974 0.06905291 -0.0063050315 -0.015198849 0.01111484 0.016613202
0.0491836 -0.08543302 0.0055303723 -0.06820481 -0.056301128 -0.041280266 -0.061845135 0.016620515
0.064049795 -0.01792165 -0.039126564 0.02896108 -0.078826174 -0.054201838 0.05524927 -0.02971378
-0.019774152 -0.08274324 0.071767904 0.044362307 0.084929 -0.08576474 0.082318895 -0.06767153
-0.06574106 0.0045536403 -0.060615163 0.0828782 -0.0038803443 -0.019790696 0.03678946 -0.010772882
0.052361906 0.0787765 -0.007237541 0.07199465 0.06709542 0.080072045 -0.04365479 -0.0061636497
0.013021069 0.044421006 -0.05899879 -0.024338193 -0.08322494 -0.04977181 -0.058693238 -0.01372981

conv3.bias f4 [16]
00000000: 9e5b 9fbc c5c7 11bd 294c 893d ae79 6bbd
00000010: 1289 0f3d f42e 87bc 9ef9 85bd b1c0 a73c
00000020: 8c3f a0bd c327 9f3d b680 143d 1174 743d
00000030: ac55 fcbc 2a1a 133c 0c11 b1bd 7940 a2bd
-0.019452866 -0.035590906 0.067039795 -0.05748909 0.03504283 -0.016501881 -0.06541751 0.020477625
-0.078246206 0.07771256 0.03625556 0.059681002 -0.03080257 0.008978406 -0.086458296 -0.079224534

bn3.weight f4 [16]
00000000: 0000 803f 0000 803f 0000 803f 0000 803f
00000010: 0000 803f 0000 803f 0000 803f 0000 803f
00000020: 0000 803f 0000 803f 0000 803f 0000 803f
00000030: 0000 803f 0000 803f 0000 803f 0000 803f
1.0 1.0 1.0 1.0 1.0 1.0 1.0 1.0
1.0 1.0 1.0 1.0 1.0 1.0 1.0 1.0

bn3.bias f4 [16]
00000000: 0000 0000 0000 0000 0000 0000 0000 0000
00000010: 0000 0000 0000 0000 0000 0000 0000 0000
00000020: 0000 0000 0000 0000 0000 0000 0000 0000
00000030: 0000 0000 0000 0000 0000 0000 0000 0000
0.0 0.0 0.0 0.0 0.0 0.0 0.0 0.0
0.0 0.0 0.0 0.0 0.0 0.0 0.0 0.0

bn3.running_mean f4 [16]
00000000: a59e 483e 0a5b 17be b24a 44be e9bb 32be
00000010: ec77 793d 5734 443e a74f 0c3d 1518 1f3e
00000020: d02a 9dbe 77f5 303d 67c9 1fbd 07b3 9abc
00000030: 45fe debd 9ce0 a33e 2148 99bd 26db 56bd
0.19591768 -0.14780822 -0.19169119 -0.17454495 0.060905382 0.19160591 0.03425565 0.1553653
-0.30696726 0.043202844 -0.03901043 -0.018884195 -0.10888342 0.320073 -0.074844606 -0.05245509

bn3.running_var f4 [16]
00000000: 44d0 f13d 48ed ca3d c901 c03d f3a2 bd3d
00000010: 870e a13d 77a1 3a3e 4b21 933d 80ce 043e
00000020: efb3 b83d 1d8e 263e 382d fc3d c3dd b43d
00000030: e2e0 b43d e95b ba3d 9464 933d c72e fd3d
0.11807302 0.09908539 0.093753405 0.09259596 0.07864099 0.18225656 0.071840845 0.12969398
0.090186946 0.1626515 0.12313312 0.0883136 0.088319555 0.09099562 0.07196918 0.12362438

conv4.weight f4 [8, 16, 2, 2]
00000000: a44d e13d e4c4 26bd fa56 bf3d fc5e 61bd
00000010: 3408 033d 1010 24bd bc40 2f3d 00eb 28bd
00000020: 6444 bbbd 9ce7 173d e0b4 bbbb 8050 dbbc
00000030: 1074 8c3d 68e6 45bd d417 613d 6a1e 8fbd
00000040: 7608 cd3d 4430 ecbd 1e91 f63d 2a22 eabd
00000050: 0611 afbd 104e 2c3d 1c03 04bd 689d 21bd
00000060: 94f2 22bd 84ea c0bd 68c9 b93c 0036 04bc
00000070: 56cd a1bd 2c01 60bd c6bd a5bd d87a 66bd
00000080: 586c 96bd 8cf2 5a3d e078 aebd 4076 b53c
00000090: c4d5 dabd b654 9c3d 5a1a b3bd 403f c03c
000000a0: 6007 55bd fc4c a8bd f85b 80bc f80a 5dbd
000000b0: fa7a ccbd 1278 af3d 1e3f c83d 6a0d e93d
000000c0: 6c45 393d b0aa 2b3d 5c35 31bd 6844 a93d
000000d0: 40e7 7ebb 06bb dc3d f044 82bc 26c5 bb3d
000000e0: 985a 69bd 46b5 d63d 0068 0d3d d44b 57bd
000000f0: 6895 e6bc ec3b ff3d 7078 0f3d 5233 e7bd
00000100: 2cf3 23bd b00b 5abd 9256 dabd 10a0 3a3c
00000110: 56bb de3d 624d b1bd 5839 553d 7a37 d3bd
00000120: 40c9 cc3b 02e2 c7bd 30a1 acbd 6e76 f63d
00000130: 90d0 f8bc b460 353d 10a3 a1bc a0c7 cc3d
00000140: 5ecb 9dbd 3a94 e5bd 002e 633a c2f1 e8bd
00000150: 00ab 9cbd e48b 183d f8d8 86bd 7cd7 75bd
00000160: fe87 8d3d 9002 5b3c f0da 483d b07a 10bd
00000170: d05c 303d 3acc c63d 20f9 e03d d8be 87bd
00000180: 0020 c2b7 0a1c d6bd 220b aa3d 68a7 f13c
00000190: 6885 393d eeaf b3bd 4044 34bc e0d5 093c
000001a0: 347a 73bd c06d 0f3b 2c67 373d 4ce9 2abd
000001b0: 4072 6d3d 8245 dc3d 1076 89bd 5419 85bd
000001c0: 9ccf 583d d080 a8bc 8e7f c1bd 987b 953c
000001d0: ecaa 293d 1e0c eabd 5494 d1bd 585d 963d
000001e0: 0cae 71bd d412 12bd 8628 e93d 207d 44bc
000001f0: 7cee ca3d a40d 2c3d 980e 27bd c0d4 04bb
00000200: d44a 9ebd d07b 5bbd 94fb dc3d f0a5 e53d
00000210: 641c 2d3d b689 96bd e660 92bd c492 983d
00000220: acbc 4c3d 2412 613d d609 b83d 8e66 9b3d
00000230: 0ee3 81bd f236 e6bd 5875 65bd c085 223c
00000240: 603e bfbd 40e3 233c 3817 e13d b00d 16bc
00000250: d058 53bd c081 d43b 106e 67bc 06b9 8d3d
00000260: 1a74 b6bd 340b 26bd 5c39 a43d cea3 9d3d
00000270: 48e3 56bd 0ca8 5e3d c6c2 c4bd 8051 8ebb
00000280: 3080 88bd 4c8d c3bd 2cc7 c93d a8e0 0bbd
00000290: 7c42 83bd 6200 efbd 5846 9ebc 008e c8bc
000002a0: 542a 4cbd 708f ce3d 326e b8bd f4a3 e73d
000002b0: c063 8dbb 708b 363c 1840 cebd 008f 5a3c
000002c0: 20ef 743c d00b a1bc 64bc 433d 8af0 e23d
000002d0: 80ce 323b 880b c9bc 482f fe3d 6040 2c3c
000002e0: aa73 83bd fc81 523d f4a6 023d 009f c1bd
000002f0: 48bf f5bd c032 debd a89b cb3d f470 92bd
00000300: 9a6d bc3d d8a2 92bc b2ff c13d 52d9 d73d
00000310: 847b 90bd 3c8e 983d 8e5b e0bd 94b7 693d
00000320: a8ea a8bc b24d e8bd 66d7 d4bd facb ae3d
00000330: 50df 89bd 0852 70bd 18ba 8ebc 9cc6 b03d
00000340: c439 83bd 4a5e d33d 16c5 a6bd e473 87bd
00000350: 78b2 49bd 9078 ff3d 2053 b4bd 2cf6 8e3d
00000360: 00c5 6bbc 6081 a03c f284 f4bd e0b8 d2bb
00000370: 0085 ceba 7c9f 703d 24eb 1f3d 8017 0cbc
00000380: 4071 23bc 6086 97bd f269 c7bd fa99 f53d
00000390: 9413 0dbd 1ce2 4f3d 9cf1 243d 984c 9e3c
000003a0: c660 f13d 0a0e ba3d 8412 e53d 083b 933c
000003b0: 7884 203d 76b3 b3bd 6854 87bc 4041 4abb
000003c0: 3410 5d3d ec75 733d 9cf8 433d 54e7 55bd
000003d0: 781f 913d 3ae5 e33d 343f b13d b4e7 9a3d
000003e0: 68f6 cc3c c05e 113c a49e eabd 6610 c4bd
000003f0: 20e4 673c 9c1c 92bd f45f 48bd 5288 c43d
0.11001137 -0.040715113 0.09342761 -0.055022225 0.031990245 -0.04005438 0.042786345 -0.04123974
-0.09143904 0.037086114 -0.005728349 -0.026771784 0.06858075 -0.048315436 0.054954365 -0.06988223
0.100113794 -0.115326434 0.12039398 -0.114322975 -0.08548169 0.042066634 -0.032229528 -0.039456755
-0.03978212 -0.0941973 0.022679046 -0.008069515 -0.07900493 -0.054688618 -0.08092837 -0.056269497
-0.07344884 0.053453967 -0.08519149 0.022151113 -0.10685304 0.07633345 -0.087452605 0.02346766
-0.052008986 -0.082178086 -0.015668854 -0.05396554 -0.099843934 0.085678235 0.09777664 0.11379512
0.04523222 0.041910827 -0.043263778 0.082650006 -0.003889516 0.107778594 -0.015902013 0.091684625
-0.056971163 0.10483794 0.03452301 -0.05256255 -0.028147414 0.12462601 0.035026968 -0.112890854
-0.04002683 -0.053233802 -0.10661043 0.011390701 0.10875575 -0.08657338 0.05205664 -0.10313316
0.006249577 -0.097599044 -0.084291816 0.120343074 -0.030372888 0.044281676 -0.019731075 0.09999013
-0.07704805 -0.112099126 0.00086662173 -0.11374237 -0.07649803 0.037242785 -0.06584352 -0.060019955
0.06910704 0.01336731 0.04903692 -0.035273254 0.043057263 0.09706922 0.10985017 -0.066281974
-2.3141503e-05 -0.10454567 0.08302905 0.02949877 0.04529324 -0.0877379 -0.0110026 0.008412808
-0.059442714 0.0021885484 0.044776127 -0.041726395 0.057970285 0.10755445 -0.06711972 -0.064989716
0.052932367 -0.020569235 -0.09448157 0.01824741 0.04142277 -0.114280924 -0.102333695 0.07342023
-0.059003875 -0.035662487 0.11384682 -0.011992723 0.099087685 0.042005196 -0.040785402 -0.002026841
-0.07729116 -0.053584874 0.10790172 0.11213291 0.042263404 -0.07350485 -0.07147388 0.07449868
0.04998462 0.05494894 0.08986251 0.0758792 -0.06342135 -0.11240949 -0.05602011 0.009919584
-0.09338069 0.010002911 0.10990757 -0.009158537 -0.05159837 0.006485194 -0.014125362 0.06920056
-0.08908863 -0.040538028 0.08018753 0.07697259 -0.052462846 0.05435948 -0.096074626 -0.0043432117
-0.06665075 -0.095484346 0.09852442 -0.034149796 -0.06409165 -0.11669995 -0.019320652 -0.024481773
-0.049845055 0.10085952 -0.09005393 0.113105685 -0.0043148696 0.011141643 -0.10070819 0.013339758
0.01494959 -0.019658953 0.047787085 0.110810354 0.0027283728 -0.024541631 0.12411362 0.010513395
-0.064185455 0.051393494 0.0318975 -0.09454155 -0.11999375 -0.108495235 0.099417984 -0.0715045
0.09200592 -0.017899916 0.09472598 0.105394974 -0.07054809 0.07449004 -0.10954963 0.05705984
-0.020619705 -0.11342944 -0.103926465 0.08534999 -0.067320466 -0.05867198 -0.01742272 0.08631632
-0.06407502 0.103207186 -0.0814306 -0.06613901 -0.049242467 0.12474167 -0.08804917 0.06980547
-0.01439023 0.01959294 -0.1193942 -0.00643073 -0.001575619 0.058745846 0.039042607 -0.008550525
-0.009975731 -0.07398677 -0.09737004 0.11992259 -0.0344425 0.050752744 0.04026948 0.019323632
0.11786036 0.09084709 0.11185172 0.017972484 0.039188832 -0.08774464 -0.01651974 -0.0030861646
0.05397053 0.05943863 0.047844514 -0.052222565 0.0708608 0.11127706 0.08654633 0.07563725
0.02501984 0.008872688 -0.114560395 -0.0957344 0.01415351 -0.07134363 -0.048919633 0.095963135

conv4.bias f4 [8]
00000000: 485c 01bd a46d 193d d032 1cbd 240d b53d
00000010: 4c61 abbd b415 fabd a4c3 14bd f4b9 37bd
-0.031582147 0.037458077 -0.038134396 0.08840397 -0.08368167 -0.12211171 -0.03631939 -0.044855073

bn4.weight f4 [8]
00000000: 0000 803f 0000 803f 0000 803f 0000 803f
00000010: 0000 803f 0000 803f 0000 803f 0000 803f
1.0 1.0 1.0 1.0 1.0 1.0 1.0 1.0

bn4.bias f4 [8]
00000000: 0000 0000 0000 0000 0000 0000 0000 0000
00000010: 0000 0000 0000 0000 0000 0000 0000 0000
0.0 0.0 0.0 0.0 0.0 0.0 0.0 0.0

bn4.running_mean f4 [8]
00000000: 59ff 01be a2ff 94bd 5d16 3abe 619f 653e
00000010: ba67 7d3e 07bf 363d ab81 b23d 51ba 8e3e
-0.12695064 -0.072753206 -0.18172593 0.2242408 0.247466 0.04461577 0.087161385 0.27876523

bn4.running_var f4 [8]
00000000: 0a9a ab3d 386f c23d 8643 fc3d 28bd 023e
00000010: 733f 103e 351d a03d b9fd 003e 8663 c63d
0.0837899 0.094938695 0.123175666 0.1276747 0.14086704 0.07818071 0.12596788 0.09686951

fc.weight f4 [128, 288]
00000000: efd8 30bd d4f6 bdbc b86a 5abd 349c 01bd
00000010: be37 2a3d a4b5 b63b 8e9b be3c 9927 a6bc
00000020: adab 333d 1d9d 05bb 5081 4dbd 4952 4fbd
00000030: f9e3 67bd d0e9 1bbd 9e98 1c3d 81fa dd3c
00000040: 161a 2dbd db0a 07bd 16e6 7fbc 2502 f83c
00000050: 9e97 27bd 629b f9bc 194a 14bd 7cbd dbbc
00000060: 58dd 94bc 8fcb 85bc 6b1c 8b3c 9999 243d
00000070: eb20 f7bc 95b6 fbbb 8777 3d3d ac34 493d
00000080: a500 523d e6b9 2c3d ef1c 7abc a97c a8bc
00000090: 7e6d 273d 6f9a b6bc 9bc0 c73b ac67 5ebd
000000a0: 9888 f6bc 42ce da3c fa8c c13c bc04 623d
000000b0: 6acd 383d eb08 5bbd 4e7d df3b 1e85 3a3d
000000c0: 49d0 b43c 90c0 4dbc f7b1 81b9 6276 193b
000000d0: e0db 703d 3175 a2bb 7982 91bc 1011 a93a
000000e0: f8e2 d83a ca33 27bd 4890 4a3d b9b1 863c
000000f0: 6637 31bd 4e2c 24bc 91d7 f43c da1a 3e3d
00000100: a030 64bd 3314 143d 8c2a 4f3d cfc9 943c
00000110: d825 a03c 81fd 503d 3a8c 11bc cf2a 0abd
00000120: 1223 dc3c 10bc 43bc 775b 4fbd f646 983c
00000130: 1a9e a23c 911a 38bd 7d94 143d c075 323d
00000140: b633 03bd 12a6 4e3d b7e9 203d 2a84 1dbd
00000150: 3b05 693d 6475 2fbd 5443 53bc ed59 22bd
00000160: 6bf8 933b 23ac 4a3c e08d c2bc bdb5 093d
00000170: 80f6 663c 2ba3 edbc 7411 823c 0976 1f3d
00000180: 3045 2b3d ee3c 50bd 32d9 403d 2737 453d
00000190: 1ce1 49bc 1a45 ffbc 490d 1b3d 66a6 403d
000001a0: dc8b 0bbd 526d 5a3d 2380 8d3c 0ddb 4b3d
000001b0: 88bf 0fbd 6095 8abb 25e1 9b3c 5927 c9bc
000001c0: 459f 083c 4919 9b3b 1033 0c3d 705a 20bd
000001d0: 12e4 98bc 480e db3c ed29 d0bb bfd3 06bd
000001e0: 173d c33c 9af5 51bd 7440 d33c 0223 cd3c
000001f0: fbdb 4fbd e3bd a63c a715 ba3c 2cd8 d93c
00000200: ab52 373d 1b3f 413d ec75 253d 6893 5d3d
00000210: b082 3f3d 7dc6 4f3d 7f1b 62bd 8187 1bbd
00000220: 3e26 35bd cff0 2f3d 2e1c 20bd d68c 293d
00000230: f77e acbc 2dce 643d 0d80 1bbc 8f52 0a3d
00000240: e6b0 103d fc6b 4c3d 03ad 4dbd b865 98bc
00000250: f6db a3bc 2f52 07bd b6c1 40bd caae 2bbd
00000260: 2898 103d 638c 613d 24b6 443b fd0f 153d
00000270: 259d 5a3d b6d6 663c 8e3f 11bd 546d 08bc
00000280: 8987 62bd 1655 03bd a006 abbc 9bef 24bd
00000290: ae0d 97bc 1570 4f3d 21e8 703d 6e37 d639
000002a0: c37e 41bd 7007 033d 672e 0b3b bc58 65bd
000002b0: 9b3d 62bd a6f3 26bd ab7c 97bc 7ddc e7bb
000002c0: 9a1c 273d b8ed 20bc 856c 543c 18a3 e6bc
000002d0: 4313 a43c efa5 4c3d a5b2 d6bc c248 91bc
000002e0: 3b74 433d 58d6 1e3d 38a6 33bd fbb7 40bd
000002f0: f956 503c 851d 1cbd eba9 f0bb d94d a33c
00000300: 26f5 143c f2eb 963c 7ba4 6bbd 862d b03c
00000310: 824e 283d 5c6d 8fbc a90c a23b 1474 243c
00000320: ac71 80bc f654 9c3c 28b0 f23c 821a 5d3d
00000330: 0755 56bd 26a0 eebc 3155 123d c266 703d
00000340: 34e7 3fbd 0ce4 87bc bec7 913c 8e39 bb3c
00000350: 0dcf fa3c 831d 6e3d 6533 bb3b 216d 2a3d
00000360: 180a 173d 7b51 bc3c b938 e13c c915 023c
00000370: 580c 123d ba34 52bd 98ca 47bc 54e3 bf3c
00000380: bc24 08bd d8c7 acbc 89c2 43bd 3851 873c
00000390: 2825 45bc cbbe 5e3d 65a1 5a3d 7ea2 cc3c
000003a0: 55e9 663d 3c04 5a3d 005b 073c 310d 193d
000003b0: e277 0b3d 5778 2abd 121c e8bc 3cb9 6e3b
000003c0: 7311 db3c 05a0 12bd 6fdd 3fbc 4141 4a3d
000003d0: 9b34 c93c b91c c13c fe26 693d c907 42bd
000003e0: 13d5 ca3c 1411 113d 2bfe b1bc 31f3 12bd
000003f0: c98e c6bc 618a 313d 24e1 74bc c018 713d
-0.043175634 -0.023188986 -0.05332443 -0.031643108 0.041557066 0.0055758525 0.023267534 -0.020282554
0.043864895 -0.0020387836 -0.05017215 -0.050615583 -0.056613896 -0.038064778 0.038231485 0.027096989
-0.042261206 -0.032969337 -0.015618822 0.03027446 -0.040916078 -0.0304696 -0.036203478 -0.026823752
-0.018171951 -0.016332416 0.016981324 0.040185545 -0.030167064 -0.0076816776 0.04625657 0.049122497
0.051270146 0.042169474 -0.015265687 -0.020567255 0.040875904 -0.022290437 0.0060959584 -0.054298088
-0.03009443 0.02670968 0.023626793 0.055180296 0.045117773 -0.0534753 0.0068203574 0.045537107
0.022071974 -0.0125581175 -0.00024737392 0.002341651 0.05880344 -0.004957818 -0.01776241 0.0012898762
0.0016547134 -0.040820874 0.049454004 0.016442167 -0.043265723 -0.010020329 0.029887946 0.046412326
-0.055710435 0.036152076 0.050577685 0.018162636 0.019549295 0.05102301 -0.00888353 -0.03373223
0.026872192 -0.011946693 -0.050624337 0.018588524 0.01985078 -0.04494721 0.036274422 0.043569326
-0.032031737 0.050451346 0.039285388 -0.03845612 0.056889754 -0.04283656 -0.01289447 -0.03963654
0.0045156977 0.012370142 -0.023749292 0.033620585 0.014096856 -0.029008469 0.015877463 0.038930926
0.04181403 -0.050839357 0.047082134 0.0481483 -0.012321737 -0.03116088 0.037854467 0.04703369
-0.034068927 0.053326912 0.017273014 0.04976945 -0.035094768 -0.0042292327 0.019028256 -0.024554895
0.008338754 0.004733239 0.034228384 -0.039148748 -0.01866344 0.026740208 -0.006352654 -0.03291678
0.02383284 -0.051259615 0.02578757 0.025041107 -0.0507469 0.020354217 0.022715403 0.026592337
0.044756573 0.047179323 0.040395662 0.054095656 0.046755493 0.050726403 -0.055202004 -0.037971023
-0.044225924 0.042954262 -0.039089374 0.041394077 -0.021056635 0.055860687 -0.009490979 0.03377014
0.035324953 0.04990767 -0.050213825 -0.01860319 -0.020002346 -0.03303736 -0.047059737 -0.04191474
0.035301358 0.055065524 0.003001579 0.0363922 0.05337252 0.014089277 -0.035461 -0.008326847
-0.055305038 -0.032063566 -0.020877182 -0.040267568 -0.01843914 0.050644 0.058815125 0.0004085856
-0.04724003 0.031989515 0.0021237375 -0.055992827 -0.055234533 -0.040759705 -0.018492064 -0.007075845
0.04079876 -0.009822302 0.012965326 -0.028153941 0.020028716 0.049962934 -0.026208231 -0.017734889
0.047718268 0.038778633 -0.04385969 -0.047050457 0.012716048 -0.03811409 -0.0073444746 0.019934582
0.009091651 0.018423054 -0.057529908 0.021506082 0.041090496 -0.017508201 0.004945357 0.010037441
-0.015679203 0.019083481 0.029625013 0.053980358 -0.052327182 -0.0291291 0.035725776 0.058691747
-0.04685135 -0.016588233 0.01779544 0.022854593 0.030616308 0.058133613 0.005712914 0.04160798
0.03687486 0.022988072 0.027492868 0.007939764 0.035656303 -0.051319815 -0.012194298 0.023423828
-0.033238158 -0.021091387 -0.047792945 0.01651822 -0.0120327845 0.054381173 0.053376574 0.024979826
0.056374867 0.053226694 0.008261442 0.037366096 0.034049876 -0.04161867 -0.028333697 0.0036426326
0.026741719 -0.035797138 -0.011710509 0.049378637 0.024561217 0.023573266 0.05692195 -0.047370706
0.024759805 0.035416678 -0.021727642 -0.035876457 -0.024238007 0.04334486 -0.014946256 0.058861494

fc.bias f4 [128]
00000000: 295c de3b fb54 483d 6a21 fc3a a260 24bc
00000010: 110d b4bc 508c f93c 944a cdbc 209a c5bb
00000020: 6eaa d8bc 0945 2cbd 05ff afbc 23da 9ebc
00000030: 14ea 6abc d670 203d e0e7 1a3c c471 25bd
00000040: f786 05bd 6210 5f3d b255 3dbc f348 3fbd
00000050: 9a5c 693d 5711 cabb 571d a4bc ff77 44bd
00000060: c9a2 8dba 8511 4cbd c176 cbbc a32e 823c
00000070: 5993 e03c b6f8 fabc bc76 0f3d 2c60 063d
00000080: 530f 033d c28a cbbb 1b3f 183c 8b9f 0fbd
00000090: 3da8 493d 520a 623a 732c 1bbd ec84 fa3c
000000a0: 7f51 0fbd 828f 083c 1720 65bd a4b4 eebb
000000b0: 8fde 423d 91b9 c73c facf 503d 4598 533b
000000c0: 365b 4d3d e956 013d 0bdb 44bd 09d4 193d
000000d0: e988 98bb 97d8 e33b 9785 e1bc 6e18 063d
000000e0: ff18 563c e931 993b b65e dfbc c403 6abc
000000f0: 1da1 973c 6749 633c fd53 61bd d61b b9bc
00000100: 623d d6bb b637 b43b e910 5ebc f3f9 843b
00000110: 7f0d 443b 111a 073d 7009 7e3c ef6d 543c
00000120: 13df 2cbc 6873 2fbd d5e0 12bd 1782 c13c
00000130: 9450 073d ad80 8a3c 96a9 2d3d 12b8 5fbd
00000140: 8d50 c3bc c614 f4bc c699 803c adcb 2ebd
00000150: 749a 08bd 5cfd 47ba 743b eb3c 7a3c 413d
00000160: 0721 6d3c dfd3 8d3b f9a8 63bd 12bb 98bc
00000170: 4ddf d8bc ebe9 c8bc ec9b 503d 598c 17bd
00000180: f5f2 65bd d357 37bd b78a 9bbb ce50 9b3c
00000190: 22ec d9bb 8428 64bd 56e5 033d 88f8 573c
000001a0: 793b 21bc 05eb b23b 5093 533d a180 5c3d
000001b0: 9ea7 cbbc 5745 463d 2066 a4bc 182e 27bd
000001c0: 6da5 353d f794 a7bc 61c9 51bd 1222 063d
000001d0: feb6 a73c 1c61 51bc 1525 17bd b146 67bd
000001e0: 4e31 68bd 296f 14bd 0c58 cf3c 88b8 043d
000001f0: 59d6 8e3c 24ff 13bd 46a5 af3b 1790 853b
0.0067858887 0.04890917 0.0019236032 -0.010032805 -0.021978887 0.030462414 -0.025059976 -0.006030336
-0.026448455 -0.042058025 -0.021483907 -0.019391125 -0.014338035 0.03917011 0.009454697 -0.0403917
-0.032599416 0.054458983 -0.011556076 -0.04670043 0.056973077 -0.006166618 -0.020033522 -0.047966
-0.001080596 -0.049821395 -0.0248369 0.015891379 0.02741401 -0.030636173 0.035025343 0.03280656
0.031997036 -0.0062116096 0.009292389 -0.03506426 0.04923271 0.00086227537 -0.037884187 0.03058096
-0.03498983 0.008334996 -0.055938806 -0.0072847176 0.04757553 0.024380477 0.050979592 0.0032286805
0.050135814 0.031577025 -0.04806046 0.037555728 -0.004654993 0.0069533098 -0.02752952 0.03273814
0.013067483 0.004675139 -0.027266841 -0.014283124 0.018509442 0.013872481 -0.055011738 -0.022596281
-0.006538079 0.0054998053 -0.013553836 0.0040581166 0.002991527 0.032983843 0.01550518 0.012965663
-0.010551232 -0.04283467 -0.035858948 0.023621602 0.03303583 0.01690706 0.042398058 -0.054618903
-0.02384212 -0.029795062 0.015698325 -0.04267471 -0.033350423 -0.0007629001 0.028714873 0.047176816
0.014473206 0.0043282355 -0.055581067 -0.01864389 -0.026473666 -0.024525603 0.05092995 -0.03699908
-0.056139905 -0.04476149 -0.0047467607 0.01895943 -0.0066504637 -0.0557027 0.032201134 0.013181813
-0.00984084 0.0054601454 0.05165416 0.053833608 -0.0248602 0.04840597 -0.020068228 -0.040815443
0.044347215 -0.020456774 -0.05121744 0.032747336 0.020473 -0.0127795 -0.0369006 -0.0564639
-0.056687646 -0.036238823 0.025310539 0.032402545 0.017436193 -0.036131993 0.0053602783 0.0040760147

out.weight f4 [4, 128]
00000000: 424a 96bd 59c8 8cbd 09eb 703d 7199 99bd
00000010: 657c 913c 41d8 113d 728e 4fbd 168f 7b3c
00000020: 7207 a33d 6a76 ae3d f6ee 433d cafc 8b3c
00000030: c2a8 56bc 6f9e a7bd e533 8b3d 6028 2cbd
00000040: 59cd 8e3d b558 2fbd a478 263d cf37 2e3d
00000050: 233a 88bd 31e3 fabc c323 53bd d734 9d3d
00000060: 82bd 0a3d e383 933d ecb3 cd3b 5660 b0bd
00000070: bc1c 403c ea44 5abd 1d92 a33c ff46 b2bd
00000080: 8540 e83c 47f9 7a3d 4e51 5bbd 6324 583d
00000090: b150 453d 3852 f5bc 3dec 55bd 1e71 b03c
000000a0: 6351 2c3d 6fc4 e9bc ab1d 04bc 74bd 7ebd
000000b0: 8159 1e3d 9fbe fabc 59ce 1dbd 7d9b a63d
000000c0: fb6e 99bd 4363 783d bfa2 3fbd f728 2d3c
000000d0: 305c 553d 758a 903b 3045 923d aa43 453d
000000e0: 16c1 15bd 6629 9e3c b5f6 06bd 3973 d1bc
000000f0: a57d 95bd 08a8 8e3b c232 74bd 3bc6 18bd
00000100: c165 1e3d 01c6 d83c d52a c03a 3d39 21bd
00000110: 44b8 afbd facd 9b3d 6f47 a3bd 9fcf 9ebd
00000120: f891 a4bd 6815 863d 4520 033d 117a 7e3d
00000130: 6203 65bd e7e9 c13c 59db 50bc 84ed 5ebd
00000140: fd3d 273d 8743 b5ba 149b a43c 02d4 9bbd
00000150: 94f1 bbbc 4433 7cbd fed0 293d 0704 de3c
00000160: e4b3 c2bc 11ae 963c d399 a73a a69a 1b3d
00000170: c195 95bd c2c0 233d 2fd3 a4bc 60d8 b43d
00000180: e111 9b3c 8795 f9bc 295b b1bd e76c 29bd
00000190: 7f7a 94bd 0b9c 753d 43fa 3b3d 59d4 b63c
000001a0: ef2f eb3b d182 a73d 0cad 123c f00d 5a3d
000001b0: cb30 5a3c 222f 4a3d 8397 713d b544 3ebd
000001c0: 4614 4abd d628 a03c 1f5d 89bd a59e 05bd
000001d0: f6c5 8c3d 334b 17bd dea4 4a3d c4a4 b3bd
000001e0: e6a0 89bd dd11 943d 7cda ffbc 585b 8bbd
000001f0: 118b 84bd 42ca 65bd ecbb aa3d c877 2e3c
00000200: b755 b4bd a5c4 2cbc ee46 6cbd 7ab5 1fbd
00000210: 3a6a bcbc fc48 fdba 815d 39bd 2fdb 933d
00000220: 4752 483d d3ce 4dbd ddf9 0d3d dd0a 88bd
00000230: bc0d 4cbc e3a5 493c e39c e4bc 7f09 a63d
00000240: e608 36bd 62f5 34bd 5ae2 3b3d e43e 39bd
00000250: c73a 6e3d d53a 903d 87c0 90bd b897 31bd
00000260: 9879 edbb 5a02 1e3d bf3e 803c 2e81 353c
00000270: 3116 773d de2b a13d 2474 883d b838 be3c
00000280: aaee b63c cc64 00bd 30be 7fbd 0018 96bd
00000290: 5ccc 81bd a3ee 9a3c 9c1a 23bd d174 943d
000002a0: 17ce c3bb 7409 66bd 5eec e0bc 4ace 67bd
000002b0: 0378 63bb 5dc4 bcbc 5c40 913c b41c 4e3d
000002c0: dc44 b0bc 7ef6 e3bc 2d36 3a3c 3100 fe3c
000002d0: 5ea9 493d 42ef 763c 8ba9 1fbd 59c6 323d
000002e0: 91c4 99bc d2c8 963d 2f9c aebd c3a2 93bd
000002f0: 4d08 083c c406 5a3a 3a55 423d 11a9 85bd
00000300: f5fc 263d dec5 03bd 2bb4 a23c 7858 08bd
00000310: bc72 18bd 56c8 a3bb 001b ec3c 959a cc3c
00000320: de29 e03c 1de6 5a3d 0345 f83c c24f 0dbc
00000330: 8ffd 94bd b092 03bd 6b99 b33d 981f a3bd
00000340: 640f 893c be48 f43c 891e 773d d4e1 f5bc
00000350: e0bd 953d dec9 b73c 8b4f 623d 8790 97bd
00000360: 9279 80bc 85fe c5bc f61a 583d 7370 1cbd
00000370: b79d 953d a77f 313d 9586 7abc 28a3 febc
00000380: d468 9abd 031d 423d d523 243d 9adc 40bd
00000390: 7ab6 adbc 3ee8 aebd dfb6 183c bf72 213c
000003a0: 7eff 9e3d 3f4e bd3c e4c4 a0bd 1b41 c4bc
000003b0: 29fc b23d ab4b 07bd d462 f23b 079e 9e3c
000003c0: f88d 95bd 7d6e 933d 8908 7bbd ee65 75bc
000003d0: b9b8 693b 096c 3bbd 79cd 84bd d5e5 cabc
000003e0: 8478 4a3c 3bf4 3d3d b792 3d3d d70d a33d
000003f0: e5f6 d63c 1a40 14bd 3c88 a3bd b363 803d
-0.07338382 -0.06874151 0.058817897 -0.0749997 0.017759511 0.035606626 -0.050672956 0.015353939
0.079604045 0.085186794 0.047835313 0.017088313 -0.013101758 -0.08184516 0.067970075 -0.042030692
0.06972761 -0.042809207 0.040642396 0.042533692 -0.06651714 -0.030625911 -0.051547777 0.07676094
0.033872135 0.0720289 0.006277552 -0.086121246 0.011725601 -0.053288378 0.019967133 -0.08704948
0.028351078 0.061272886 -0.053544335 0.052769076 0.048172656 -0.029946432 -0.052227248 0.021538313
0.042069804 -0.02853605 -0.008063714 -0.062192395 0.038659576 -0.030608473 -0.038526867 0.08135126
-0.07491871 0.06064154 -0.046786066 0.010568849 0.05208987 0.0044110366 0.07142103 0.048160233
-0.036561094 0.01930685 -0.032950122 -0.025567638 -0.072993554 0.004353527 -0.05961872 -0.037298422
0.03867126 0.026461603 0.0014661202 -0.039361227 -0.08580068 0.07607646 -0.07972609 -0.07754444
-0.08035654 0.06547052 0.032013196 0.06212813 -0.05591143 0.023671104 -0.012747609 -0.05442573
0.0408306 -0.0013829329 0.020093478 -0.07608797 -0.022942342 -0.06157233 0.041459076 0.02710153
-0.02376742 0.018393548 0.0012786932 0.03798928 -0.07303954 0.03997875 -0.020120231 0.08830333
0.018929424 -0.030466808 -0.086599655 -0.041363623 -0.07249927 0.059963267 0.045892965 0.022318052
0.007177345 0.08179248 0.00895239 0.053235948 0.013317297 0.049361356 0.058982383 -0.046452243
-0.04933574 0.019550722 -0.067072146 -0.032622 0.068736956 -0.03693695 0.049473636 -0.08771661
-0.06720142 0.0722997 -0.031232111 -0.06804532 -0.06471837 -0.05610109 0.083366245 0.010648675
-0.08805411 -0.010544931 -0.05768483 -0.03899143 -0.022999872 -0.0019324119 -0.045255188 0.0721954
0.04890659 -0.05024607 0.034662116 -0.06642697 -0.012454446 0.012307617 -0.02790684 0.0810728
-0.04444208 -0.044179328 0.045870163 -0.045225993 0.058161523 0.07042471 -0.07067972 -0.04335758
-0.007247161 0.03857646 0.01565492 0.011078162 0.060323898 0.07869695 0.06662777 0.023220405
0.0223306 -0.031346127 -0.062437236 -0.073287964 -0.063378066 0.018912619 -0.0398203 0.072488435
-0.0059754956 -0.05616136 -0.027456459 -0.056593217 -0.0034708984 -0.023042852 0.017730884 0.050320342
-0.02151721 -0.027827498 0.011365456 0.03100595 0.049233787 0.015071692 -0.03898005 0.04364619
-0.018770488 0.07362522 -0.085258834 -0.07208779 0.00830276 0.0008317048 0.04744456 -0.065263875
0.040768582 -0.032171123 0.019861301 -0.033287495 -0.037218794 -0.004998247 0.028821468 0.024976054
0.027363714 0.05344211 0.030306345 -0.008624973 -0.07274925 -0.032122314 0.087694965 -0.079650104
0.016730972 0.029819842 0.060331855 -0.03001491 0.073116064 0.022435125 0.05525164 -0.07400613
-0.01568297 -0.024169216 0.052760087 -0.038193177 0.07305472 0.04333463 -0.015290876 -0.031083658
-0.07539526 0.04739095 0.040073235 -0.047085382 -0.021205176 -0.085403904 0.009320944 0.009854018
0.07763575 0.0231086 -0.07850054 -0.023956826 0.08739502 -0.033031147 0.007397035 0.019362463
-0.07302469 0.07198808 -0.061287437 -0.014977915 0.0035663082 -0.045757327 -0.06484503 -0.024767796
0.012357835 0.046375494 0.046282496 0.07961624 0.026240775 -0.036193945 -0.07984969 0.06269016

out.bias f4 [4]
00000000: 89c5 5fbd 6552 8a3d 983d aa3d 33a4 16bd
-0.054631744 0.06753997 0.08312529 -0.036777686
