Model exports/best_model_Oct22_protANDmRNA_weights_residual_2024_11201950.pth (torch, 543746 bytes, 68 tensors)

conv1.weight f4 [16, 3, 2, 2]
0.12363127 -0.13785818 0.1116408 -0.036172114 -0.12997971 4.982e-42 -0.094098404 -0.06592695
-0.16501634 0.18335648 0.28666922 -0.08312885 -0.2718186 0.116005525 0.13204218 0.17307033
-0.18181714 0.013079715 0.0020619626 0.055109594 -0.20153663 -0.17667116 -0.2749008 -0.031062195
-0.018026212 -0.21600819 -0.04799426 -0.11461145 -0.11064972 0.13860117 9.565974e-31 0.019525481
0.077755004 -0.030487958 0.06385785 0.046862304 0.06923154 -0.026107503 -0.109680735 0.05939699
-0.06031011 0.004266869 -0.112702236 0.1797335 -0.10484292 -0.14331684 -0.22632656 -0.17658643
-0.26524433 -0.09861731 -0.087594666 0.19604765 0.01680732 2.4303538e-13 -0.112586945 -1.9282722e-07
0.26873296 -0.032156967 0.17204307 0.15986323 0.11916784 0.23507556 0.0142541425 0.057951495
-0.15176176 0.12641525 -0.048505597 0.05898882 0.08418178 0.15774043 -0.24692327 -0.020617092
-0.22419704 0.084723525 -0.09258727 0.19792244 -0.13224807 -0.06553645 -0.15728329 -7.636233e-06
-0.016839905 -0.12389765 -0.18423337 -0.1372079 0.031195948 0.17759947 0.064460054 -0.27043894
0.010961734 -0.12904048 -0.15343787 -0.13049841 0.23457956 0.1850856 -0.11581789 0.27663937
-0.1331922 -0.2540211 0.16435553 -0.009843265 0.017169649 1.7214644e-06 -0.070413165 0.0464802
-0.24429528 -0.08635072 -0.021353869 -0.03568183 -0.26318008 0.2534593 -0.21715976 0.23562855
-0.1664593 -4.7959846e-05 0.03578179 0.137071 -0.057605986 -0.19868931 -0.07229303 -0.11744636
0.0071306787 0.04484925 0.14261357 -0.20027845 0.05006494 -0.13956544 0.088551804 -0.1321779
0.24578565 -0.15968709 -0.15821585 -0.05684076 0.09002266 0.01549908 0.03875723 -0.09228442
-0.077572025 0.1422622 0.11096463 -0.11644069 0.03672037 -0.014578327 -0.057420135 -0.20706712
-0.104320675 -0.24657953 0.21968037 0.12561047 -0.13326436 1.547795e-10 0.05633272 0.0070261564
-0.008248192 -0.16532889 0.016120493 0.17744493 -0.11997231 0.101955175 -0.20803376 0.2824237
-0.12183726 -0.019821482 6.997454e-08 -0.0029588665 -0.051729523 0.24826324 -0.061442744 -0.1702581
0.2822601 -0.18818441 -0.062330257 -0.107730955 -0.00045361416 -0.100424625 -0.045322508 0.01582801
-0.039689396 -0.27186581 -0.061370064 0.23448311 -0.129837 0.24214676 -0.17401873 -0.06247599
0.00014590289 -2.1171972e-22 0.10839862 0.07503106 0.1963212 0.052408945 -0.17090549 0.05301835
00000000: 6432 fd3d b22a 0dbe efa3 e43d 3629 14bd
00000010: 6719 05be e30d 0000 aab6 c0bd b504 87bd
00000020: 0bfa 28be cdc1 3b3e 4fc6 923e 753f aabd
00000030: cf2b 8bbe 4e94 ed3d 1136 073e 5939 313e
00000040: 462e 3abe 4d4c 563c fe21 073b 99ba 613d
00000050: 9e5f 4ebe 49e9 34be ccbf 8cbe 2576 febc
00000060: b5ab 93bc 4031 5dbe a195 44bd 68b9 eabd
00000070: 529c e2bd 77ed 0d3e 8037 9b0d e7f3 9f3c
00000080: 043e 9f3d e2c1 f9bc e8c7 823d b0f2 3f3d
00000090: 44c9 8d3d 67df d5bc 4ba0 e0bd 424a 733d
000000a0: bc07 77bd 17d1 8b3b 6ed0 e6bd 0f0c 383e
000000b0: e3b7 d6bd a6c1 12be 26c2 67be 13d3 34be
000000c0: 1bce 87be dff7 c9bd d564 b3bd b7c0 483e
000000d0: 81af 893c 17d1 882a fc93 e6bd f10b 4fb4
000000e0: 5e97 893e 06b7 03bd 0f2c 303e 30b3 233e
000000f0: 450e f43d a6b7 703e 358a 693c 8c5e 6d3d
00000100: 6f67 1bbe 0073 013e cead 46bd 439e 713d
00000110: 7f67 ac3d b586 213e 74d9 7cbe 2de5 a8bc
00000120: e993 65be 8783 ad3d 659e bdbd 2eac 4a3e
00000130: 0a6c 07be f937 86bd df0e 21be 5f1d 00b7
00000140: d7f3 89bc 0dbe fdbd aca7 3cbe 3a80 0cbe
00000150: a58e ff3c a3dc 353e a203 843d f976 8abe
00000160: d898 333c 3023 04be d11e 1dbe 60a1 05be
00000170: a035 703e 1487 3d3e ee31 edbd ada3 8d3e
00000180: 8963 08be 0e0f 82be d14c 283e a545 21bc
00000190: 5da7 8c3c 110d e735 c734 90bd 0662 3e3d
000001a0: 8b28 7abe a5d8 b0bd 4fee aebc 1c27 12bd
000001b0: 8abf 86be 6bc5 813e 215f 5ebe 9c48 713e
000001c0: 4f74 2abe 7e28 49b8 ed8f 123d 575c 0c3e
000001d0: 41f4 6bbd 3675 4bbe 5e0e 94bd b887 f0bd
000001e0: 78a8 e93b d9b3 373d 4b09 123e cb15 4dbe
000001f0: e510 4d3d 3eea 0ebe a65a b53d a559 07be
00000200: 3caf 7b3e 0385 23be 5603 22be dbd1 68bd
00000210: cd5d b83d daef 7d3c e7bf 1e3d 9dff bcbd
00000220: 15de 9ebd 2fad 113e 6d41 e33d 7578 eebd
00000230: 1968 163d efd9 6ebc 6031 6bbd 6709 54be
00000240: 14a6 d5bd 587f 7cbe e4f3 603e 08a0 003e
00000250: 7476 08be 8e2e 2a2f 23bd 663d ac3b e63b
00000260: 6d23 07bc fa4b 29be 200f 843c 20b4 353e
00000270: 0bb4 f5bd e0cd d03d cd06 55be d799 903e
00000280: d085 f9bd a960 a2bc e944 9633 8be9 41bb
00000290: 56e2 53bd b838 7e3e 63ab 7bbd 2458 2ebe
000002a0: 6584 903e 6ab3 40be 034e 7fbd 0ca2 dcbd
000002b0: 10d3 edb9 6dab cdbd 18a4 39bd bea9 813c
000002c0: 5991 22bd ff31 8bbe 2d5f 7bbd 571c 703e
000002d0: fef3 04be 52f5 773e f731 32be d3e6 7fbd
000002e0: 82fd 1839 14f4 7f9b 1800 de3d e2a9 993d
000002f0: 6d08 493e c3aa 563d d901 2fbe c529 593d

conv1.bias f4 [16]
0.060170665 -0.14285235 0.0064295083 0.15682594 0.014408711 0.17558552 0.09246411 -0.05603981
-0.12943868 -0.08189275 0.11740302 0.07265387 0.036192454 6.656865e-07 0.017985031 0.06507643
00000000: 8475 763d e347 12be a0ae d23b fb96 203e
00000010: 8412 6c3c b1cc 333e d35d bd3d 008a 65bd
00000020: 938b 04be 63b7 a7bd ff70 f03d 8dcb 943d
00000030: 8a3e 143d a1b1 3235 5855 933c cb46 853d

bn1.weight f4 [16]
0.98083764 0.9986606 0.9950296 0.9927369 1.002494 0.9949632 0.9887754 0.98908913
0.990761 0.9948891 0.995582 0.99315506 0.99422705 1.0035237 0.9942436 0.99429697
00000000: 2d18 7b3f 39a8 7f3f 43ba 7e3f 0124 7e3f
00000010: b951 803f e9b5 7e3f 6220 7d3f f234 7d3f
00000020: 83a2 7d3f 0db1 7e3f 76de 7e3f 693f 7e3f
00000030: aa85 7e3f 7773 803f c086 7e3f 3f8a 7e3f

bn1.bias f4 [16]
-0.001517566 0.00839117 0.0013110187 0.0016238639 0.005351319 0.0021145116 -0.006153917 -0.0064124065
-0.004723192 0.0030871276 0.0020294464 0.00041349858 0.0069902427 0.0006835681 0.006264696 -0.0028215868
00000000: 11e9 c6ba 1e7b 093c 7dd6 ab3a d5d7 d43a
00000010: 1e5a af3b 9e93 0a3b cca6 c9bb 2a1f d2bb
00000020: 02c5 9abb 6851 4a3b 7600 053b d7ca d839
00000030: 680e e53b 7b31 333a 1448 cd3b 5fea 38bb

bn1.running_mean f4 [16]
37.982258 -79.061844 -22.09808 -92.74698 53.454697 45.11853 -67.66272 81.89415
-80.417046 -62.180458 -18.171804 -28.027971 3.290758 3.2539608 -30.836699 4.844477
00000000: d5ed 1742 aa1f 9ec2 dec8 b0c1 747e b9c2
00000010: 9cd1 5542 6079 3442 5053 87c2 cec9 a342
00000020: 87d5 a0c2 cab8 78c2 db5f 91c1 4939 e0c1
00000030: c79b 5240 e540 5040 8fb1 f6c1 f505 9b40

bn1.running_var f4 [16]
13.843839 398.42987 177.22243 240.9105 395.5223 117.468666 109.93891 201.64287
15.009073 119.50566 8.258998 50.504314 1.9757031 12.29457 13.545046 39.71556
00000000: 5d80 5d41 0637 c743 f138 3143 17e9 7043
00000010: dbc2 c543 f5ef ea42 b9e0 db42 93a4 4943
00000020: 2a25 7041 e602 ef42 db24 0441 6b04 4a42
00000030: d7e3 fc3f 8fb6 4441 82b8 5841 bcdc 1e42

conv2.weight f4 [32, 16, 2, 2]
0.08504422 -0.04472581 -0.07751678 0.06686625 -0.100065164 -0.019656423 0.08813247 -0.06154987
-0.10214718 -0.119017266 -0.07697247 0.0076044025 -0.042580586 -0.042382978 -0.03400592 0.094115704
0.09348441 -0.040701468 -0.043168228 -0.061388746 -0.057042666 0.09750137 -0.006120323 0.0074100653
0.02521021 -0.049779613 0.093943074 -0.085984 -0.052300632 -0.021896278 0.035567764 -0.0615181
0.019593902 0.08119146 -0.01947242 0.02907489 0.11452032 0.02653201 0.01703109 -0.078476086
0.012038064 -0.0063421 0.11644446 -0.11030556 -0.10962882 0.070724405 -0.11627689 0.10141492
0.11732748 -0.025408465 -0.017715314 0.021993315 -0.02540192 -0.099732876 0.12287985 0.065079056
-0.07644001 -0.01723652 0.00065488 0.07652088 0.11814582 0.009037705 -0.10785531 0.11281504
-0.0064304997 -0.035513163 0.085036546 -0.012648461 -0.10137021 0.018736202 -0.07490091 0.046102922
0.039424915 -0.050770015 -0.040577985 0.10104605 -0.07821597 -0.013487513 -0.018977575 -0.10642271
0.031059112 0.06320977 -0.019297661 -0.10431304 -0.085018255 0.08405878 0.083493896 -0.0037529392
-0.022880219 0.031137913 0.043270666 -0.042027783 -0.0775879 0.037323963 -0.0010537105 -0.07389215
0.013578111 0.017258434 -0.0603088 -0.026391944 -0.04754676 0.062205363 -0.07285491 -0.09977601
0.020970006 -0.054619074 -0.025010508 0.039115198 0.058015686 0.060892913 -0.010341046 -0.08760356
0.07333374 0.08064466 -0.120985694 0.008703249 0.03785205 0.08445695 -0.033549782 -0.08769546
0.05935126 -0.006290294 0.011092333 0.0032015115 -0.096092075 0.09942347 0.024912251 0.016248403
-0.10007623 -0.07035671 0.07099143 0.0922005 -0.009481923 -0.098431185 -0.0042695696 0.01371288
0.09451194 0.07747703 0.061147314 0.05921739 -0.02561177 -0.03284989 -0.10850191 -0.00721553
0.02986206 0.11180023 -0.038785946 0.0014517303 -0.022427907 0.115803525 -0.08833376 -0.031721685
0.038257886 0.0696674 -0.061931748 0.052374434 0.021366902 0.10134419 0.101826385 -0.12614521
-0.085220166 0.09739831 -0.035861608 -0.12272194 -0.07668761 -0.120303355 0.11946734 -0.06576375
-0.0662257 0.07177989 0.08183372 0.028539784 -0.09272103 0.06889604 0.08606329 0.015373563
-0.10770883 0.08854648 0.1015276 0.07749989 -0.071031936 -0.050691724 0.017430728 -0.009534339
0.07439315 -0.045395758 -0.038198702 -0.09988458 0.101209566 0.050877336 0.09976453 -0.04914873
0.073383525 -0.077685975 -0.01658771 0.08123591 0.0020541078 0.05529154 0.09199784 0.013212942
0.069816634 0.071464576 -0.061895978 0.0520458 0.08361461 -0.07139485 -0.085700765 0.074505076
0.025406873 0.10788184 0.017209755 0.11763933 0.11177809 -0.04361803 0.122976735 -0.120221876
-0.06714495 -0.0021949182 0.07337091 0.008675002 -0.1319989 0.058470648 -0.10021141 0.040948097
-0.063366316 0.028466733 0.0622717 -0.03963958 0.027460458 -0.061334383 0.07951389 0.09687441
-0.1250805 0.091358274 0.019879019 -0.0071688737 0.11675865 -0.03361554 -0.06949962 -0.05661425
0.05826211 0.049839005 0.030307626 -0.08942049 0.098017536 0.07391084 -0.11454491 -0.06384486
0.071426414 0.00024184545 0.08495028 0.046723247 -0.027092837 0.09589283 0.08958545 0.02721041
00000000: aa2b ae3d 6932 37bd 1ec1 9ebd 2cf1 883d
00000010: f7ee ccbd 8206 a1bc cc7e b43d b71b 7cbd
00000020: 8a32 d1bd 53bf f3bd bea3 9dbd 5a2e f93b
00000030: fb68 2ebd c699 2dbd cb49 0bbd bcbf c03d
00000040: c174 bf3d 95b6 26bd 2bd1 30bd c472 7bbd
00000050: 92a5 69bd ccae c73d fe8c c8bb 22d0 f23b
00000060: a485 ce3c b5e5 4bbd 3a65 c03d 6118 b0bd
00000070: 3039 56bd d35f b3bc 81af 113d 67fa 7bbd
00000080: 6483 a03c b547 a63d a084 9fbc 772e ee3c
00000090: a189 ea3d a859 d93c c984 8b3c 12b8 a0bd
000000a0: 4d3b 453c 64d1 cfbb 6f7a ee3d e2e7 e1bd
000000b0: 1385 e0bd f5d7 903d 9422 eebd a0b2 cf3d
000000c0: 6449 f03d 6a25 d0bc b51f 91bc 532b b43c
000000d0: b017 d0bc c040 ccbd 6ea8 fb3d 2b48 853d
000000e0: 948c 9cbd 9a33 8dbc 41ac 2b3a fbb6 9c3d
000000f0: 70f6 f13d e212 143c 3fe3 dcbd 920b e73d
00000100: f1b6 d2bb 4076 11bd a427 ae3d 7e3b 4fbc
00000110: 2f9b cfbd aa7c 993c a665 99bd 6bd6 3c3d
00000120: 057c 213d 38f4 4fbd 1a35 26bd 3bf1 ce3d
00000130: b22f a0bd bbfa 5cbc dc76 9bbc 26f4 d9bd
00000140: ae6f fe3c 2074 813d 2116 9ebc 13a2 d5bd
00000150: 0d1e aebd 0227 ac3d d9fe aa3d dff3 75bb
00000160: 4c6f bbbc f014 ff3c 953c 313d 5325 2cbd
00000170: 68e6 9ebd 03e1 183d a81c 8aba c454 97bd
00000180: ba76 5e3c 8f61 8d3c 5c06 77bd eb33 d8bc
00000190: 64c0 42bd 0dcb 7e3d f434 95bd 5d57 ccbd
000001a0: 4ac9 ab3c 40b8 5fbd d6e2 ccbc 4237 203d
000001b0: dba1 6d3d d96a 793d 7e6d 29bc 7f69 b3bd
000001c0: 0030 963d 0729 a53d 59c7 f7bd 1298 0e3c
000001d0: c00a 1b3d c4f7 ac3d 7f6b 09bd ad99 b3bd
000001e0: 4f1a 733d d01e cebb 9ebc 353c 73d0 513b
000001f0: eccb c4bd 889e cb3d c714 cc3c 5f1b 853c
00000200: c4f4 ccbd 2e17 90bd f463 913d 9ed3 bc3d
00000210: 115a 1bbc 4a96 c9bd bfe7 8bbb fdab 603c
00000220: 7a8f c13d 47ac 9e3d 9b75 7a3d ef8d 723d
00000230: c6cf d1bc 9b8d 06bd 4036 debd 4170 ecbb
00000240: 47a1 f43c 85f7 e43d 03de 1ebd fc47 be3a
00000250: bbba b7bc 662a ed3d 55e8 b4bd 99ee 01bd
00000260: 4db4 1c3d c8ad 8e3d 25ac 7dbd 9386 563d
00000270: a409 af3c 8b8d cf3d 5a8a d03d 362c 01be
00000280: e987 aebd c478 c73d 9fe3 12bd a455 fbbd
00000290: 650e 9dbd 9b61 f6bd 4bab f43d 25af 86bd
000002a0: 57a1 87bd 5601 933d 7098 a73d 44cc e93c
000002b0: 86e4 bdbd 5e19 8d3d f341 b03d 66e1 7b3c
000002c0: 7296 dcbd db57 b53d b4ed cf3d 43b8 9e3d
000002d0: 3179 91bd 20a2 4fbd e3ca 8e3c eb35 1cbc
000002e0: 705b 983d e7f0 39bd 3e76 1cbd 4990 ccbd
000002f0: f646 cf3d c164 503d 5951 cc3d 2e50 49bd
00000300: 1a4a 963d d319 9fbd f3e2 87bc 035f a63d
00000310: 369e 063b 6279 623d 5d69 bc3d 187b 583c
00000320: 06fc 8e3d 055c 923d a386 7dbd fa2d 553d
00000330: 233e ab3d 7737 92bd e283 afbd 1e96 983d
00000340: 1322 d03c 27f1 dc3d 79fb 8c3c e4ec f03d
00000350: e9eb e43d d2a8 32bd 3adb fb3d e336 f6bd
00000360: 4b83 89bd 9ed8 0fbb 7d43 963d 9821 0e3c
00000370: b82a 07be eb7e 6f3d a43b cdbd 31b9 273d
00000380: 33c6 81bd 1133 e93c 9c10 7f3d 1d5d 22bd
00000390: c1f4 e03c c339 7bbd 2ed8 a23d 1766 c63d
000003a0: 1a15 00be 0c1a bb3d 53d9 a23c dfe8 eabb
000003b0: 291f ef3d 73b0 09bd d155 8ebd 58e4 67bd
000003c0: 40a4 6e3d fc23 4c3d b347 f83c 1722 b7bd
000003d0: 6bbd c83d 915e 973d 8696 eabd 18c1 82bd
000003e0: 0348 923d e597 7d39 6afa ad3d e060 3f3d
000003f0: ccf1 ddbc 7663 c43d 9478 b73d 5ee8 de3c

conv2.bias f4 [32]
0.030209085 -0.0035517404 0.013308772 5.1465745e-06 -1.7346334e-06 -0.012655701 0.03107478 2.3707383e-07
0.020778313 0.0038395058 -0.01936792 6.9180896e-06 0.005515248 -0.0068978677 1.2128121e-06 0.009820591
1.2850971e-06 -3.7761924e-06 0.025650848 -0.012663208 -4.6454534e-06 0.023203643 -0.017466033 0.0065093297
-4.8788493e-06 -0.025167035 -4.5504106e-07 0.00025470322 -0.00015633684 -2.2710399e-06 -0.019445872 0.00065829686
00000000: 0b79 f73c 51c4 68bb 090d 5a3c bdb0 ac36
00000010: 8dd1 e8b5 db59 4fbc 8990 fe3c 5c8e 7e34
00000020: 4837 aa3c 38a0 7b3b 79a9 9ebc f021 e836
00000030: 41b9 b43b 8207 e2bb e8c7 a235 8be6 203c
00000040: 9a7b ac35 7e6a 7db6 ba21 d23c 5879 4fbc
00000050: 24e0 9bb6 9115 be3c ed14 8fbc 374c d53b
00000060: ffb4 a3b6 192b cebc 5e4c f4b4 b089 8539
00000070: 5aee 23b9 2b68 18b6 f34c 9fbc 8e91 2c3a

bn2.weight f4 [32]
0.98160166 0.9899505 0.9895871 0.99309963 0.9825667 0.9959707 0.99033785 0.9805204
0.98313874 0.98060244 0.96973777 0.9899708 0.970682 0.9956119 0.98658293 0.9877077
0.9918707 0.99483234 0.98624474 0.99072814 0.9876517 1.0068431 0.9784607 0.9878363
0.975427 0.98870164 0.9834434 0.99849105 0.988586 0.98114115 0.9957182 0.98952067
00000000: 3f4a 7b3f 656d 7d3f 9555 7d3f c73b 7e3f
00000010: 7e89 7b3f f0f7 7e3f c886 7d3f 6303 7b3f
00000020: fbae 7b3f c308 7b3f bc40 783f ba6e 7d3f
00000030: 9e7e 783f 6ce0 7e3f b390 7c3f 69da 7c3f
00000040: 3deb 7d3f 55ad 7e3f 897a 7c3f 5ca0 7d3f
00000050: bed6 7c3f 3ce0 803f 677c 7a3f d7e2 7c3f
00000060: 95b5 793f 8d1b 7d3f f2c2 7b3f 1c9d 7f3f
00000070: f913 7d3f 112c 7b3f 63e7 7e3f 3a51 7d3f

bn2.bias f4 [32]
-0.010334849 -0.0068860846 4.3639677e-05 -0.0055430727 0.0069811987 -0.0024256401 0.004209101 -0.0052953223
0.00023751515 0.000661804 -0.0065450417 0.0011518054 -0.00868831 0.013368229 0.0055295993 0.00065790646
0.0032731825 -0.012178241 -0.004283451 0.00096803356 -0.007056492 0.008883307 -0.0033813713 0.0018334712
0.0008438168 -0.004397393 0.0009269778 0.008695352 0.007796344 0.0026279043 0.009520385 -0.007260974
00000000: 8053 29bc aaa4 e1bb bf09 3738 aaa2 b5bb
00000010: 8ac2 e43b 7df7 1ebb 80ec 893b 6284 adbb
00000020: 7d0d 7939 ea7c 2d3a ca77 d6bb 2df8 963a
00000030: 6a59 0ebc 6b06 5b3c a431 b53b 5b77 2c3a
00000040: e482 563b 3f87 47bc 315c 8cbb a2c3 7d3a
00000050: 253a e7bb 4a8b 113c ff99 5dbb 1651 f03a
00000060: 9633 5d3a 0218 90bb 6d00 733a f376 0e3c
00000070: 7978 ff3b eb38 2c3b 64fb 1b3c 77ed edbb

bn2.running_mean f4 [32]
0.040735103 -0.17372765 0.12887672 0.34240705 0.03278487 0.06866831 0.098413944 -0.33953807
0.22621733 0.24160832 -0.118464634 -0.025413781 -0.16864058 0.010346791 -0.19217633 -0.46586183
0.21606033 0.16475832 -0.26890177 -0.12412337 -0.33569267 0.070278466 0.049876727 -0.2601818
-0.16202776 -0.075940594 -0.21640547 -0.077168904 -0.0622596 0.037368096 0.3167944 0.07267066
00000000: dad9 263d a9e5 31be 42f8 033e fa4f af3e
00000010: 6e49 063d f9a1 8c3d 408d c93d efd7 adbe
00000020: 84a5 673e 2c68 773e 969d f2bd 9030 d0bc
00000030: 1eb0 2cbe 9685 293c dfc9 44be 7185 eebe
00000040: eb3e 5d3e 68b6 283e 7ead 89be 6534 febd
00000050: e9df abbe 28ee 8f3d 8a4b 4c3d 8d36 85be
00000060: 9bea 25be be86 9bbd 6599 5dbe bb0a 9ebd
00000070: ec03 7fbd 4a0f 193d e032 a23e 5bd4 943d

bn2.running_var f4 [32]
0.031337786 0.14459597 0.23298351 0.077816695 0.1979786 0.01266677 0.058938913 0.13669768
0.07373448 0.09901668 0.05870416 0.010189937 0.037670784 0.012828856 0.38921043 0.23352672
0.18060097 0.08842956 0.068557754 0.051121134 0.10485356 0.03053073 0.06548154 0.11899396
0.14108607 0.052620117 0.085374 0.011162708 0.049241625 0.09350659 0.30092052 0.035963375
00000000: 0d5c 003d f710 143e 3b93 6e3e 5c5e 9f3d
00000010: e7ba 4a3e 4988 4f3c ee69 713d 7afa 0b3e
00000020: 1a02 973d 42c9 ca3d c673 703d b2f3 263c
00000030: ae4c 1a3d 1f30 523c 9746 c73e a121 6f3e
00000040: 76ef 383e 8f1a b53d 0268 8c3d 6564 513d
00000050: 77bd d63d 951b fa3c 301b 863d 1bb3 f33d
00000060: de78 103e 3188 573d 90d8 ae3d cae3 363c
00000070: 96b1 493d 6280 bf3d 4112 9a3e 554e 133d

conv3.weight f4 [16, 32, 2, 2]
-0.00091055344 -0.03065944 -0.0246447 0.018349221 -0.055494007 -0.027490422 0.0104752015 -0.034541447
-0.0735948 0.0811825 -0.0018838033 0.0007450967 0.06916118 -0.047792453 -0.03261946 -0.032813217
0.058221634 0.053929236 -0.051276065 -0.0065322444 0.023955617 0.06524516 -0.06985485 0.05237194
0.07123572 0.08294045 -0.04833441 -0.035432804 -0.022778831 0.067859605 0.070202395 -0.032295823
-0.06650785 0.007260103 0.06411789 0.046941075 -0.050338674 0.09111365 0.061707515 -0.054044366
-0.09108524 0.060657624 -0.01804809 0.018111235 0.081232555 0.046840873 0.08402238 0.043380335
-0.0138087915 -0.061018456 0.013105674 0.07146349 0.019232357 -0.060315333 -0.07419472 0.0181839
-0.05705683 -0.07786219 0.08355648 0.07933382 0.076343514 0.06654207 0.011110462 0.020303369
0.0115660075 -0.0076517817 -0.056040555 -0.055786256 -0.027608162 -0.071546085 0.04139621 0.036081377
0.08089454 -0.060623754 0.036649756 0.08046697 -0.048346583 0.035725478 -0.07298994 0.021767324
0.064573124 -0.06077591 0.06800303 0.08590083 0.080630645 0.088542774 -0.00504091 0.034681108
-0.00012043479 -0.04207138 0.024415366 -0.070999384 -0.0800614 0.06820058 0.03926355 0.0055750706
-0.078433774 0.028749112 -0.06926578 0.022959052 0.06967868 0.065653354 -0.04865761 0.073971
0.027390294 0.021281492 0.050885007 -0.027892938 0.022387939 -0.08983486 -0.011454615 -0.055320747
-0.06770328 -0.06283925 -0.07519823 0.014572884 0.07769159 -0.06982845 -0.06008364 0.04424489
-0.04588625 0.074442975 -0.08203346 -0.0021591776 -0.04637249 -0.050462924 -0.0546926 0.0063806362
-0.046856966 0.020682126 -0.074549764 -0.08317307 -0.035616662 0.06686245 -0.008447392 0.0539199
0.06218116 0.0036939126 0.0032375888 -0.024499595 -0.044446904 -0.05320081 0.03448299 -0.04586086
0.04124519 0.0023758193 -0.060300358 -0.06480256 0.056096997 -0.06547895 -0.06651001 0.08490108
0.019754838 0.07108755 -0.021444509 -0.029911702 0.05136597 0.04271987 -0.050678447 0.004410841
0.026647063 -0.023400309 0.030588588 0.0069555803 0.0829838 0.08559066 -0.0756312 -0.026610285
-0.08234252 0.022701798 -0.0054199384 -0.009876778 0.031929545 0.044616092 -0.06645615 -0.05677874
0.0016246286 -0.058566954 0.031589393 -0.05128437 0.035939004 -0.02211672 -0.060411457 -0.078287475
0.02767659 0.05822109 -0.052406047 0.055294417 0.03893335 0.077436134 0.04152539 0.053256746
0.010090996 0.02326295 0.07977969 0.014939189 0.062389676 0.031844825 0.022305753 -0.0055185584
-0.046086892 -0.038690124 0.019190062 0.006675126 0.036180828 -0.014620183 0.040726658 0.06677338
0.0038236894 0.08647843 -0.043320093 0.04735535 0.020600244 0.03213993 -0.017001254 -9.144154e-05
0.0110331075 -0.08063399 -0.058944818 0.039735023 0.039172016 0.087187946 -0.040357657 0.07570304
0.02381183 -0.085647255 -0.04070722 -0.027588995 0.014089001 0.011647155 -0.042680092 -0.015455264
-0.073598474 -0.04545107 -0.08156425 -0.0043194075 -0.07644995 0.05177297 0.01904294 -0.019342694
0.07122358 0.07660836 -0.024526654 -0.06586725 0.08356772 -0.02673731 0.07454738 0.054457694
-0.0031798976 0.057761155 0.08094292 -0.037574776 0.08105292 -0.08744788 -0.05753045 -0.0043304837
00000000: 35b2 6eba 8229 fbbc afe3 c9bc 1b51 963c
00000010: af4d 63bd 9833 e1bc 2ea0 2b3c 557b 0dbd
00000020: dfb8 96bd 0343 a63d f3e9 f6ba 9852 433a
00000030: 60a4 8d3d 05c2 43bd fc9b 05bd 2767 06bd
00000040: cf79 6e3d e7e4 5c3d da06 52bd 700c d6bb
00000050: 923e c43c 419f 853d 0f10 8fbd f683 563d
00000060: 08e4 913d afdc a93d 4dfa 45bd fd21 11bd
00000070: ac9a babc faf9 8a3d 46c6 8f3d a048 04bd
00000080: 4535 88bd 28e6 ed3b 3e50 833d 4945 403d
00000090: ed2f 4ebd cb99 ba3d 05c1 7c3d a05d 5dbd
000000a0: e68a babd 2174 783d 97d9 93bc 035e 943c
000000b0: 415d a63d 37dc 3f3d ed13 ac3d 94af 313d
000000c0: 453e 62bc 7dee 79bd 2eb9 563c 735b 923d
000000d0: 2d8d 9d3c 360d 77bd 67f3 97bd 67f6 943c
000000e0: 6cb4 69bd 3676 9fbd a91f ab3d c579 a23d
000000f0: fd59 9c3d 3547 883d a808 363c 4053 a63c
00000100: 5a7f 3d3c ccbb fabb c88a 65bd 2180 64bd
00000110: 832a e2bc c186 92bd 138f 293d 11ca 133d
00000120: 09ac a53d 9d50 78bd 0e1e 163d decb a43d
00000130: 1107 46bd e154 123d c07b 95bd 6351 b23c
00000140: ea3e 843d 29f0 78bd 2c45 8b3d c6ec af3d
00000150: ae21 a53d ea55 b53d 382e a5bb c70d 0e3d
00000160: ef91 fcb8 0a53 2cbd bc02 c83c 2068 91bd
00000170: 3bf7 a3bd bfac 8b3d d1d2 203d 15af b63b
00000180: e3a1 a0bd 4283 eb3c 38db 8dbd 9f14 bc3c
00000190: b2b3 8e3d 4475 863d 344d 47bd 1c7e 973d
000001a0: 9c61 e03c 8656 ae3c cc6c 503d bb7f e4bc
000001b0: e966 b73c 57fb b7bd 23ac 3bbc 0298 62bd
000001c0: 04a8 8abd ddb1 80bd 8801 9abd 1bc3 6e3c
000001d0: c51c 9f3d 3802 8fbd 431a 76bd 213a 353d
000001e0: 38f3 3bbd 8f75 983d 2901 a8bd fd80 0dbb
000001f0: 14f1 3dbd 36b2 4ebd 5905 60bd a814 d13b
00000200: 17ed 3fbd 906d a93c 8cad 98bd a456 aabd
00000210: c7e2 11bd 2eef 883d ee66 0abc 1ddb 5c3d
00000220: acb1 7e3d 9215 723b ba2d 543b 60b3 c8bc
00000230: f50d 36bd 18e9 59bd 093e 0d3d 99d8 3bbd
00000240: b7f0 283d a2b3 1b3b 82fd 76bd 34b7 84bd
00000250: f7c5 653d d419 86bd 6636 88bd 9ee0 ad3d
00000260: e6d4 a13c 5996 913d 65ac afbc 6309 f5bc
00000270: 2065 523d 08fb 2e3d 3494 4fbd d188 903b
00000280: f14a da3c 01b2 bfbc eb94 fa3c a3eb e33b
00000290: 69f3 a93d 284a af3d 88e4 9abd d0fd d9bc
000002a0: 32a3 a8bd 1ff9 b93c bd99 b1bb 36d2 21bc
000002b0: 8ec8 023d 5dbf 363d 291a 88bd d390 68bd
000002c0: 7df1 d43a e7e3 6fbd e163 013d 8f0f 52bd
000002d0: c734 133d 202e b5bc 0172 77bd 2f55 a0bd
000002e0: 04ba e23c 3d79 6e3d b9a7 56bd 667c 623d
000002f0: 9478 1f3d d696 9e3d 8716 2a3d bf23 5a3d
00000300: b454 253c f191 be3c 8963 a33d 80c3 743c
00000310: 518c 7f3d b86f 023d 8eba b63c 06d5 b4bb
00000320: 9cc5 3cbd 8979 1ebd 7a34 9d3c 04bb da3b
00000330: 5932 143d 7e89 6fbc ffd0 263d 7bc0 883d
00000340: dd96 7a3b 9a1b b13d 6970 31bd aff7 413d
00000350: d8c1 a83c 29a5 033d 3746 8bbc 4ec4 bfb8
00000360: 35c4 343c 6f23 a5bd 1f70 71bd 31c1 223d
00000370: d672 203d 988f b23d 124e 25bd 320a 9b3d
00000380: 0711 c33c d467 afbd 9dbc 26bd 5102 e2bc
00000390: 8ed5 663c b5d3 3e3c 52d1 2ebd 1338 7dbc
000003a0: ccba 96bd e72a 3abd 280b a7bd d189 8dbb
000003b0: cb91 9cbd e50f 543d f1ff 9b3c 9274 9ebc
000003c0: abdd 913d d8e4 9c3d 1fec c8bc 69e5 86bd
000003d0: 8e25 ab3d 3408 dbbc 4cac 983d 080f 5f3d
000003e0: d465 50bb f696 6c3d 67c5 a53d 02e8 19bd
000003f0: 13ff a53d e017 b3bd 0da5 6bbd bbe6 8dbb

conv3.bias f4 [16]
1.8159493e-05 -9.578097e-07 -7.6464596e-07 0.0023603067 -2.7069373e-06 -0.000950159 -6.2652703e-06 0.0026301998
0.00032321026 -0.0023541374 -1.0690445e-06 -0.0011066572 -7.3544284e-06 4.170898e-07 -2.5896318e-06 -4.576365e-05
00000000: 3755 9837 178e 80b5 1242 4db5 60af 1a3b
00000010: d4a8 35b6 1714 79ba 433a d2b6 6e5f 2c3b
00000020: 8c74 a939 df47 1abb 177c 8fb5 410d 91ba
00000030: 0fc6 f6b6 63ec df34 89c9 2db6 58f2 3fb8

bn3.weight f4 [16]
0.9993397 0.99107283 0.98803216 0.99093056 0.9912232 0.9780532 0.98995215 0.99419683
0.9985686 1.0066835 0.9840205 0.9906533 0.98683786 0.987433 0.9825065 0.9887126
00000000: bad4 7f3f f3b6 7d3f adef 7c3f a0ad 7d3f
00000010: cec0 7d3f b261 7a3f 816d 7d3f af83 7e3f
00000020: 31a2 7f3f 01db 803f c4e8 7b3f 749b 7d3f
00000030: 68a1 7c3f 69c8 7c3f 8c85 7b3f 451c 7d3f

bn3.bias f4 [16]
0.006024425 0.0014950942 -0.006949896 0.007317042 0.0007524144 -0.00884527 0.0014780547 0.003973506
0.002606346 0.00052772486 -0.0011014853 -0.0020026793 0.0027983645 0.0006116516 -0.008455682 -0.007872364
00000000: 8a68 c53b 09f7 c33a f4bb e3bb ccc3 ef3b
00000010: ad3d 453a c0eb 10bc 49bb c13a 2f34 823b
00000020: 3bcf 2a3b 0457 0a3a b75f 90ba 623f 03bb
00000030: c464 373b 3e57 203a b389 0abc 16fb 00bc

bn3.running_mean f4 [16]
0.13141099 0.11863002 0.27089944 -0.0734251 -0.090875424 -0.13474554 0.29738694 0.27981827
-0.08999034 0.3318052 -0.025401575 -0.045841936 0.48797724 0.16282398 0.41408885 0.0508258
00000000: 9a90 063e 4cf4 f23d 55b3 8a3e e65f 96bd
00000010: e51c babd bcfa 09be 1a43 983e 5744 8f3e
00000020: db4c b8bd 5fe2 a93e f716 d0bc c1c4 3bbd
00000030: 27d8 f93e 54bb 263e 7403 d43e b72e 503d

bn3.running_var f4 [16]
0.05961129 0.17274404 0.049653295 0.044668783 0.051560875 0.06922009 0.052973237 0.057098277
0.033391118 0.09023359 0.08610134 0.051605947 0.064616755 0.04265093 0.026704887 0.0739528
00000000: f82a 743d d0e3 303e 4161 4b3d 9df6 363d
00000010: 7f31 533d 43c3 8d3d 77fa 583d e2df 693d
00000020: 20c5 083d 63cc b83d e655 b03d c260 533d
00000030: ca55 843d beb2 2e3d 35c4 da3c 9174 973d

conv4.weight f4 [8, 16, 2, 2]
0.0959766 0.028117169 -0.057937462 0.05345776 -0.06833037 -0.0064809257 -0.051053975 0.081779085
0.11752143 -0.11318132 -0.112677544 0.06916901 0.11309991 -0.05117571 0.017451072 -0.11274357
0.016296392 0.09354303 -0.045103732 -0.095857404 -0.11789809 -0.04023396 -0.055396978 -0.011003848
0.0050628167 -0.10710889 0.05078043 -0.105190255 -0.101155646 0.026849957 -0.053753957 -0.06973571
0.0747457 0.06182105 -0.029501436 -0.067032926 -0.037661538 -0.08278215 -0.058632873 0.12349196
-0.073933996 0.01566801 -0.0426906 0.033937693 0.06342625 0.12128679 0.04914499 -0.11396423
-0.029102994 0.10059032 0.08687494 0.10693094 -0.06340179 -0.007078227 0.12964365 -0.041856334
-0.06338288 -0.037554584 0.0634235 -0.11434637 -0.06957521 0.0045774714 0.01795027 -0.029318979
-0.10794779 -0.026375983 -0.007164457 0.12197734 -0.061104663 -0.0823002 0.050285824 -0.026656432
0.120308734 -0.038558412 0.048688117 -0.08200711 -0.08064245 0.05621641 0.09224028 0.028235387
0.07720046 0.12355156 -0.06870109 -0.049445212 0.07457716 0.057511892 -0.026449308 -0.11930257
-0.028328016 -0.009158193 -0.07419751 -0.05200328 0.004076295 0.022377746 -0.096311145 0.047826543
-0.11027567 -0.026128888 -0.058158938 0.016420698 0.016391119 -0.008565055 0.12499767 0.0015181118
0.08541202 -0.020612208 0.12295289 0.0183314 -0.041382182 -0.04475564 -0.04041244 -0.04652551
-0.024269342 0.016220976 -0.11878688 0.008035266 -0.014831323 -0.019163413 0.07308107 -0.089751944
0.12452419 0.059868667 0.04390405 -0.0654533 -0.10403891 0.031838313 -0.06584363 -0.087445304
0.060651045 0.06654389 -0.027869249 0.037294447 0.086325996 0.038413946 0.07896499 -0.0846948
-0.10897418 0.116711974 -0.045298103 -0.037510686 -0.09673635 -0.06885549 -0.08857414 0.11758186
0.07895829 0.08815937 -0.029861065 -0.05653781 -0.06811901 0.08963329 0.062305138 -0.030015023
0.11551457 0.0974236 -0.08766424 -0.12458943 -0.12380155 -0.05313275 0.05494151 0.06550291
-0.074788466 0.03439682 -0.058421228 -0.108527794 0.027792169 -0.0023473653 0.08312059 0.09298463
-0.08869572 0.0389595 0.01471826 0.08783329 0.054966435 -0.06588223 0.1197536 -0.007140148
0.10533131 -0.08835498 0.046514533 -0.07055535 -0.038148217 0.06383218 -0.06168137 0.077165425
-0.002049877 -0.062178753 0.031662554 0.033918153 -0.094505616 -0.014024088 0.08467721 0.0189267
-0.025823344 0.024295265 0.068941325 -0.017823447 -0.09085521 0.0109856855 -0.07856471 0.011448603
0.04948815 0.0995116 -0.013910001 -0.070195705 0.014430871 -0.11076952 0.0023092204 0.08420564
0.087906376 0.029681727 0.0058557126 -0.065617055 0.08639231 0.06844437 -0.10330922 4.707527e-05
-0.09083692 0.07186001 0.014251035 -0.06443103 -0.051538885 0.08771178 -0.01889252 -0.12056243
-0.015223009 -0.06650341 -0.013082932 0.03456022 -0.018804016 -0.03816337 0.110109456 0.043779884
-0.0074428236 0.027831592 -0.06412393 0.083290555 -0.048061598 0.037313562 -0.0807878 0.05367426
-0.03695444 0.016310165 0.069357716 -0.08367156 -0.016893683 0.0791269 0.04723743 0.041018214
-0.06482211 -0.06050332 0.050515465 -0.10025511 0.0026460327 0.076309346 -0.1259281 0.115603104
00000000: 618f c43d fa55 e63c d54f 6dbd 86f6 5a3d
00000010: cbf0 8bbd f25d d4bb f91d 51bd cb7b a73d
00000020: 13af f03d 9ccb e7bd 7cc3 e6bd 7ba8 8d3d
00000030: eda0 e73d 9f9d 51bd 8df5 8e3c 1ae6 e6bd
00000040: 0380 853c 7d93 bf3d b1be 38bd e350 c4bd
00000050: 8e74 f1bd 5dcc 24bd f1e7 62bd 7c49 34bc
00000060: fce5 a53b e85b dbbd 24ff 4f3d fd6d d7bd
00000070: b12a cfbd 71f4 db3c 1c2d 5cbd 99d1 8ebd
00000080: 4614 993d 1238 7d3d ffac f1bc 8f48 89bd
00000090: fc42 1abd b089 a9bd 0629 70bd 5ae9 fc3d
000000a0: b56a 97bd 335a 803c 57dc 2ebd 4002 0b3d
000000b0: 9fe5 813d 3565 f83d 424c 493d 1466 e9bd
000000c0: 6769 eebc 4c02 ce3d 7deb b13d 9cfe da3d
000000d0: ccd8 81bd 79f0 e7bb 4ec1 043e 8c71 2bbd
000000e0: e2ce 81bd d6d2 19bd 2ee4 813d 6e2e eabd
000000f0: 737d 8ebd 9dfe 953b 720c 933c 5b2e f0bc
00000100: bb13 ddbd 7212 d8bc d2c3 eabb 41cf f93d
00000110: e248 7abd 028d a8bd 82f8 4d3d 975e dabc
00000120: 6d64 f63d 6def 1dbd 316d 473d 58f3 a7bd
00000130: de27 a5bd 2e43 663d 79e8 bc3d e64d e73c
00000140: 461b 9e3d 9a08 fd3d 28b3 8cbd 1087 4abd
00000150: e9bb 983d 9791 6b3d 38ac d8bc e854 f4bd
00000160: 2810 e8bc 3f0c 16bc ddf4 97bd 6401 55bd
00000170: 7192 853b 8951 b73c c73e c5bd c4e5 433d
00000180: 36d8 e1bd 400c d6bc 1138 6ebd b384 863c
00000190: ab46 863c 7254 0cbc c7fe ff3d 61fb c63a
000001a0: 7fec ae3d efda a8bc bace fb3d bb2b 963c
000001b0: 5d80 29bd b151 37bd 8487 25bd 8891 3ebd
000001c0: 80d0 c6bc dae1 843c 8946 f3bd 59a6 033c
000001d0: 14ff 72bc 97fc 9cbc 87ab 953d decf b7bd
000001e0: 8a06 ff3d d938 753d bcd4 333d 610c 86bd
000001f0: 5a12 d5bd e468 023d 06d9 86bd 8616 b3bd
00000200: 3b6d 783d 2a48 883d 0d4e e4bc 10c2 183d
00000210: afcb b03d f157 1d3d 66b8 a13d 7874 adbd
00000220: db2d dfbd b006 ef3d 818a 39bd cea4 19bd
00000230: b51d c6bd 1b04 8dbd 5c66 b5bd c2ce f03d
00000240: e2b4 a13d e68c b43d 319f f4bc 3194 67bd
00000250: fb81 8bbd a991 b73d ac33 7f3d 11e2 f5bc
00000260: e792 ec3d 0686 c73d 4f89 b3bd be28 ffbd
00000270: ab8b fdbd baa1 59bd 590a 613d 6426 863d
00000280: b22a 99bd aee3 0c3d 194b 6fbd d243 debd
00000290: 67ac e33c 41d6 19bb 213b aa3d ba6e be3d
000002a0: 1aa6 b5bd ff93 1f3d db24 713c f1e1 b33d
000002b0: 7c24 613d 43ed 86bd 6041 f53d e7f7 e9bb
000002c0: f1b7 d73d 75f3 b4bd 0686 3e3d 537f 90bd
000002d0: 4e41 1cbd 72ba 823d 9ba5 7cbd e808 9e3d
000002e0: 3b57 06bb 26af 7ebd 98b0 013d c3ed 0a3d
000002f0: 298c c1bd 4ac5 65bc 3f6b ad3d 2b0c 9b3c
00000300: 7a8b d3bc dd06 c73c 1c31 8d3d 7a02 92bc
00000310: 4c12 babd 4efd 333c 89e6 a0bd ec92 3b3c
00000320: 16b4 4a3d bdcc cb3d c6e6 63bc c4c2 8fbd
00000330: 766f 6c3c 21db e2bd 4a56 173b 0274 ac3d
00000340: 4208 b43d 1827 f33c 47e1 bf3b 3c62 86bd
00000350: 74ee b03d 902c 8c3d c993 d3bd b072 4538
00000360: b508 babd 572b 933d 2c7d 693c 6af4 83bd
00000370: 701a 53bd 3ca2 b33d 7cc4 9abc 6fe9 f6bd
00000380: ed69 79bc f132 88bd cb59 56bc 048f 0d3d
00000390: e10a 9abc 3251 1cbd 1181 e13d 8952 333d
000003a0: eee2 f3bb 14ff e33c 6853 83bd 3d94 aa3d
000003b0: 3ddc 44bd 1bd6 183d 1374 a5bd 8ad9 5b3d
000003c0: 8a5d 17bd e59c 853c 6b0b 8e3d ff5b abbd
000003d0: 9f64 8abc 490d a23d 097c 413d b702 283d
000003e0: 74c1 84bd 54d2 77bd 4ee9 4e3d 8d52 cdbd
000003f0: 1069 2d3b 1348 9c3d 4cf3 00be 52c1 ec3d

conv4.bias f4 [8]
0.022287494 -0.0057837074 2.4893234e-06 -0.012614326 -2.0809322e-08 -0.004780813 -0.015813958 7.3350286e-09
00000000: 4394 b63c 4185 bdbb 400e 2736 51ac 4ebc
00000010: 2fc0 b2b2 5ea8 9cbb 468c 81bc 9807 fc31

bn4.weight f4 [8]
1.026947 1.0359913 1.0126642 1.0282604 1.0156965 1.0183423 1.0159796 1.0253488
00000000: 0073 833f 5d9b 843f fb9e 813f 099e 833f
00000010: 5802 823f 0a59 823f 9f0b 823f a13e 833f

bn4.bias f4 [8]
0.029943837 0.040238176 0.025893616 0.028343376 0.017566899 0.021645786 0.014442042 0.03620172
00000000: c74c f53c c9d0 243d d91e d43c 5e30 e83c
00000010: 75e8 8f3c 8152 b13c 519e 6c3c 4148 143d

bn4.running_mean f4 [8]
-0.026423527 -0.15410817 0.17070112 -0.043020714 0.26659775 -0.13767703 -0.08060853 0.14989221
00000000: 2776 d8bc 88ce 1dbe 46cc 2e3e 7d36 30bd
00000010: 807f 883e 35fb 0cbe 1616 a5bd 587d 193e

bn4.running_var f4 [8]
0.03750654 0.042752843 0.045919113 0.046947334 0.083431095 0.060077526 0.048509255 0.05089009
00000000: 75a0 193d 9b1d 2f3d ae15 3c3d d94b 403d
00000010: ecdd aa3d da13 763d a4b1 463d 2172 503d

fc.weight f4 [128, 288]
-0.04413317 -0.025853345 -0.047866132 0.048223767 -0.044131663 -0.047584705 0.025177175 0.0043546967
0.044020295 0.037883863 -0.026152316 -0.043238156 -0.040121943 -0.040266052 -0.012555914 0.0036834
-0.03265549 0.009964885 -0.016425343 0.037881017 0.00916326 -0.03506174 -0.04678393 0.004970874
0.02330447 0.0048344196 0.053991195 0.029714888 0.052565325 -0.008051163 -0.0079608625 0.06367144
0.045107413 -0.026804464 0.00011436605 0.026271774 -0.023491045 0.01914889 -0.042373795 -0.008690217
-0.02943132 0.0014734993 0.016515087 0.015052342 0.011141544 -0.0038685673 -0.009061516 -0.023082303
-0.019009907 0.031301826 0.027459167 0.047699895 0.020583918 0.04012141 0.017722452 -0.011032227
-0.0064350264 0.0011196805 -0.009911694 -0.04296179 0.022244142 -0.015898006 0.024255222 0.028358394
0.04153306 0.048275728 0.02527678 0.062357903 0.028938854 0.02847156 0.01660292 0.004474242
-0.038336907 0.044884477 0.01691289 0.040284313 0.0530442 0.027934525 -0.010485915 0.03412748
0.0132200485 0.05460954 -0.013365465 -0.0066831787 0.05498913 0.002011829 0.048380945 -0.025651136
0.05053479 0.0021683518 0.030351253 0.032007612 0.029862136 0.03545526 0.0010364896 0.014676744
-0.055740755 -0.05592494 0.039709415 -0.019088618 -0.009884988 0.0014707041 -0.045133185 0.043547664
0.058314566 0.05855098 0.020720353 0.022342864 0.03594213 -0.059620034 -0.039052162 0.052004494
0.053081833 -0.021964615 -0.013599739 0.030965202 0.028736131 0.02724721 -0.061442208 0.030287659
0.005568444 -0.035457484 -0.02934375 -0.0005055476 -8.5611086e-05 -0.03545295 -0.034731615 -0.03182615
-0.03728824 0.05113606 0.019068526 -0.041473374 0.03804215 -0.014096215 -0.04443174 -0.05131564
-0.016710289 -0.054392193 -0.014135085 0.045195326 -0.0065581654 0.05251075 -0.017149903 -0.00042854136
0.037450846 -0.04893713 -0.020013228 0.03550229 0.043679323 0.0056210533 0.04416114 0.03532147
-0.04795479 0.027116323 0.01258428 -0.056874182 -0.027465964 0.028637221 0.004706304 0.006500766
-0.0384418 0.024041904 -0.007099081 -0.02708688 0.037048817 0.0074617662 0.047245655 -0.014843154
-0.020169264 0.03625101 0.033597935 0.03315704 -0.04917379 0.03104919 -0.034395676 -0.023598626
0.0065129003 0.026017057 0.009419945 0.006439782 -0.01342992 0.03622969 -0.047209393 0.04036891
0.033227507 -0.04405536 -0.017316636 -0.0009055596 0.0076991185 -0.03770723 -0.041114856 0.008958601
0.053957548 0.0047728806 0.026404465 0.028019581 0.06480363 0.053056862 -0.03133405 -0.03449665
-0.013796254 0.029610496 -0.0019338772 0.04022964 0.010819619 -0.04862189 0.013035371 0.010006242
0.030609105 -0.03584367 -0.021186307 -0.044595562 -0.02070207 -0.02313444 0.0058552464 0.0107400315
0.017553259 -0.021287592 -0.027703222 0.01099163 0.053513072 -0.045486175 -0.02016936 -0.0052783266
-0.002723634 0.02681712 -0.010295352 -0.010433583 -0.05997303 -0.03673579 -0.06403914 -0.04928979
0.0016888968 -0.017474158 -0.060220324 0.019367035 0.002018458 0.015388891 -0.014453791 0.012400157
-0.008628946 -0.040817115 -0.0032464692 -0.02205893 0.010877579 -0.033557147 0.01898531 -0.012431193
-0.014255602 0.012360666 0.0059823343 0.05643511 0.0012840233 0.018732768 -0.017814811 0.047148935
00000000: fcc4 34bd 65ca d3bc 470f 44bd 4986 453d
00000010: 67c3 34bd 2ee8 42bd 5d40 ce3c d8b1 8e3b
00000020: a04e 343d 1c2c 1b3d 623d d6bc 7e1a 31bd
00000030: e856 24bd 04ee 24bd 52b7 4dbc 3365 713b
00000040: c3c1 05bd c243 233c 718e 86bc 2029 1b3d
00000050: 8021 163c e69c 0fbd 82a0 3fbd b7e2 a23b
00000060: 04e9 be3c 0d6a 9e3b df25 5d3d a36c f33c
00000070: bd4e 573d 06e9 03bc 476e 02bc 2c66 823d
00000080: 8dc2 383d 0995 dbbc ced7 ef38 e737 d73c
00000090: 4b70 c0bc 22de 9c3c 2590 2dbd 6961 0ebc
000000a0: f419 f1bc 6f22 c13a a64a 873c 199e 763c
000000b0: 068b 363c ca87 7dbb c176 14bc 1917 bdbc
000000c0: aaba 9bbc 5836 003d 0cf2 e03c f760 433d
000000d0: 9b9f a83c 5956 243d ad2e 913c 84c0 34bc
000000e0: eadc d2bb 3ec2 923a a864 22bc b4f8 2fbd
000000f0: 5939 b63c 893c 82bc e3b2 c63c dd4f e83c
00000100: 921e 2a3d c5bc 453d 4011 cf3c 006b 7f3d
00000110: 2d11 ed3c 303d e93c d902 883c aa9c 923b
00000120: 2907 1dbd c9d8 373d e78c 8a3c 2a01 253d
00000130: e044 593d f2d6 e43c 1dcd 2bbc 42c9 0b3d
00000140: e798 583c 41ae 5f3d d3fa 5abc 91fe dabb
00000150: 483c 613d e4d8 033b 192b 463d 5522 d2bc
00000160: 91fd 4e3d e81a 0e3b 31a3 f83c 6a1a 033d
00000170: 70a1 f43c 8939 113d d2da 873a ba76 703c
00000180: 6b50 64bd 8d11 65bd 57a6 223d bc5f 9cbc
00000190: a5f4 21bc a4c4 c03a 93dd 38bd 095f 323d
000001a0: 41db 6e3d 27d3 6f3d bbbd a93c 6208 b73c
000001b0: 0e38 133d 2334 74bd 29f5 1fbd aa02 553d
000001c0: 566c 593d 23ef b3bc 71d1 5ebc bcaa fd3c
000001d0: 0968 eb3c 8a35 df3c d3aa 7bbd d31d f83c
000001e0: 7e77 b63b de3b 11bd 4e62 f0bc ba86 04ba
000001f0: 1a8a b3b8 1d37 11bd bd42 0ebd 235c 02bd
00000200: 8ebb 18bd 0c74 513d 9935 9c3c fcdf 29bd
00000210: 16d2 1b3d d0f3 66bc 0efe 35bd 5930 52bd
00000220: 04e4 88bc 59ca 5ebd d896 67bc bc1e 393d
00000230: e1e5 d6bb 8315 573d f47d 8cbc d9ad e0b9
00000240: 0f66 193d 4d72 48bd c8f2 a3bc d96a 113d
00000250: 17e9 323d d030 b83b 50e2 343d 3fad 103d
00000260: 3e6c 44bd 0d23 de3c 4c2e 4e3c e7f4 68bd
00000270: 4d00 e1bc 9b98 ea3c 5737 9a3b 6104 d53b
00000280: 2675 1dbd 87f3 c43c 689f e8bb 4ee5 ddbc
00000290: 80c0 173d d581 f43b a984 413d b330 73bc
000002a0: 033a a5bc f07b 143d fd9d 093d adcf 073d
000002b0: 756a 49bd df5a fe3c 7be2 0cbd e851 c1bc
000002c0: 2b6a d53b b921 d53c 1d56 1a3c cf04 d33b
000002d0: 2b09 5cbc 9565 143d a35e 41bd df59 253d
000002e0: 9119 083d 6573 34bd 9edb 8dbc 1363 6dba
000002f0: e348 fc3b e572 1abd 0d68 28bd 19c7 123c
00000300: 9702 5d3d d365 9c3b 2d4e d83c 5289 e53c
00000310: c4b7 843d 2752 593d 2258 00bd 5c4c 0dbd
00000320: af09 62bc b691 f23c 277a fdba d6c7 243d
00000330: c544 313c bf27 47bd 4f92 553c 39f1 233c
00000340: f2bf fa3c d0d0 12bd e88e adbc d6a9 36bd
00000350: 6397 a9bc 7084 bdbc 5edd bf3b f5f6 2f3c
00000360: dacb 8f3c 5163 aebc def1 e2bc 3d16 343c
00000370: 8630 5b3d b64f 3abd 373a a5bc d0f5 acbb
00000380: ff7e 32bb 94af db3c d6ad 28bc 9ef1 2abc
00000390: 48a6 75bd 4578 16bd f426 83bd 17e4 49bd
000003a0: f95d dd3a f725 8fbc 96a9 76bd 9ea7 9e3c
000003b0: 1b48 043b b021 7c3c 98cf 6cbc 072a 4b3c
000003c0: 6c60 0dbc d92f 27bd b7c2 54bb eeb4 b4bc
000003d0: e037 323c 3873 09bd 1587 9b3c 34ac 4bbc
000003e0: 5490 69bc 6484 4a3c 7507 c43b 8028 673d
000003f0: ac4c a83a 7675 993c 5ef0 91bc 3e1f 413d

fc.bias f4 [128]
0.023298834 -0.050269958 -8.391928e-05 -0.045550756 0.055828463 0.0038809904 -0.034081124 -0.0074029947
0.014882543 -0.015618743 -0.0055463417 -0.0037659472 0.063438796 0.042089194 0.043979857 0.022868654
-0.019337123 0.00015887365 0.0016701603 0.011734568 -0.050543677 0.04093733 0.04040594 -0.047709294
0.058947373 0.022229899 0.047448434 0.0023309109 -0.014832308 -0.05140878 -0.010998205 -0.0065077646
0.03932638 0.056801423 -0.022919016 -0.05180631 -0.00011889283 -0.035766985 0.001549392 -0.018890189
0.028804995 0.006421809 -0.043486107 0.010453296 0.011115641 0.011966984 -0.029571908 -0.022893986
0.028670993 -0.037350483 -0.024529671 -0.021007648 -0.027763389 0.015523415 0.0070472998 0.026217816
-0.034619555 0.025263183 0.0027897698 -0.03162261 0.011347727 0.053994987 -0.004140371 -0.048212476
0.039835658 0.007587103 0.05113084 -0.029391194 -0.036173835 0.009223842 -0.0031814293 0.03813768
-0.021988397 -0.030992115 -0.02160366 -0.017471505 -0.0062371823 0.039532166 0.022269962 0.03770958
-0.03703598 0.03568372 -0.03541312 -0.006711783 0.044282943 -0.044362176 0.0013186919 0.016017303
0.026293945 0.039927587 0.00078128034 -0.024471838 0.055078715 -0.04412417 0.035772607 0.051246032
0.05880911 0.04142149 -0.04305792 0.015344194 0.014981777 0.04166727 -0.010330788 0.048622247
-0.0036484993 -0.04737153 -0.015911756 0.051275562 -0.00090453826 0.026062692 0.057486497 0.058928717
0.0034509168 -0.0299701 0.019149452 0.067658536 0.011995316 0.010647086 -0.0070773643 0.033440065
0.019837044 -0.032384023 -0.014260917 0.065039426 -0.022655968 0.03152062 0.040450137 0.043106176
00000000: 32dd be3c dfe7 4dbd d2fd afb8 6e93 3abd
00000010: 63ac 643d 3758 7e3b a698 0bbd d294 f2bb
00000020: e9d5 733c c2e5 7fbc 16be b5bb 1cce 76bb
00000030: 33ec 813d b865 2c3d 3924 343d 0b57 bb3c
00000040: e368 9ebc 5297 2639 48e9 da3a 5842 403c
00000050: e306 4fbd e7ad 273d b380 253d d26a 43bd
00000060: cd72 713d 7a1b b63c 4a59 423d 32c2 183b
00000070: 3503 73bc 0392 52bd d131 34bc 163f d5bb
00000080: b314 213d 9ca8 683d a9c0 bbbc da32 54bd
00000090: 1a56 f9b8 6780 12bd f814 cb3a 99bf 9abc
000000a0: 74f8 eb3c 0a6e d23b 7d1e 32bd 4d44 2b3c
000000b0: 611e 363c 2b11 443c c940 f2bc 2b8c bbbc
000000c0: 6edf ea3c d2fc 18bd 73f2 c8bc 3b18 acbc
000000d0: 0c70 e3bc ec55 7e3c 09ed e63b bfc6 d63c
000000e0: 3ccd 0dbd bcf4 ce3c 92d4 363b b686 01bd
000000f0: d1eb 393c d929 5d3d f3ab 87bb 727a 45bd
00000100: b72a 233d 3c9d f83b 926e 513d cdc5 f0bc
00000110: 042b 14bd 991f 173c 877f 50bb 4236 1c3d
00000120: 0321 b4bc 2de3 fdbc 29fa b0bc 6720 8fbc
00000130: 4761 ccbb 7bec 213d 7f6f b63c 5c75 1a3d
00000140: 0ab3 17bd 1829 123d 590d 11bd 84ee dbbb
00000150: 0862 353d 1db5 35bd f5d7 ac3a b836 833c
00000160: 6666 d73c 1c8b 233d d6ce 4c3a 2a79 c8bc
00000170: 389a 613d 8cbb 34bd 4c86 123d 5ce7 513d
00000180: d2e1 703d 95a9 293d 805d 30bd 3766 7b3c
00000190: 2176 753c 4dab 2a3d 7742 29bc 1f28 473d
000001a0: a91b 6fbb a608 42bd 5f59 82bc 5306 523d
000001b0: 891e 6dba 6d81 d53c f676 6b3d 3d5f 713d
000001c0: c728 623b db83 f5bc 50df 9c3c 8f90 8a3d
000001d0: 0088 443c 1e71 2e3c 3ce9 e7bb 73f8 083d
000001e0: 4c81 a23c 1ca5 04bd 9fa6 69bc 6433 853d
000001f0: 0299 b9bc c41b 013d 0baf 253d 1a90 303d

out.weight f4 [4, 128]
0.031875573 -0.09969149 -0.01554071 0.052322462 0.028990302 -0.07339717 -0.0059416904 0.017208394
0.062912025 -0.06809972 0.011244687 -0.04372514 0.04515308 0.06564083 -0.053240694 -0.07581644
-0.0031232347 -0.017826596 -0.083474055 0.08286597 -0.027572427 -0.054676063 -0.021274947 0.02122023
-0.054714408 0.058600992 0.072565235 0.005584339 0.058726385 0.08250545 0.041751564 -0.0008750498
0.07955498 -0.0234922 0.09495936 -0.10404666 -0.043481834 0.058457848 -0.017721873 -0.046568424
-0.04404182 0.07310703 -0.012076957 -0.022337608 -0.012575164 0.019071152 -0.018420786 -0.101736836
-0.079894945 0.051154472 0.09215614 -0.09566359 -0.05412448 -0.025889605 0.0658518 -0.05071253
0.05214926 0.026943207 -0.00609355 -0.06878872 -0.019995993 -0.063495815 0.042332094 0.08434915
0.051558126 -0.0035803549 0.0844774 0.060776368 -0.08490276 0.016448174 -0.07075482 -0.08893536
-0.021591429 0.037511718 -0.066293515 0.033937745 0.025708018 0.025413444 -0.0770887 -0.07030273
-0.0055447295 -0.095315635 0.09558847 0.05898602 0.055388983 0.0795973 0.035322823 -0.09001492
0.10003826 -0.0037393153 0.0068212375 0.013936047 -0.061642822 0.05787567 0.086015314 0.07912378
-0.01861372 -0.063847184 -0.098116025 0.035840508 -0.0418232 0.0043445807 0.08687606 0.02629692
-0.06512365 -0.069222905 0.06334936 0.04817085 0.025002588 0.005714051 -0.061178114 0.023542982
0.025463007 0.023910038 0.049478237 0.06662362 -0.022714281 -0.041636053 0.039963666 -0.066554
0.0709335 0.037820395 0.07349087 0.0020816803 -0.008751819 -0.036677312 -0.0031658164 0.05466716
0.06220728 -0.024771286 -0.039409194 -0.032825418 -0.09317367 0.032824703 -0.0699498 -0.10633817
-0.079235 0.024489796 -0.07117882 0.008618732 -0.066129446 0.057289127 0.053927984 0.036083043
0.055329986 -0.06668511 0.019219995 0.035067085 -0.040101014 0.061876908 0.0041487515 0.057211015
-0.06911918 0.05011084 -0.09055866 -0.031793945 0.049962748 -0.09182849 -0.059872273 -0.043123424
-0.08772793 -0.06649519 -0.060139954 0.0810745 -0.015186041 -0.00867318 0.0010956803 0.079534195
0.0019173668 0.033719346 -0.009911363 0.06460992 -0.0024587729 0.0018118795 0.053185243 -0.081216276
0.07831477 -0.08666273 -0.0796469 -0.052839458 0.05527089 -0.020981256 -0.05297399 -0.08614226
-0.06000587 -0.07899617 0.10625066 0.062710404 0.029998008 -0.028742643 0.011785881 0.08189121
-0.047469445 0.08477926 -0.086775444 -0.098654754 -0.09005043 0.10220792 -0.01079322 0.020319542
-0.09686251 0.018446475 0.04669215 -0.018485956 -0.06740786 -0.06977007 0.004859833 0.012759147
-0.1022884 -0.048033606 -0.10006819 0.0633961 0.033214603 -0.078131475 0.096908346 0.005097362
0.0126416255 0.08017695 -0.04499205 0.011092047 0.026967572 -0.08556616 -0.10468367 -0.035526384
0.08759832 -0.059163384 -0.04268448 0.046001617 0.08552759 0.08703537 -0.07266492 0.0062466324
0.08667796 -0.0020031484 -0.09121369 -0.008118654 -0.05930533 0.058910456 -0.097816825 0.093049444
0.06443677 0.069213144 -0.028738914 -0.117348105 0.090015724 -0.093386434 0.050115965 -0.05672236
-0.08693675 0.050804295 0.02485348 0.008903134 -0.051321864 0.010754154 -0.07732507 -0.057199053
00000000: f68f 023d 0d2b ccbd 769e 7ebc 1450 563d
00000010: 127d ed3c 4151 96bd 83b2 c2bb 9ef8 8c3c
00000020: 05d8 803d de77 8bbd a33b 383c 2219 33bd
00000030: 70f2 383d b36e 863d ea12 5abd a645 9bbd
00000040: 2faf 4cbb 1509 92bc 72f4 aabd a2b5 a93d
00000050: 92df e1bc 02f4 5fbd cc48 aebc 0cd6 ad3c
00000060: 371c 60bd 9807 703d 159d 943d d5fc b63b
00000070: 148b 703d 9ef8 a83d b003 2b3d 9963 65ba
00000080: b9ed a23d b772 c0bc 0e7a c23d 6a16 d5bd
00000090: 021a 32bd 7f71 6f3d 762d 91bc 88be 3ebd
000000a0: 3265 34bd 23b9 953d 6ede 45bc 5cfd b6bc
000000b0: 1008 4ebc 1b3b 9c3c 30e7 96bc 675b d0bd
000000c0: f69f a3bd 5a87 513d 5cbc bc3d 46eb c3bd
000000d0: a1b1 5dbd 7016 d4bc 4fdd 863d f1b7 4fbd
000000e0: 769a 553d 00b8 dc3c 67ac c7bb 1ae1 8cbd
000000f0: a3ce a3bc 180a 82bd 6b64 2d3d 3fbf ac3d
00000100: 9d2e 533d 63a4 6abb 7d02 ad3d a4f0 783d
00000110: 80e1 adbd 52be 863c e7e7 90bd be23 b6bd
00000120: 82e0 b0bc e3a5 193d e5c4 87bd 4e02 0b3d
00000130: 9f99 d23c db2f d03c aee0 9dbd e1fa 8fbd
00000140: 90b0 b5bb d834 c3bd e3c3 c33d 539b 713d
00000150: 8fdf 623d e903 a33d aaae 103d be59 b8bd
00000160: dce0 cc3d 4d0f 75bb b084 df3b 0554 643c
00000170: 2f7d 7cbd 0a0f 6d3d cc28 b03d a60b a23d
00000180: cd7b 98bc 50c2 82bd 0ef1 c8bd 7fcd 123d
00000190: ce4e 2bbd fc5c 8e3b 13ec b13d a36c d73c
000001a0: 8c5f 85bd bdc4 8dbd 4fbd 813d cc4e 453d
000001b0: 3ad2 cc3c ef3c bb3b e795 7abd 36dd c03c
000001c0: cc97 d03c fcde c33c b1a9 4a3d f771 883d
000001d0: 4d13 babc 918a 2abd f1b0 233d 774d 88bd
000001e0: 9545 913d 8fe9 1a3d 6282 963d cd6c 083b
000001f0: ca63 0fbc f33a 16bd 9679 4fbb acea 5f3d
00000200: 10cd 7e3d 27ed cabc 896b 21bd f273 06bd
00000210: d6d1 bebd 3273 063d d741 8fbd d4c7 d9bd
00000220: f645 a2bd d39e c83c 34c6 91bd 9535 0d3c
00000230: e06e 87bd 01a8 6a3d 97e3 5c3d d0cb 133d
00000240: b2a1 623d 3492 88bd 4073 9d3c 81a2 0f3d
00000250: f640 24bd a472 7d3d 40f2 873b 1956 6a3d
00000260: 5b8e 8dbd 0641 4d3d d276 b9bd 5e3a 02bd
00000270: bda5 4c3d 9310 bcbd a13c 75bd 30a2 30bd
00000280: b3aa b3bd a12e 88bd 5055 76bd 630a a63d
00000290: dfce 78bc f419 0ebc ee9c 8f3a d3e2 a23d
000002a0: 2750 fb3a 4c1d 0a3d 4563 22bc 3552 843d
000002b0: 5d23 21bb 967c ed3a c5d8 593d b854 a6bd
000002c0: 7e63 a03d 3b7c b1bd ea1d a3bd 306e 58bd
000002d0: bb63 623d e2e0 abbc 41fb 58bd 5a6b b0bd
000002e0: b7c8 75bd bec8 a1bd f299 d93d 506e 803d
000002f0: 62be f53c b175 ebbc 9119 413c 94b6 a73d
00000300: 526f 42bd c0a0 ad3d 53b7 b1bd 810b cabd
00000310: 5c6c b8bd 6352 d13d 0cd6 30bc 2b75 a63c
00000320: da5f c6bd 101d 973c 4540 3f3d dc6f 97bc
00000330: 220d 8abd 9ce3 8ebd 3c3f 9f3b be0b 513c
00000340: 957c d1bd e3be 44bd 8df0 ccbd d1d5 813d
00000350: 090c 083d 6503 a0bd e277 c63d c607 a73b
00000360: d21e 4f3c d033 a43d 9549 38bd 6bbb 353c
00000370: 19eb dc3c 503d afbd 6464 d6bd 1d84 11bd
00000380: bf66 b33d 4e55 72bd ecd5 2ebd 316c 3c3d
00000390: 1729 af3d 9a3f b23d 58d1 94bd 8db0 cc3b
000003a0: 3784 b13d 4147 03bb 3ece babd 1a04 05bc
000003b0: 25ea 72bd 174c 713d 3054 c8bd b590 be3d
000003c0: 6df7 833d 9fbf 8d3d df6d ebbc 3454 f0bd
000003d0: 2a5a b83d 6341 bfbd 6646 4d3d b555 68bd
000003e0: e50b b2bd 2a18 503d 8699 cb3c 73de 113c
000003f0: e036 52bd 3132 303c 9b5c 9ebd 8e49 6abd

out.bias f4 [4]
-0.08734445 0.08103129 0.04514918 0.068421066
00000000: a6e1 b2bd bcf3 a53d 59ee 383d 5820 8c3d
