Model exports/best_model_Oct22_protANDmRNA_weights_residual_2024_11201646.pth (torch, 543746 bytes, 68 tensors)

conv1.weight f4 [16, 3, 2, 2]
-0.21560302 -0.1574071 -0.18238276 -0.2506469 -1.3251522e-08 -3.8781556e-22 -0.055482056 -0.0047227438
-0.24272189 0.23632765 -0.2414047 -0.27511558 0.059254143 0.16001023 0.2817815 0.1619554
4.937e-42 4.4354784e-25 0.034220744 -0.0016909789 0.007832298 -0.23902309 -0.2924194 -0.036260296
-0.023359431 -0.14002362 0.25913024 -0.10952528 -1.20170935e-05 -6.644811e-23 0.024972327 0.006005266
0.09956848 -0.18817578 -0.0075145713 -0.17150746 -0.051626343 0.25109026 0.08896661 0.07724184
-3.7478392e-05 1.1191552e-27 -0.008479731 -9.300503e-12 0.091528684 0.21137166 0.052817248 -0.03858887
0.27147487 0.14331831 -0.2079733 -0.03241088 -0.047066532 -0.022944177 4.2036754e-14 1.8091986e-20
0.2352421 -0.03972644 0.081959605 0.22960643 -0.093912475 0.16879156 -0.04485477 0.0263324
0.00024830387 0.0018415913 -0.002091961 4.92e-42 0.1802374 0.27983177 0.17987536 -0.13232458
0.27326834 0.15248244 -0.037334565 0.2281181 -0.032801773 0.00028644843 -0.089590445 0.002433598
0.019932147 0.12965351 -0.03408624 -0.13070002 0.050495602 0.017757926 -0.007846402 0.025502896
-1.316555e-11 -7.378815e-21 0.00073457224 0.042061884 0.1369957 0.12276634 0.15369138 0.09526194
-0.22870593 0.25267708 -0.09607654 0.15307349 4.906e-42 0.01355286 -0.08700521 0.01330255
0.049153805 -0.020400554 -0.010077789 -0.27131835 -0.003563727 0.018472658 0.06141001 0.12427427
0.039539095 0.00070430705 -0.04771483 -8.928202e-08 -0.12056127 -0.014818234 -0.025951322 -0.119797476
0.048066493 -0.23280108 -0.12599123 0.18921661 -0.0009373737 4.923e-42 0.045428794 0.027017104
-0.22704773 0.059119537 -0.29134715 0.011582054 0.15583499 0.0016983976 -0.014370647 0.27710292
-3.7954564e-05 0.07214282 -0.0005822853 1.7977621e-17 -0.13034818 -0.0873437 0.03737226 -0.103274114
-0.25556886 0.08457353 0.040997278 -0.14033458 -4.94e-42 0.019133104 0.019342966 9.615649e-12
0.05261499 -0.10842847 -0.2615996 0.041067123 0.24617091 0.20513584 0.09903172 0.18854648
0.02078588 0.017381586 0.011187973 8.747e-41 -0.105479695 0.17242898 0.23193105 -0.064230695
0.00746603 0.28434315 0.080911815 -0.18672882 0.05916314 0.018636143 0.058795072 -0.00022106132
-0.18903093 -0.25060573 -0.25763056 0.26386043 0.28084958 0.12611239 -0.08760349 -0.19236311
-4.996e-42 -4.909e-42 -0.006703212 0.0411307 -0.2551784 -0.19817747 0.12855734 0.14272301
00000000: 0ac7 5cbe 542f 21be 8cc2 3abe ca54 80be
00000010: cfa8 63b2 8d6b ea9b 2741 63bd 3fc1 9abb
00000020: 168c 78be e0ff 713e cb32 77be f3db 8cbe
00000030: 79b4 723d b9d9 233e aa45 903e a3d7 253e
00000040: c30d 0000 7b45 0917 0d2b 0c3d d6a3 ddba
00000050: 0a53 003c 78c2 74be ffb7 95be ad85 14bd
00000060: 475c bfbc 5a62 0fbe b8ac 843e ca4e e0bd
00000070: 069d 49b7 63a9 a09a c492 cc3c d3c7 c43b
00000080: 8fea cb3d 27b1 40be cb3c f6bb a79f 2fbe
00000090: 2576 53bd e78e 803e 2034 b63d f830 9e3d
000000a0: 1e32 1db8 5456 b112 92ee 0abc be9d 23ad
000000b0: 6473 bb3d d071 583e e656 583d 5d0f 1ebd
000000c0: c1fe 8a3e 09c2 123e f4f6 54be 45c1 04bd
000000d0: d6c8 40bd 6df5 bbbc 1451 3d29 bddf aa1e
000000e0: 4ee3 703e 31b8 22bd 70da a73d f31d 6b3e
000000f0: 2f55 c0bd b2d7 2c3e a3b9 37bd 0cb7 d73c
00000100: c82e 8239 8d61 f13a 4819 09bb b70d 0000
00000110: 2790 383e 1c46 8f3e 3f31 383e 1880 07be
00000120: d4e9 8b3e 5b24 1c3e 21ec 18bd cb97 693e
00000130: 275b 06bd 752e 9639 327b b7bd 007d 1f3b
00000140: be48 a33c e4c3 043e 039e 0bbd 3ad6 05be
00000150: 7ad4 4e3d 1279 913c 328e 00bc 73eb d03c
00000160: 5e9c 67ad c361 0b9e 4f90 403a 1549 2c3d
00000170: 9a48 0c3e eb6c fb3d 4661 1d3e b118 c33d
00000180: e331 6abe e45e 813e c7c3 c4bd 4cbf 1c3e
00000190: ad0d 0000 d10c 5e3c ca2f b2bd f0f2 593c
000001a0: 8055 493d 101f a7bc 501d 25bc 3dea 8abe
000001b0: 6b8d 69bb f953 973c 1089 7b3d 8283 fe3d
000001c0: bff3 213d 3fa1 383a a070 43bd 4fbb bfb3
000001d0: d4e8 f6bd 2ec8 72bc de97 d4bc 6158 f5bd
000001e0: 5fe1 443d 6863 6ebe d803 01be 00c2 413e
000001f0: 16ba 75ba b90d 0000 8b13 3a3d f952 dd3c
00000200: 337f 68be 5427 723d 742b 95be a8c2 3d3c
00000210: 3593 1f3e c49c de3a dd72 6bbc 6fe0 8d3e
00000220: 6731 1fb8 9dbf 933d 81a4 18ba 75d0 a523
00000230: fe79 05be 41e1 b2bd a813 193d 6181 d3bd
00000240: ecd9 82be e334 ad3d c3ec 273d deb3 0fbe
00000250: c50d 0080 07bd 9c3c 2475 9e3c 0929 292d
00000260: d182 573d bf0f debd 62f0 85be 0036 283d
00000270: 3a14 7c3e 210f 523e 24d1 ca3d 5412 413e
00000280: 2647 aa3c d463 8e3c c34d 373c d5f3 0000
00000290: bd05 d8bd 3991 303e 557f 6d3e 628b 83bd
000002a0: 99a5 f43b 6d95 913e 18b5 a53d d735 3fbe
000002b0: 0c55 723d d3aa 983c 1ad3 703d b2cc 67b9
000002c0: 5391 41be 654f 80be 27e8 83be b718 873e
000002d0: 84cb 8f3e 9b23 013e 7569 b3bd d6fa 44be
000002e0: ed0d 0080 af0d 0080 9ea6 dbbb aa78 283d
000002f0: bea6 82be 09ef 4abe 89a4 033e fb25 123e

conv1.bias f4 [16]
-0.0017485267 -1.9642647e-07 -1.2697051e-08 1.5685288e-06 1.4249136e-06 -0.08504926 -0.0037124902 -2.1939517e-05
-6.023025e-08 -0.0013562307 -1.1760195e-07 0.03656533 1.9287704e-07 0.050121438 -0.0042947493 0.008392222
00000000: d22e e5ba 4ce9 52b4 3922 5ab2 3d86 d235
00000010: a93f bf35 4e2e aebd 404d 73bb c10a b8b7
00000020: ee57 81b3 8dc3 b1ba 5b8c fcb3 87c5 153d
00000030: a319 4f34 234c 4d3d f8ba 8cbb 887f 093c

bn1.weight f4 [16]
0.98389786 0.99701035 0.9782197 0.97481036 0.9774866 1.0008457 0.9817348 0.9955608
1.0071362 0.98311216 1.0015756 0.98829097 0.9595956 0.9731267 0.98602194 0.98441964
00000000: bbe0 7b3f 123c 7f3f 9b6c 7a3f 2c8d 793f
00000010: 903c 7a3f b61b 803f f952 7b3f 13dd 7e3f
00000020: d7e9 803f 3dad 7b3f a133 803f a300 7d3f
00000030: 0fa8 753f d51e 793f ef6b 7c3f ed02 7c3f

bn1.bias f4 [16]
0.006170482 -0.0024074973 -0.006080216 0.006824839 -0.0054584444 -0.0018077063 -0.0048283567 0.004501734
0.022989532 0.0008798254 -0.00079810293 -0.007848475 -0.035629574 -0.005551362 0.019604312 -0.0013257955
00000000: c131 ca3b 1ac7 1dbb 8c3c c7bb e6a2 df3b
00000010: c0dc b2bb 8ff0 ecba 3137 9ebb 4883 933b
00000020: 8b54 bc3c 15a4 663a c837 51ba e496 00bc
00000030: 51f0 11bd 33e8 b5bb 3999 a03c 51c6 adba

bn1.running_mean f4 [16]
-188.97816 37.489594 -30.528337 97.20337 84.30992 81.626495 92.45149 69.56072
21.146341 1.6696752 -84.48321 38.003826 -66.934555 134.17885 -35.13016 -15.548586
00000000: 69fa 3cc3 58f5 1542 093a f4c1 2068 c242
00000010: ae9e a842 c440 a342 2ae7 b842 171f 8b42
00000020: b52b a941 ebb7 d53f 67f7 a8c2 eb03 1842
00000030: 7ede 85c2 c92d 0643 4985 0cc2 02c7 78c1

bn1.running_var f4 [16]
75.76218 623.49384 36.318115 17.26851 64.217636 180.40865 165.86234 75.806984
276.82123 91.03906 154.32126 205.04324 46.926445 119.309395 283.28046 86.147224
00000000: 3c86 9742 9bdf 1b44 c045 1142 e925 8a41
00000010: 6e6f 8042 9d68 3443 c2dc 2543 2d9d 9742
00000020: 1e69 8a43 0014 b642 3e52 1a43 120b 4d43
00000030: aeb4 3b42 699e ee42 e6a3 8d43 614b ac42

conv2.weight f4 [32, 16, 2, 2]
0.0105095245 -0.02632831 0.10763583 0.0012005578 -0.126627 -0.08222392 0.07699589 -0.11583789
-0.03302833 -0.005901801 -0.1188829 0.024007814 -0.05944006 -0.039491292 0.038638767 0.043929122
0.06179347 -0.047563467 -0.03808047 0.046146024 0.0019856405 -0.012602891 0.11062406 -0.1249842
-0.06278831 -0.03477744 0.016290465 0.09229745 0.09031664 -0.04353619 -0.09237611 0.0018934611
-0.1257648 0.045345727 -0.05434794 -0.021177655 -0.1153571 -0.008143545 -0.02731066 -0.027055983
-0.120159514 0.06600828 -0.10729117 0.04737514 -0.096912555 0.020212494 -0.023448426 -0.0830972
-0.08554524 0.10911123 0.12489132 -0.096054114 0.035051104 -0.009870296 0.04945205 0.05417484
0.012840588 0.016365025 0.034046836 -0.020444192 0.026810208 -0.020138683 0.010483318 0.064460136
-0.05923043 0.0011340566 0.08443602 0.114829496 -0.072715 0.044548407 0.10892028 0.11319603
-0.03436636 -0.012110957 0.050997652 0.103311054 -0.110899016 0.11217927 0.010651803 -0.035684504
0.10241403 0.0062772585 0.013382063 0.09669961 0.05309286 -0.05821548 -0.08772726 0.11104052
0.027477482 -0.07387106 -0.027523207 0.013239599 -0.10029777 -0.062487166 -0.0765945 0.11333867
-0.10074014 -0.057608087 -0.0066984706 0.09631179 -0.12033648 0.11697743 0.11353742 -0.007076098
0.094270736 -0.08174169 0.041945655 -0.013459801 -0.013988513 -0.04152581 0.04526519 0.058164593
-0.0010780657 -0.052686527 -0.02005031 0.062555306 -0.03604544 -0.10162142 0.01647495 0.04992051
0.00781223 0.09014221 0.094733275 0.09164022 0.08203607 0.041718896 -0.006352021 -0.12133042
0.04155716 0.13360026 -0.04123128 0.1000165 -0.072498575 0.10932745 0.04601928 0.12387323
0.09191765 -0.057125837 -0.029051261 0.058515 -0.017744502 -0.108074926 0.11490949 0.10049209
0.11446545 -0.016977217 0.046022706 -0.07384549 0.0023396017 0.024328139 -0.033705875 0.06250735
-0.11937981 -0.11795232 0.07586321 0.12880643 0.0293424 0.09437467 -0.026269285 -0.020311588
-0.012030075 -0.066693366 0.08207557 0.09827919 -0.039576836 0.09406986 -0.08302952 0.1141747
-0.04353182 0.055778734 0.12290108 0.101518445 -0.06791937 0.051667165 -0.017096357 -0.03878981
0.09363511 -0.08682424 0.043612372 0.079858474 -0.059697155 0.06407672 -0.10971429 -0.074201986
0.0013939319 0.021169774 0.031811483 -0.035547484 0.02887781 -0.05215731 0.015626946 0.014675253
-0.08949474 -0.09995975 0.075507194 -0.0117134135 -0.085643835 -0.11060752 0.026488956 -0.04140601
0.033159208 0.016170718 -0.0029082363 0.08000856 0.096747495 -0.013258206 -0.068332046 0.106883734
-0.07326058 -0.07365212 -0.061378635 0.14379835 0.13180916 0.02745238 0.11712758 -0.093998626
0.044635627 -0.06413481 0.10468163 -0.0077879215 0.034026507 0.041545022 0.085640036 0.034789164
0.106878616 -0.098538466 0.094403654 0.04600843 0.05024239 0.07820317 -0.11309837 -0.0010895785
-0.024638042 -0.118968345 0.089926764 -0.13688658 0.0022162257 0.014774792 -0.029140666 0.036825586
-0.048676223 -0.11686477 0.089320764 -0.01792056 0.014648729 0.074420646 -0.0032111907 -0.008079423
0.08300882 0.102563255 0.08524232 -0.06065301 -0.0032630174 0.020077916 -0.07679818 -0.11216733
00000000: 2430 2c3c 78ae d7bc 2d70 dc3d 095c 9d3a
00000010: 82aa 01be 0465 a8bd 05b0 9d3d 6a3c edbd
00000020: b748 07bd e563 c1bb e178 f3bd 09ac c43c
00000030: 6c77 73bd 9fc1 21bd af43 1e3d 06ef 333d
00000040: 261b 7d3d e9d1 42bd 44fa 1bbd 9d03 3d3d
00000050: 8521 023b 5b7c 4ebc de8e e23d b7f7 ffbd
00000060: 2897 80bd ca72 0ebd 9573 853c 7206 bd3d
00000070: eef7 b83d 0153 32bd b02f bdbd 032e f83a
00000080: 7dc8 00be 71bc 393d f29b 5ebd c37c adbc
00000090: 5840 ecbd 816c 05bc 9bba dfbc 82a4 ddbc
000000a0: 3116 f6bd 592f 873d 79bb dbbd 6f0c 423d
000000b0: 177a c6bd ac94 a53c ea16 c0bc dd2e aabd
000000c0: 5832 afbd b575 df3d 05c7 ff3d 05b8 c4bd
000000d0: bf91 0f3d 06b7 21bc 3c8e 4a3d 70e6 5d3d
000000e0: 5461 523c f20f 863c b274 0b3d 947a a7bc
000000f0: 15a1 db3c e1f9 a4bc 39c2 2b3c ad03 843d
00000100: 9b9b 72bd a0a4 943a cbec ac3d ba2b eb3d
00000110: 9aeb 94bd 6478 363d 9911 df3d 52d3 e73d
00000120: bec3 0cbd 096d 46bc eae2 503d bf94 d33d
00000130: 061f e3bd 3fbe e53d e684 2e3c ea29 12bd
00000140: 72be d13d 76b1 cd3b 7140 5b3c 720a c63d
00000150: e677 593d 5b73 6ebd 5aaa b3bd 3669 e33d
00000160: 7518 e13c b649 97bd 5978 e1bc e7ea 583c
00000170: eb68 cdbd 8bf2 7fbd 94dd 9cbd 1b1e e83d
00000180: d950 cebd 75f6 6bbd d87e dbbb 1e3f c53d
00000190: f972 f6bd dd91 ef3d 4f86 e83d 9dde e7bb
000001a0: 0411 c13d 3068 a7bd 35cf 2b3d 7f86 5cbc
000001b0: 1330 65bc f816 2abd fe67 393d ff3d 6e3d
000001c0: e24d 8dba d4cd 57bd 8c40 a4bc ff1c 803d
000001d0: 62a4 13bd e41e d0bd 79f6 863c 7379 4c3d
000001e0: bcfd ff3b 7b9c b83d 8503 c23d dead bb3d
000001f0: 8702 a83d 6fe1 2a3d 9d24 d0bb 157c f8bd
00000200: d737 2a3d 82ce 083e 21e2 28bd 73d5 cc3d
00000210: 227a 94bd 12e7 df3d b67e 3c3d 3fb1 fd3d
00000220: 523f bc3d c8fc 69bd e9fc edbc 6dad 6f3d
00000230: eb5c 91bc 6356 ddbd ab55 eb3d ccce cd3d
00000240: dd6c ea3d ce13 8bbc 4e82 3c3d 4e3c 97bd
00000250: 0154 193b ce4b c73c 2c0f 0abd db03 803d
00000260: 677d f4bd fc90 f1bd 2c5e 9b3d d5e5 033e
00000270: 795f f03c 8247 c13d af32 d7bc 7d64 a6bc
00000280: cb19 45bc 8896 88bd 3d17 a83d 9a46 c93d
00000290: 521b 22bd b3a7 c03d 620b aabd 6dd4 e93d
000002a0: 6c4e 32bd 3e78 643d 90b3 fb3d e7e8 cf3d
000002b0: 5019 8bbd f3a0 533d a90d 8cbc 10e2 1ebd
000002c0: c4c3 bf3d e8d0 b1bd e3a2 323d d78c a33d
000002d0: 0185 74bd a83a 833d e3b1 e0bd 36f7 97bd
000002e0: 98b4 b63a 3c6c ad3c c24c 023d 3d9a 11bd
000002f0: 2891 ec3c e7a2 55bd 1504 803c 7970 703c
00000300: 0549 b7bd b3b7 ccbd 84a3 9a3d 9ee9 3fbc
00000310: 0966 afbd 3286 e2bd 5eff d83c 5999 29bd
00000320: f3d1 073d 7478 843c 1c98 3ebb 87db a33d
00000330: 8d23 c63d f238 59bc acf1 8bbd dce5 da3d
00000340: a509 96bd ecd6 96bd 2a68 7bbd e03f 133e
00000350: fbf8 063e d0e3 e03c 96e0 ef3d 5a82 c0bd
00000360: d9d3 363d 1c59 83bd 5363 d63d d231 ffbb
00000370: 615f 0b3d 1d2b 2a3d 0b64 af3d 157f 0e3d
00000380: 2de3 da3d 89ce c9bd b456 c13d 5673 3c3d
00000390: f7ca 4d3d fc28 a03d 1ea0 e7bd 30d0 8eba
000003a0: b8d5 c9bc ada5 f3bd 862b b83d ff2b 0cbe
000003b0: 193e 113b f811 723c 68b8 eebc 6dd6 163d
000003c0: b860 47bd cc56 efbd ceed b63d 23ce 92bc
000003d0: 3901 703c da69 983d d772 52bb 8e5f 04bc
000003e0: 8700 aa3d af0c d23d 8793 ae3d 4a6f 78bd
000003f0: 59d8 55bb 717a a43c 5d48 9dbd fcb7 e5bd

conv2.bias f4 [32]
0.00013691279 4.793221e-07 1.8301897e-06 4.3982914e-07 -7.5652946e-07 6.043138e-07 -1.6936227e-05 -3.3825324e-07
-1.3004465e-06 2.3471236e-07 2.2389218e-06 -3.089221e-06 -9.798093e-07 1.7664681e-07 7.193162e-05 -7.406548e-07
6.002376e-07 -1.53526e-06 -1.832905e-07 -3.273629e-06 -0.00015437066 -4.397451e-06 -1.6263622e-05 -1.152878e-06
4.3023e-05 -1.3308694e-07 -6.262852e-07 0.00014490102 4.061944e-06 2.9491943e-07 -0.00013734694 -1.751378e-06
00000000: 3f90 0f39 c4aa 0035 d7a4 f535 a821 ec34
00000010: 4f14 4bb5 2138 2235 4512 8eb7 2c99 b5b4
00000020: 008b aeb5 3e05 7c34 6240 1636 6a50 4fb6
00000030: fe81 83b5 4eac 3d34 ffd9 9638 69d1 46b5
00000040: 0420 2135 220f ceb5 82ce 44b4 85b0 5bb6
00000050: 8fde 21b9 d18d 93b6 dd6d 88b7 96bc 9ab5
00000060: 9873 3438 a9e6 0eb4 fe1d 28b5 92f0 1739
00000070: d54b 8836 6b55 9e34 ca04 10b9 e410 ebb5

bn2.weight f4 [32]
0.9746925 0.98836386 0.9728848 0.9658645 0.9791916 0.99359477 0.9525693 0.9522314
0.96583575 0.9468513 0.97740966 0.9692929 0.98474514 0.99105805 0.9576391 0.97201425
0.96877706 0.9491495 0.96177363 0.9820514 0.98100406 0.9841167 0.98328465 0.9746864
0.9952528 0.9537064 0.9572167 0.9624733 0.97279584 0.9825481 0.9782067 0.97971445
00000000: 7385 793f 6a05 7d3f fa0e 793f e542 773f
00000010: 4dac 7a3f 3a5c 7e3f 95db 733f 70c5 733f
00000020: 0341 773f d964 723f 8537 7a3f 9423 783f
00000030: 4218 7c3f fbb5 7d3f d627 753f edd5 783f
00000040: c601 783f 76fb 723f cc36 763f b867 7b3f
00000050: 1523 7b3f 12ef 7b3f 8bb8 7b3f 0c85 793f
00000060: e3c8 7e3f 1a26 743f 270c 753f a664 763f
00000070: 2609 793f 4688 7b3f c16b 7a3f 91ce 7a3f

bn2.bias f4 [32]
-0.00024864866 -0.006055958 0.00079203985 0.007865858 0.001469534 0.008050735 0.0004623893 -0.011362399
-0.0064104884 0.004577455 -0.009375195 -0.011816968 -0.021184208 -0.013714833 0.0065598916 -0.01290463
0.0045356294 0.0039777425 -0.0057180827 0.011268508 0.0015517209 -0.0044005313 -0.0009449935 -0.0033180173
0.0075803916 -0.0023530042 -0.016786894 -0.0021916775 0.021331066 0.0340291 -0.002115731 0.012886547
00000000: 0f5d 82b9 0f71 c6bb e5a0 4f3a cddf 003c
00000010: 619d c03a 3be7 033c d76c f239 5b29 3abc
00000020: 130f d2bb 7afe 953b 6b9a 19bc f59b 41bc
00000030: 818a adbc 2eb4 60bc 5cf4 d63b f16d 53bc
00000040: 9e9f 943b b957 823b c15e bbbb 8c9f 383c
00000050: 1d63 cb3a 5532 90bb 71b9 77ba 1873 59bb
00000060: ef64 f83b dc34 1abb ab84 89bc 3fa2 0fbb
00000070: 7dbe ae3c 1962 0b3d 13a8 0abb 1822 533c

bn2.running_mean f4 [32]
-0.18685602 0.3050047 0.42759725 0.08728708 0.06824063 0.1524752 -0.11710642 -0.2869352
0.0393397 -0.31004384 0.023840694 0.41136453 0.18362826 0.09461121 -0.41153783 0.21019265
-0.053088374 -0.5694999 -0.17448777 0.11329859 0.020757632 0.28156886 0.056484208 -0.07375886
0.16282868 0.05833632 0.1282555 -0.27131706 -0.36066306 -0.31596348 0.37141883 -0.23258413
00000000: 2f57 3fbe 9329 9c3e 07ee da3e 92c3 b23d
00000010: bec1 8b3d 7522 1c3e 7ed5 efbd 2ce9 92be
00000020: aa22 213d 11be 9ebe 8f4d c33c 5f9e d23e
00000030: 0c09 3c3e 86c3 c13d 16b5 d2be be3c 573e
00000040: 3273 59bd bfca 11bf ecac 32be 1709 e83d
00000050: e90b aa3c cb29 903e fc5b 673d e30e 97bd
00000060: 90bc 263e 11f2 6e3d 6955 033e 12ea 8abe
00000070: d4a8 b8be f7c5 a1be 9c2a be3e 892a 6ebe

bn2.running_var f4 [32]
0.12023996 0.15043594 0.09103077 0.10683408 0.06975989 0.05363322 0.05296355 0.10464457
0.09885672 0.08483616 0.035564877 0.0758055 0.10757125 0.087401465 0.088554956 0.04531446
0.092257574 0.18226814 0.09500929 0.060579874 0.039957024 0.13821313 0.13043872 0.18308857
0.1905236 0.07594947 0.02533654 0.08225964 0.07286823 0.1988842 0.10926138 0.15169917
00000000: 5e40 f63d e10b 1a3e 576e ba3d d3cb da3d
00000010: 46de 8e3d 82ae 5b3d 4ff0 583d e44f d63d
00000020: 6475 ca3d 95be ad3d 7aac 113d ea3f 9b3d
00000030: 514e dc3d 8aff b23d 4d5c b53d a89b 393d
00000040: 8af1 bc3d 80a4 3a3e 3b94 c23d 9a22 783d
00000050: faa9 233d be87 0d3e ba91 053e 927b 3b3e
00000060: 9e18 433e 658b 9b3d 938e cf3c be77 a83d
00000070: f03b 953d 4da8 4b3e 6ec4 df3d 0757 1b3e

conv3.weight f4 [16, 32, 2, 2]
-0.08399437 -0.0036819642 -0.059927102 -0.038666207 -0.03346226 -0.0136933 -0.042687528 0.08739467
0.085650325 0.080919996 0.07292453 0.03547011 -0.042443696 -0.025886726 -0.037801497 0.01951525
0.07349682 0.014146309 0.05927889 0.05868393 0.02908999 -0.058933932 0.047099512 -0.050802138
0.033680934 -0.025830546 0.05655888 0.07946551 0.019844273 0.07530305 -0.058257286 -0.07835736
0.023017628 0.06765006 0.033054013 0.07661049 -0.09396559 -0.033089004 0.026610533 -0.05704195
-0.061738674 0.066934824 -0.0639526 0.05058559 -0.043619573 -0.058321785 -0.022093298 -0.06477023
-0.06288627 -0.040143147 -0.06595031 0.056581333 0.040729307 -0.05951036 -0.03489801 0.051297583
-0.021821428 0.043120556 0.024386317 0.028899048 0.04131404 0.06622863 -0.0804433 -0.009791017
0.045858193 -0.044274516 0.029959198 -0.06867891 0.050355468 -0.081016175 -0.038533043 -0.07181272
-0.06328721 0.05113026 -0.07819533 -0.068461716 0.05428481 0.037861347 -0.032820262 -0.027304763
-0.052458998 0.025281873 -0.058643717 -0.019415597 0.053850092 -0.06472767 -0.07732033 0.0710848
-0.05430765 0.050237734 -0.0013244376 0.07801964 0.011071429 0.033868197 0.052182127 0.07963873
-0.0048420713 0.055069644 0.09854181 0.015968462 0.060386233 0.041385464 0.07658523 -0.07367641
0.08992194 -0.048981383 0.0142514175 0.051633786 -0.017757868 0.05084024 0.08000863 0.071104966
-0.055448115 -0.008440803 -0.038108524 0.03870554 0.04494072 -0.0016870967 0.010240466 -0.08155853
-0.057313204 0.02847965 -0.0058565047 -0.049850766 0.019453816 -0.034417633 -0.07176241 -0.03292551
-0.038951565 -0.0009909178 0.053135253 -0.008989836 0.06501053 0.06268237 -0.010814947 -0.052028652
-0.00897491 -0.06387464 0.0018888629 -0.06910844 0.076773375 0.018510101 -0.0008216346 0.022199966
0.091513835 -0.042569105 -0.012863082 -0.057371918 -0.004820466 0.0832973 -0.049172074 -0.0076664956
0.06644331 -0.08668725 -0.016902722 -0.0240942 -0.023336502 -0.04934762 -0.06480519 -0.010505923
-0.07004494 -0.020003887 0.0059496197 0.030059036 -0.02069347 0.036541946 -0.06963218 0.029659443
-0.08565853 -0.08384352 -0.004711403 0.009772763 -0.028310575 0.0003467058 0.0250701 -0.030745352
-0.006410026 -0.020516783 -0.054138195 -0.06878256 -0.029632743 0.056932215 0.07593177 -0.071154416
-0.064090274 -0.033322755 0.020180464 0.030670369 0.052305937 -0.07866875 -0.008481632 0.027895277
0.03174428 0.104457065 0.08844259 0.0562716 0.032358013 -0.057487614 0.014697405 -0.039991252
-0.049018443 0.014961681 -0.056278225 -0.036660973 0.012044632 -0.07993758 0.034371153 -0.057303626
0.039101016 0.051792834 -0.010257928 -0.049824927 -0.053690866 0.068351604 0.025855001 -0.050572474
-0.040897675 0.013517795 0.016931448 0.0025169305 -0.004972885 0.070164226 -0.053402234 0.06324843
-0.031848285 -0.0053952835 -0.07214256 -0.07672399 0.03137815 -0.081866436 -0.07255598 -0.073669106
-0.017371712 -0.054299626 0.018196948 -0.06381685 0.081039466 -0.04992507 0.06105809 0.015078161
0.05387939 -0.039409015 -0.06517174 -0.091199815 0.060865574 0.009818925 0.004997303 -0.0044134906
0.061974797 -0.038942274 0.03961728 0.053111408 0.06845708 0.08664216 0.0018711119 0.014830602
00000000: 3e05 acbd 1c4d 71bb 1f76 75bd 7560 1ebd
00000010: b90f 09bd dd59 60bc 1ed9 2ebd fafb b23d
00000020: 7069 af3d 62b9 a53d 7559 953d 1b49 113d
00000030: 71d9 2dbd 6610 d4bc bed5 1abd 72de 9f3c
00000040: 8085 963d ecc5 673c 6cce 723d 905e 703d
00000050: 214e ee3c b564 71bd 6beb 403d e715 50bd
00000060: 05f5 093d 959a d3bc 49aa 673d d0be a23d
00000070: 7590 a23c 7c38 9a3d 319f 6ebd d379 a0bd
00000080: 778f bc3c 1d8c 8a3d a563 073d f6e5 9c3d
00000090: 0871 c0bd 5688 07bd 55fe d93c d2a4 69bd
000000a0: b1e1 7cbd 2015 893d 95f9 82bd d632 4f3d
000000b0: 70aa 32bd d3e2 6ebd 01fd b4bc 41a6 84bd
000000c0: 84ca 80bd 246d 24bd f510 87bd d4c1 673d
000000d0: c6d3 263d 23c1 73bd 37f1 0ebd 6a1d 523d
000000e0: dac2 b2bc 2e9f 303d d0c5 c73c b2bd ec3c
000000f0: e938 293d e0a2 873d 75bf a4bd 806a 20bc
00000100: cdd5 3b3d 3259 35bd fe6c f53c 87a7 8cbd
00000110: 8941 4e3d cfeb a5bd d3d4 1dbd 8c12 93bd
00000120: ba9c 81bd f76d 513d e024 a0bd a835 8cbd
00000130: c059 5e3d 8014 1b3d 8a6e 06bd 3dae dfbc
00000140: 3fdf 56bd ee1b cf3c 6534 70bd 750d 9fbc
00000150: ea91 5c3d f18f 84bd 1f5a 9ebd e894 913d
00000160: b371 5ebd 15c6 4d3d c098 adba c3c8 9f3d
00000170: f064 353c 61b9 0a3d edbc 553d a119 a33d
00000180: 3daa 9ebb b590 613d 4ad0 c93d 4bd0 823c
00000190: 8e57 773d ce83 293d b8d8 9c3d a8e3 96bd
000001a0: fe28 b83d b4a0 48bd c77e 693c f37d 533d
000001b0: f378 91bc db3d 503d 91db a33d 7b9f 913d
000001c0: 901d 63bd 4b4b 0abc af17 1cbd b389 1e3d
000001d0: c313 383d 9221 ddba a1c7 273c 2908 a7bd
000001e0: 40c1 6abd 284e e93c ece7 bfbb 5130 4cbd
000001f0: 9c5d 9f3c 81f9 0cbd 2cf8 92bd e6dc 06bd
00000200: ad8b 1fbd afe1 81ba 5aa4 593d 1b4a 13bc
00000210: 3e24 853d 9d5f 803d 2d31 31bc ff1b 55bd
00000220: 800b 13bc b5d0 82bd b993 f73a ba88 8dbd
00000230: 5c3b 9d3d 7fa2 973c f762 57ba b4dc b53c
00000240: 9b6b bb3d f15c 2ebd adbf 52bc d1fe 6abd
00000250: 00f5 9dbb c697 aa3d a868 49bd 3a37 fbbb
00000260: 6e13 883d 1689 b1bd 9477 8abc 3361 c5bc
00000270: 312c bfbc bb20 4abd 95b8 84bd 0921 2cbc
00000280: b973 8fbd 31df a3bc 07f5 c23b 5e3e f63c
00000290: 5a85 a9bc 02ad 153d 519b 8ebd 5cf8 f23c
000002a0: bd6d afbd 27b6 abbd 1d62 9abb f01d 203c
000002b0: 94eb e7bc 11c6 b539 cf5f cd3c addd fbbc
000002c0: 320b d2bb d012 a8bc 03c0 5dbd dfdd 8cbd
000002d0: 5ec0 f2bc c131 693d 1e82 9b3d 68b9 91bd
000002e0: c341 83bd 717d 08bd 8051 a53c 6d40 fb3c
000002f0: c03e 563d 151d a1bd 8bf6 0abc a384 e43c
00000300: 4a06 023d 96ed d53d 6321 b53d 0d7d 663d
00000310: d689 043d 2278 6bbd 62cd 703c decd 23bd
00000320: 90c7 48bd d721 753c ff83 66bd d129 16bd
00000330: d956 453c 50b6 a3bd c4c8 0c3d 35b7 6abd
00000340: 6328 203d b924 543d de10 28bc 3915 4cbd
00000350: f4ea 5bbd edfb 8b3d decd d33c 1525 4fbd
00000360: 5284 27bd be79 5d3c d2b3 8a3c 16f3 243b
00000370: 95f3 a2bb 43b2 8f3d 4dbc 5abd 6588 813d
00000380: 5973 02bd ebca b0bb 7abf 93bd 7821 9dbd
00000390: 6086 003d 97a9 a7bd 3b98 94bd d4df 96bd
000003a0: 1f4f 8ebc 4969 5ebd c411 953c 69b2 82bd
000003b0: 05f8 a53d 3b7e 4cbd 0c18 7a3d 640a 773c
000003c0: a3b0 5c3d 596b 21bd c378 85bd f8c6 babd
000003d0: 2e4e 793d 8edf 203c 6ac0 a33b 0b9f 90bb
000003e0: 49d9 7d3d ef81 1fbd bb45 223d 598b 593d
000003f0: 3a33 8c3d 7271 b13d 1940 f53a 0efc 723c

conv3.bias f4 [16]
-2.052066e-07 -9.083782e-07 -1.3249509e-06 -1.0272994e-06 -8.739929e-07 -8.013148e-07 -3.892628e-06 1.2701777e-06
-1.213859e-06 1.1384751e-05 -7.1858466e-07 -2.5536673e-07 -5.0468548e-06 -2.8703852e-07 -1.1145898e-06 -1.0219937e-05
00000000: c356 5cb4 46d7 73b5 f7d4 b1b5 bde1 89b5
00000010: 569c 6ab5 ef19 57b5 6b9d 82b6 f97a aa35
00000020: e1eb a2b5 2201 3f37 c3e4 40b5 5619 89b4
00000030: 2758 a9b6 461a 9ab4 0499 95b5 4c76 2bb7

bn3.weight f4 [16]
0.96766496 0.9851479 0.95775336 0.98191553 0.96892184 0.9726193 0.9921098 0.99834406
0.9609287 0.98820287 0.9566372 0.97447604 0.9629166 0.9834797 0.9833908 0.9868468
00000000: e4b8 773f a732 7c3f 532f 753f d15e 7b3f
00000010: 430b 783f 94fd 783f e8fa 7d3f 7a93 7f3f
00000020: 6cff 753f ddfa 7c3f 2de6 743f 4377 793f
00000030: b481 763f 53c5 7b3f 80bf 7b3f fea1 7c3f

bn3.bias f4 [16]
-0.005431106 0.0010392702 -0.0035438614 -0.0036787852 -6.349042e-05 0.0016348356 0.013649173 0.01738986
-0.0008809197 -0.008204085 -0.020428386 0.0122599825 0.012723419 0.022191796 -0.002787083 0.0030775038
00000000: 6bf7 b1bb 1f38 883a 2140 68bb c617 71bb
00000010: 2926 85b8 fb47 d63a c8a0 5f3c 2e75 8e3c
00000020: 85ed 66ba 6d6a 06bc 6e59 a7bc 18de 483c
00000030: e375 503c 92cb b53c 7ea7 36bb f2af 493b

bn3.running_mean f4 [16]
0.020701202 -0.26411214 -0.39358637 0.018091306 -0.36266893 -0.31500062 0.22230178 -0.37247893
-0.23593646 0.035702646 0.330678 -0.03147852 -0.25135306 -0.5246964 0.19992307 0.08272571
00000000: 9195 a93c b539 87be 2784 c9be 3834 943c
00000010: beaf b9be c347 a1be 14a3 633e 8fb5 bebe
00000020: 5499 71be f03c 123d a04e a93e 9fef 00bd
00000030: 59b1 80be 8152 06bf a2b8 4c3e 196c a93d

bn3.running_var f4 [16]
0.113517754 0.23668037 0.08263049 0.084331565 0.14845237 0.22017992 0.08849911 0.12629166
0.1911332 0.067197554 0.079804555 0.21695633 0.07146923 0.30616647 0.13529064 0.17692462
00000000: ff7b e83d 575c 723e 2d3a a93d 07b6 ac3d
00000010: e603 183e d876 613e 053f b53d 9a52 013e
00000020: 6cb8 433e df9e 893d 9270 a33d cd29 5e3e
00000030: 765e 923d dac1 9c3e a189 0a3e ba2b 353e

conv4.weight f4 [8, 16, 2, 2]
0.064140506 0.017107524 0.11578984 -0.03733568 0.020201528 0.08902511 0.050766565 0.06848611
0.06739751 -0.027017208 0.06655529 -0.004314944 -0.039130185 -0.024110354 0.0039065545 -0.11592777
-0.09650713 -0.07089612 0.059717398 0.00029853324 0.06113741 -0.08864299 0.11434352 0.07783269
0.022319006 0.08075872 0.114284724 0.010244159 0.11163732 -0.019396903 0.038609594 -0.022342922
0.015598658 -0.018783374 0.009206278 -0.08356357 0.04948911 0.060089715 0.11088767 0.025510205
-0.07750911 0.050278682 0.095083684 0.10705851 0.0145820845 -0.07069769 -0.08672813 0.044895116
-0.08324354 0.012098475 0.055258557 -0.04877358 -0.08273021 -0.0934747 -0.11241013 0.09426231
0.076408036 0.047785826 0.07543278 0.069852434 0.11035183 -0.07655074 -0.04435786 0.006354447
-0.10532197 -0.13365579 0.12644826 -0.05412043 -0.07205306 0.057439733 0.055722404 0.07946647
0.075228944 0.09582389 0.088038854 0.11373033 -0.0050786105 0.07830777 0.09223354 -0.04809883
-0.059899017 0.074213386 0.057426415 -0.025160857 -0.058416553 -0.054743398 -0.088831745 0.006458619
-0.090349086 -0.117477275 0.004317043 0.0787559 -0.05747389 -0.10339118 -0.118231386 0.046922594
-0.03435714 0.04493132 0.1202151 -0.05103894 0.044363953 -0.015867628 0.039546713 0.04182537
-0.10441472 0.092985414 -0.044409636 -0.057553537 -0.076062165 0.10950787 0.06950046 -0.07770673
-0.014157378 -0.051400803 0.10108742 -0.04035825 0.10638013 0.07718765 0.03732288 0.06407934
-0.011647153 0.007119954 0.068093255 0.010224111 0.04469186 0.10777601 0.12726428 0.022397185
0.0949934 -0.121974 0.05857494 0.04287189 -0.0673563 -0.04954192 0.06290196 0.06689283
0.11038008 -0.040801298 0.09053777 -0.039899554 -0.1061337 0.052116785 -0.012388961 0.026340554
0.040145904 0.02329077 0.06517259 0.118609264 0.018753542 0.07495024 -0.047143605 0.08799099
-0.022107001 -0.07361538 -0.10675934 0.006678205 0.13026421 -0.023782726 0.14229931 0.12972063
0.051672813 0.08088591 0.090407 -0.11857418 -0.014668583 -0.028146733 -0.09360252 0.030888619
-0.020792363 -0.063327685 -0.026920028 0.021754017 0.060161024 0.09293774 0.00800829 0.00096112344
0.051282763 0.08722175 0.05850844 0.0148957055 -0.09685576 -0.10108995 0.110036984 0.10083151
0.013459089 -0.024823075 -0.08275905 -0.08298347 0.029236762 0.040187392 0.02993691 0.008919475
0.056248717 0.12804669 -0.08532745 0.097996004 0.04497924 -0.0274186 -0.09606532 -0.08158774
2.6730058e-08 -0.089666836 -0.029959532 0.113446034 -0.024803258 -0.08022765 0.04399874 -0.056486346
0.07537605 0.022184208 0.08584614 0.111677974 -0.09187429 -0.013414593 -0.0050750333 0.038499165
-0.058404807 -0.045346115 -0.10760988 0.118831486 -0.03901808 -0.07883073 -0.09227787 -0.13974576
-0.06978316 0.04980513 0.065420315 0.088802285 0.055706955 0.02240611 0.03909712 0.04722121
-0.096159875 0.086106315 -0.016819546 -0.024869205 0.09829234 0.0743673 0.024088904 0.07133063
-0.046556063 -0.015641967 -0.05485488 -0.05939995 -0.014564758 -0.002324395 -0.09590891 -0.07515758
-0.01833613 -0.11492966 0.0885905 -0.110614724 0.07798667 -0.028832685 -0.0032049166 0.10676695
00000000: 195c 833d 1425 8c3c 3923 ed3d 4ced 18bd
00000010: ad7d a53c cc52 b63d 9af0 4f3d 7242 8c3d
00000020: b507 8a3d 3153 ddbc 244e 883d 6064 8dbb
00000030: f946 20bd 1483 c5bc 8e02 803b 8a6b edbd
00000040: 88a5 c5bd fc31 91bd 3b9a 743d 7484 9c39
00000050: 396b 7a3d 758a b5bd ef2c ea3d bf66 9f3d
00000060: 59d6 b63c d464 a53d 1c0e ea3d 1ed7 273c
00000070: 1ba2 e43d 41e6 9ebc 1825 1e3d 8108 b7bc
00000080: 8391 7f3c 97df 99bc eed5 163c 6123 abbd
00000090: 18b5 4a3d a220 763d 1319 e33d c7fa d03c
000000a0: 19bd 9ebd 05f1 4d3d 3cbb c23d 7e41 db3d
000000b0: b2e9 6e3c f3c9 90bd 859e b1bd f1e3 373d
000000c0: 977b aabd af38 463c cc56 623d cec6 47bd
000000d0: 756e a9bd aa6f bfbd 4837 e6bd 990c c13d
000000e0: d17b 9c3d 12bb 433d 807c 9a3d cb0e 8f3d
000000f0: 2400 e23d a2c6 9cbd 96b0 35bd f738 d03b
00000100: 0cb3 d7bd 10dd 08be a77b 013e 62ad 5dbd
00000110: 8e90 93bd ed45 6b3d 2d3d 643d 51bf a23d
00000120: a211 9a3d 513f c43d b74d b43d 72eb e83d
00000130: 796a a6bb d35f a03d f0e4 bc3d 4703 45bd
00000140: ac58 75bd 30fd 973d f637 6b3d 241e cebc
00000150: 3246 6fbd 9d3a 60bd 6bed b5bd d3a2 d33b
00000160: f108 b9bd ed97 f0bd fb75 8d3b c64a a13d
00000170: be69 6bbd c1be d3bd 4c23 f2bd e831 403d
00000180: 13ba 0cbd e709 383d 5633 f63d 350e 51bd
00000190: fab6 353d d4fc 81bc bcfb 213d 1451 2b3d
000001a0: 62d7 d5bd 236f be3d e1e6 35bd 42bd 6bbd
000001b0: 7bc6 9bbd aa45 e03d 4256 8e3d b524 9fbd
000001c0: 59f4 67bc a689 52bd ec06 cf3d b14e 25bd
000001d0: d3dd d93d 8f14 9e3d e0df 183d 073c 833d
000001e0: b3d3 3ebc 814e e93b 7a74 8b3d 0883 273c
000001f0: d00e 373d abb9 dc3d 9151 023e 4d7a b73c
00000200: e68b c23d 81cd f9bd 47ec 6f3d 6f9a 2f3d
00000210: 1af2 89bd 78ec 4abd bed2 803d 1cff 883d
00000220: f40e e23d 431f 27bd de6b b93d b76d 23bd
00000230: a05c d9bd 6978 553d 12fb 4abc 25c8 d73c
00000240: 0870 243d 49cc be3c 3579 853d 6ae9 f23d
00000250: 07a1 993c 837f 993d a719 41bd 9f34 b43d
00000260: be19 b5bc a9c3 96bd a4a4 dabd d8d4 da3b
00000270: fb63 053e fed3 c2bc e9b6 113e 7cd5 043e
00000280: dfa6 533d 83a7 a53d 4e27 b93d 05d7 f2bd
00000290: 7f54 70bc fa93 e6bc aeb2 bfbd 210a fd3c
000002a0: bf54 aabc f2b1 81bd 6487 dcbc 7b35 b23c
000002b0: 686b 763d 2456 be3d 3435 033c e7f3 7b3a
000002c0: e00d 523d 51a1 b23d 8ca6 6f3d 1e0d 743c
000002d0: 505c c6bd 3f08 cfbd 125b e13d c080 ce3d
000002e0: 8383 5c3c c359 cbbc 947d a9bd 3df3 a9bd
000002f0: ef81 ef3c 899b 243d 403e f53c fd22 123c
00000300: 0e65 663d ac1e 033e 28c0 aebd 21b2 c83d
00000310: 273c 383d f99c e0bc e5bd c4bd 7917 a7bd
00000320: 059c e532 3fa3 b7bd b16d f5bc 6556 e83d
00000330: 3430 cbbc 654e a4bd 0638 343d 3a5e 67bd
00000340: c25e 9a3d a8bb b53c 1ad0 af3d 6cb7 e43d
00000350: 9628 bcbd e2c8 5bbc 774c a6bb 4db1 1d3d
00000360: e139 6fbd d9bc 39bd 9262 dcbd ec5d f33d
00000370: 6cd1 1fbd 0172 a1bd 2efc bcbd 8319 0fbe
00000380: 79ea 8ebd 7700 4c3d 16fb 853d f9dd b53d
00000390: fa2c 643d 058d b73c 4d24 203d 076b 413d
000003a0: 78ef c4bd 8258 b03d 25c9 89bc 81ba cbbc
000003b0: 7f4d c93d e24d 983d 1856 c53c cb15 923d
000003c0: 92b1 3ebd 9523 80bc 83af 60bd 5d4d 73bd
000003d0: 06a1 6ebc e154 18bb e46b c4bd 38ec 99bd
000003e0: a735 96bc 3e60 ebbd f06e b53d f989 e2bd
000003f0: 7ab7 9f3d 8632 ecbc 9409 52bb a1a8 da3d

conv4.bias f4 [8]
4.9166334e-07 3.099741e-06 4.464378e-07 1.2582434e-06 9.287224e-07 -7.354669e-07 7.9466133e-07 5.599613e-06
00000000: d9fa 0335 2505 5036 f2ad ef34 eae0 a835
00000010: 514d 7935 e76c 45b5 b650 5535 4fe4 bb36

bn4.weight f4 [8]
1.0273566 0.98814005 1.0038629 1.0209788 1.0112042 1.0218436 1.0073384 1.0242963
00000000: 6c80 833f bff6 7c3f 947e 803f 6faf 823f
00000010: 246f 813f c5cb 823f 77f0 803f 241c 833f

bn4.bias f4 [8]
0.032658003 0.0061599812 0.020750592 0.020310322 0.011354352 0.024963489 0.033274762 0.035760768
00000000: 66c4 053d abd9 c93b 25fd a93c d561 a63c
00000010: 9b07 3a3c 3b80 cc3c 1e4b 083d e279 123d

bn4.running_mean f4 [8]
0.23830797 0.29742038 0.40248537 -0.042400457 0.28872746 0.3833957 -0.06773428 0.02479042
00000000: 0107 743e 7c47 983e 9012 ce3e 1aac 2dbd
00000010: 16d4 933e 714c c43e 45b8 8abd 4715 cb3c

bn4.running_var f4 [8]
0.17866072 0.10879081 0.11752714 0.08705495 0.17229779 0.13028227 0.089633726 0.08572776
00000000: d6f2 363e b7cd de3d 12b2 f03d de49 b23d
00000010: d56e 303e b768 053e e391 b73d 0992 af3d

fc.weight f4 [128, 288]
0.009457379 -0.00058453856 -0.016902309 0.031235972 -0.010529231 0.046383116 0.025212433 -0.017000988
0.041560613 0.037844703 0.026809255 -0.033927802 0.0017182217 -0.027374705 -0.030593604 -0.055411525
-0.04666467 0.021352578 0.03402079 -0.008544544 0.018273594 -0.051494654 0.023947505 0.017543232
0.010387193 0.013649047 0.025528675 -0.004457612 -0.015345683 -0.026579186 0.036413364 0.053358134
0.048667148 -0.049612794 -0.03508824 -0.0040834136 0.006369891 0.045831744 0.0643546 0.0543327
-0.003478524 0.060820937 0.04817364 -0.01046843 0.040392853 -0.031810615 0.021175595 0.04589933
-0.012038104 -0.045563832 -0.04109652 -0.040420335 -0.01095387 0.008279418 -0.04040624 -0.022530412
0.043942027 0.026696831 0.038273092 0.049544416 0.057982337 -0.0368661 -0.0063785743 -0.025837824
-0.026187072 0.002552982 -0.018388106 0.011711826 -0.015717492 -0.0054264776 0.022555029 0.050805606
-0.024611497 -0.013554479 -0.040607825 0.046681482 -0.02067143 0.009350348 0.03636919 -0.020225247
0.044666562 0.029237578 -0.00069407333 0.037540253 0.020472473 -0.025036387 -0.03462698 0.036163714
-0.031349886 -0.04106389 -0.03383128 0.042909723 -0.026906645 -0.010800066 0.017445257 -0.007814203
-0.037727397 0.05330223 0.028907005 -0.04971312 0.028485544 0.018451268 0.016618697 -0.051449224
-0.04438245 -0.0029455677 -0.006581597 0.011753668 -0.02277325 -0.005508606 0.024326483 0.042804334
-0.00013433983 0.034949124 0.02653523 0.027730918 -0.04750743 0.038072858 -0.012533331 -0.011063246
-0.020112123 0.014478057 -0.043745443 -0.029678756 -0.015576796 -0.0063972655 -0.049914982 -0.040974554
0.047811575 -0.048969407 0.025337711 0.025841877 -0.060866673 -0.019205213 -0.057980437 0.022605686
-0.053661138 -0.025102468 0.041429915 0.041938778 0.038109705 -0.029251177 0.037311397 0.0117323175
0.013863468 0.008776091 0.024384653 -0.03172581 -0.0036602854 0.02349648 -0.018980522 -0.017853431
-0.0014012749 0.02246632 0.016457058 0.03342535 0.039244052 -0.038274176 -0.012431928 -0.025257373
-0.03709142 -0.008349076 -0.004206514 -0.026615547 0.05921138 0.013326393 0.043149415 -0.011142575
-0.040448166 -0.032392893 -0.027955173 -0.015618825 -0.042423744 0.051020637 0.038076527 -0.03999753
0.015982341 0.060289785 0.06902332 -0.022628782 -0.036891915 -0.038670275 -0.0153291235 0.013758941
-0.022795528 -0.039030768 -0.05831901 0.024843886 0.03387207 0.034627125 7.595367e-05 0.04575463
-0.027193481 -0.0068123336 0.018665759 -0.0495361 -0.0025176676 0.028357122 0.01003446 0.011379484
-0.038567755 -0.06699107 -0.06800831 -0.007819127 0.008210237 -0.0073161935 0.016016284 0.039254416
-0.047060262 -0.020758744 -0.039468892 0.018587867 -0.03980091 -0.019719653 -0.035032153 0.008649829
0.011572222 0.026311733 0.026201602 -0.04128746 -0.053699985 -0.06124649 -0.042003028 0.031299487
-0.039699275 -0.0034004801 0.026733117 -0.01157756 0.058291472 -0.017960262 0.03187374 0.030454736
-0.048706748 0.03420933 -0.023634087 -0.016019871 0.0014964716 -0.0065234485 0.0331894 0.0036790366
-0.035194542 0.055372212 0.04194025 -0.012198247 0.0011553618 -0.04828544 -0.01342093 -0.042629275
-0.062185008 0.0154156545 -0.0024559963 -0.00069312734 0.040448926 0.05295897 0.033873063 -0.040388953
00000000: 1ff3 1a3c b83b 19ba b676 8abc 95e2 ff3c
00000010: cc82 2cbc 39fc 3d3d 4e8a ce3c a845 8bbc
00000020: 763b 2a3d 0c03 1b3d 159f db3c e1f7 0abd
00000030: f435 e13a eb40 e0bc 709f fabc 32f7 62bd
00000040: 7423 3fbd 9aeb ae3c 6259 0b3d 6afe 0bbc
00000050: 81b2 953c 0fec 52bd 8f2d c43c d3b6 8f3c
00000060: 0c2f 2a3c 41a0 5f3c 8321 d13c 2911 92bb
00000070: 766c 7bbc 98bc d9bc 2e26 153d 0f8e 5a3d
00000080: 3457 473d c936 4bbd b0b8 0fbd 28ce 85bb
00000090: 85ba d03b 11ba 3b3d 58cc 833d f78b 5e3d
000000a0: f3f7 63bb 601f 793d b951 453d c783 2bbc
000000b0: fa72 253d d94b 02bd 7178 ad3c f000 3c3d
000000c0: 783b 45bc 24a1 3abd d354 28bd cb8f 25bd
000000d0: dc77 33bc 65a6 073c 0381 25bd b391 b8bc
000000e0: 8efc 333d 50b3 da3c 3fc4 1c3d 16ef 4a3d
000000f0: e37e 6d3d e800 17bd 5c03 d1bb d8a9 d3bc
00000100: 4586 d6bc ee4f 273b a7a2 96bc f5e2 3f3c
00000110: f8c1 80bc 98d0 b1bb 53c5 b83c 8a19 503d
00000120: 0d9e c9bc 9b13 5ebc 6454 26bd 1535 3f3d
00000130: 2157 a9bc 3432 193c dcf7 143d 6baf a5bc
00000140: 49f4 363d a583 ef3c 79f2 35ba cfc3 193d
00000150: e3b5 a73c 1c19 cdbc 05d5 0dbd 6720 143d
00000160: bd68 00bd 9c32 28bd ab92 0abd 1bc2 2f3d
00000170: 536b dcbc c3f2 30bc 5be9 8e3c 2507 00bc
00000180: 0b88 1abd 7053 5a3d 62ce ec3c fc9f 4bbd
00000190: 845a e93c 1d27 973c ef23 883c 6cbc 52bd
000001a0: 5fca 35bd 6d0a 41bb 70aa d7bb 7592 403c
000001b0: f78e babc 8981 b4bb 5548 c73c 9953 2f3d
000001c0: 93dd 0cb9 d026 0f3d 6960 d93c f32b e33c
000001d0: 2797 42bd 49f2 1b3d 9a58 4dbc 9e42 35bc
000001e0: 2ec2 a4bc 5f35 6d3c 6c2e 33bd dd20 f3bc
000001f0: d135 7fbc 27a0 d1bb a773 4cbd efd4 27bd
00000200: 12d6 433d 2594 48bd 0891 cf3c 58b2 d33c
00000210: 554f 79bd 4054 9dbc e57c 6dbd 8f2f b93c
00000220: c8cb 5bbd b1a3 cdbc 6ab2 293d ffc7 2b3d
00000230: ec18 1c3d 2aa0 efbc d6d3 183d e838 403c
00000240: 9923 633c 98c9 0f3c 53c2 c73c ecf2 01bd
00000250: 66e1 6fbb b17b c03c 0a7d 9bbc 5c41 92bc
00000260: fcaa b7ba 4a0b b83c f4d0 863c 05e9 083d
00000270: 5fbe 203d 62c5 1cbd 49af 4bbc 8de8 cebc
00000280: 2ced 17bd 90ca 08bc ccd6 89bb d908 dabc
00000290: a287 723d f256 5a3c 71bd 303d 598f 36bc
000002a0: faac 25bd 69ae 04bd 3f02 e5bc 1ae6 7fbc
000002b0: 85c4 2dbd 04fb 503d 22f6 1b3d 73d4 23bd
000002c0: 66ed 823c 6cf2 763d 195c 8d3d ff5f b9bc
000002d0: fa1b 17bd b964 1ebd 0127 7bbc 2e6d 613c
000002e0: b0bd babc bade 1fbd eadf 6ebd 6885 cb3c
000002f0: 71bd 0a3d 2cd5 0d3d 5149 9f38 3569 3b3d
00000300: ddc4 debc ff39 dfbb efe8 983c 5ee6 4abd
00000310: 74ff 24bb 324d e83c 9367 243c 0471 3a3c
00000320: 39f9 1dbd 9d32 89bd f147 8bbd cc1b 00bc
00000330: 3b84 063c aebc efbb 9534 833c 3dc9 203d
00000340: 43c2 40bd 3e0e aabc 22aa 21bd 9545 983c
00000350: 4706 23bd 1c8b a1bc e07d 0fbd 03b8 0d3c
00000360: 6b99 3d3c b48b d73c bea4 d63c 0a1d 29bd
00000370: 84f4 5bbd 99dd 7abd 5e0b 2cbd e433 003d
00000380: b59b 22bd 97da 5ebb 69ff da3c ceaf 3dbc
00000390: 0ac3 6e3d 6621 93bc 0a8e 023d 367c f93c
000003a0: ba80 47bd 151f 0c3d 469c c1bc 1b3c 83bc
000003b0: 4125 c43a a7c2 d5bb 9cf1 073d fe1b 713b
000003c0: 2728 10bd f9cd 623d 8ac9 2b3d 28db 47bc
000003d0: 826f 973a f4c6 45bd 76e3 5bbc 099c 2ebd
000003e0: b5b5 7ebd f191 7c3c c8f4 20bb fdb2 35ba
000003f0: c6ad 253d 81eb 583d 7bbe 0a3d e36e 25bd

fc.bias f4 [128]
-0.009009345 -0.0047264597 -0.020945849 0.027557392 -0.06220191 0.008093851 0.008298824 0.0041366727
-0.013716658 -0.0108946655 0.027187094 0.036105193 -0.027581645 -0.011818093 0.0012924492 0.055805642
-0.04316181 0.011076737 0.026721677 5.376252e-05 0.003756728 0.0089619905 0.009382859 0.014427591
-0.052951373 0.04264018 0.026249291 6.769458e-05 0.006801635 0.015349132 0.0073157144 0.032048326
0.01069127 0.024149489 0.037443187 -0.0121431 -0.04470718 -6.226833e-05 0.031993914 -0.031358752
-0.00034249196 -0.01242973 -0.03686041 0.050194096 0.046822548 0.01950583 -0.025486186 0.005470776
0.01970239 0.025380367 -0.049140714 0.013863568 -0.030297864 0.03439225 -0.0031159895 -0.03620659
0.02450519 -0.0013137361 0.02714774 0.045675658 -0.04924111 0.015903814 -0.010778308 0.047739908
-0.04318682 -0.014516619 0.0038891758 0.047244594 -0.044283267 -0.014869432 -0.016283318 -0.037616063
0.028153569 -0.0252426 0.006075341 0.016066622 -0.018962977 0.016053474 -0.011212257 0.043606073
-0.03889714 -0.00455228 0.022449633 -0.036083356 0.0016439586 -0.0007974652 -0.034636166 0.018574573
-0.04126001 0.05120587 -0.017561778 0.03754986 -0.052118648 0.049818877 0.045956735 0.049102005
-0.031188577 0.033935446 -0.041984458 0.058651894 -0.017320646 0.015673367 -0.051016748 0.05237475
-0.045178667 0.014233331 -0.04365373 0.013781972 0.035316058 0.07014703 -0.032651503 0.03798
0.020639354 -0.030594105 -0.03239687 0.043826755 0.04677613 -0.010012044 0.049490586 0.05422201
0.0120389825 -0.026193969 -0.02355811 0.02138414 0.014098523 0.04815713 0.037070874 0.02987309
00000000: ef9b 13bc 6be0 9abb a196 abbc 0ac0 e13c
00000010: 6ec7 7ebd 129c 043c caf7 073c ed8c 873b
00000020: d5bb 60bc 8a7f 32bc 78b7 de3c 0ae3 133d
00000030: e7f2 e1bc ada0 41bc 6667 a93a 7594 643d
00000040: 70ca 30bd 347b 353c 6be7 da3c 117f 6138
00000050: 7033 763b 50d5 123c 90ba 193c b461 6c3c
00000060: 8ae3 58bd 78a7 2e3d c108 d73c 40f7 8d38
00000070: 40e0 de3b ed7a 7b3c a9b8 ef3b 1b45 033d
00000080: 702a 2f3c 26d5 c53c 075e 193d daf3 46bc
00000090: e01e 37bd 0e96 82b8 0d0c 033d 0972 00bd
000000a0: 7e90 b3b9 11a6 4bbc f1fa 16bd 5398 4d3d
000000b0: 00c9 3f3d b1ca 9f3c 68c8 d0bc 3244 b33b
000000c0: e866 a13c 7dea cf3c c647 49bd 0524 633c
000000d0: 3a33 f8bc e3de 0c3d a135 4cbb 5c4d 14bd
000000e0: 1cbf c83c ab31 acba f064 de3c 6616 3b3d
000000f0: 0cb1 49bd b748 823c 8097 30bc ec8a 433d
00000100: aae4 30bd 1dd7 6dbc 8be1 7e3b 8c83 413d
00000110: 5f62 35bd eb9e 73bc 9864 85bc 4d13 1abd
00000120: 50a2 e63c 92c9 cebc a713 c73b 269e 833c
00000130: 3f58 9bbc 9382 833c 9db3 37bc 489c 323d
00000140: 9c52 1fbd 4b2b 95bb 4be8 b73c 24cc 13bd
00000150: 197a d73a fc0c 51ba a7de 0dbd b429 983c
00000160: 4200 29bd 3fbd 513d b8dd 8fbc e2cd 193d
00000170: 5d7a 55bd e10e 4c3d 213d 3c3d 2f1f 493d
00000180: 307f ffbc e5ff 0a3d e5f7 2bbd f83c 703d
00000190: 07e4 8dbc 6f65 803c f0f6 50bd e886 563d
000001a0: 440d 39bd eb32 693c 41ce 32bd c8cd 613c
000001b0: 92a7 103d 3fa9 8f3d 95bd 05bd eb90 1b3d
000001c0: dd13 a93c 7da0 fabc 95b2 04bd af83 333d
000001d0: 5498 3f3d 8e09 24bc a4b6 4a3d e617 5e3d
000001e0: 273f 453c bc94 d6bc f0fc c0bc cb2d af3c
000001f0: 7efd 663c 6940 453d a1d7 173d 69b8 f43c

out.weight f4 [4, 128]
0.035699382 -0.016438557 0.05127578 0.041050013 -0.026856644 0.03865488 -0.087884285 -0.0011775125
0.084714584 0.001122633 -0.020734102 0.030941913 0.08286952 -0.023974739 0.055302292 -0.059802804
0.103792 0.03012899 -0.07674964 -0.071036674 -0.058728185 0.013464011 -0.09621441 0.046789892
-0.046101056 0.09477515 0.0053772554 0.03837379 0.05941006 -0.06227462 -0.03297221 0.016155558
-0.09754842 0.07531794 0.06473394 0.05741994 -0.054242294 -0.055676818 -0.09250723 -0.05514732
0.085427485 0.036268443 -0.056434885 0.034758076 -0.06389377 0.041626334 0.04255099 0.045568343
0.056419298 -0.021133743 -0.028643418 -0.10029818 0.04845378 -0.025017148 -0.041523 0.042934556
0.05014763 -0.057593916 0.08874315 0.08342997 -0.034969404 0.027298091 0.02568826 0.037158236
0.09349798 -0.024838943 0.07682089 -0.019298363 0.058396216 0.045667127 0.03610168 -0.040894777
-0.041788246 -0.050481044 0.07823943 0.0070157372 0.0787261 0.032636657 0.0002189422 0.050555877
0.012959647 0.06103827 0.080886476 0.007782954 0.011223607 0.059556793 0.08947766 -0.03405461
-0.07111174 7.226204e-05 -0.05111345 0.045679025 -0.037073694 0.09870613 0.08228287 -0.0035899277
0.056354947 0.088512644 -0.09960962 0.032781653 0.0651818 -0.09693847 0.066138916 0.03867768
-0.061800204 -0.04971975 0.03259011 -0.011279343 0.052640032 0.06489369 -0.07897304 0.09424821
-0.06381372 -0.06851722 0.020840935 -0.0011747807 -0.09208649 -0.064771265 0.06356409 0.07523537
0.07663034 0.06961302 0.004771986 0.015325942 0.026231637 -0.040151983 0.06760492 -0.0692783
0.09360058 -0.10439726 -0.06372514 -0.042322583 -0.06694617 -0.097470514 0.07855147 0.064634174
-0.035549182 0.021285018 0.037624583 -0.031820502 0.00987054 0.09456485 -0.02637633 0.004345804
-0.064211406 -0.078554 -0.026392005 -0.04197872 0.06219173 -0.012890299 0.0051992256 0.076556
0.04133073 -0.054421674 -0.024317987 0.0906688 -0.01936522 0.08240043 -0.07355789 0.07589641
0.08495224 -0.038850125 0.009758317 -0.09638867 -0.004671077 -0.032165654 -0.008685697 -0.058344007
-0.06628203 0.079937354 -0.09765076 0.055457626 0.08311117 0.057003595 0.098053336 0.06714038
-0.015126565 0.054474737 -0.06673245 -0.02001737 -0.05457635 0.09030376 0.03668308 0.069705375
-0.10194448 0.0740432 -0.010341796 0.083894074 0.017055754 0.05662116 -0.08845174 0.04160714
0.040419266 -0.077871755 0.07981443 0.065733805 0.07114865 -0.03936399 -0.026343225 -0.08036066
0.0022484856 0.001594643 0.06300046 -0.020447388 -0.029263824 0.07420385 -0.06039378 -0.094479725
0.021820143 0.072305016 0.044075884 -0.07051656 0.011718901 -0.09410705 -0.03538303 -0.09328296
0.06446104 0.04435703 -0.0023812735 0.06912696 0.0613054 0.053262938 -0.010383163 -0.0013565504
0.005788955 -0.066105925 0.049268696 -0.08467166 -0.028333332 0.090212844 0.027342139 0.026041443
0.08552278 -0.08349032 0.033266544 -0.08988148 -0.030873444 -0.061916366 -0.036347248 -0.0019183751
0.025864348 0.045133907 0.048681892 -0.0413414 0.0076584956 0.065914385 -0.018512772 0.023383865
-0.06784833 -0.0062163714 -0.033572856 0.09754013 -0.0112070935 0.09347985 0.028513735 0.06378656
00000000: 8439 123d 27aa 86bc 8d06 523d 0f24 283d
00000010: 7702 dcbc 9454 1e3d adfc b3bd c356 9aba
00000020: d77e ad3d 5025 933a 90da a9bc e579 fd3c
00000030: 7fb7 a93d ac66 c4bc a884 623d c9f3 74bd
00000040: e690 d43d 12d1 f63c ea2e 9dbd ad7b 91bd
00000050: f78c 70bd 2898 5c3c 100c c5bd c2a6 3f3d
00000060: 76d4 3cbd 7919 c23d b033 b03b d62d 1d3d
00000070: f757 733d ac13 7fbd de0d 07bd a958 843c
00000080: 77c7 c7bd 4b40 9a3d 3a93 843d 2c31 6b3d
00000090: 2b2d 5ebd 600d 64bd 6e74 bdbd 28e2 61bd
000000a0: 9bf4 ae3d 388e 143d 4428 67bd 7c5e 0e3d
000000b0: bdda 82bd 6080 2a3d f249 2e3d dfa5 3a3d
000000c0: ec17 673d ac20 adbc 9aa5 eabc 2269 cdbd
000000d0: 7977 463d c3f0 ccbc 0514 2abd 25dc 2f3d
000000e0: 9a67 4d3d 99e7 6bbd f8be b53d 55dd aa3d
000000f0: 143c 0fbd 3fa0 df3c 3070 d23c 3c33 183d
00000100: de7b bf3d 0a7b cbbc 4554 9d3d 9a17 9ebc
00000110: df30 6f3d 740d 3b3d 5bdf 133d 4881 27bd
00000120: 272a 2bbd 36c5 4ebd ff3b a03d 45e4 e53b
00000130: 263b a13d 04ae 053d d993 6539 ae13 4f3d
00000140: b354 543c 4403 7a3d cfa7 a53d 2608 ff3b
00000150: 38e3 373c d3f1 733d 1040 b73d d97c 0bbd
00000160: 08a3 91bd 638b 9738 565c 51bd ee19 3b3d
00000170: 96da 17bd 7126 ca3d ec83 a83d fe44 6bbb
00000180: 72d4 663d 1e46 b53d 2100 ccbd 0e46 063d
00000190: 097e 853d ad87 c6bd d773 873d 7d6c 1e3d
000001a0: 3622 7dbd f0a6 4bbd 357d 053d fecc 38bc
000001b0: 139d 573d fce6 843d 9ebc a1bd 3505 c13d
000001c0: c5b0 82bd c252 8cbd 9cba aa3c 19fb 99ba
000001d0: d797 bcbd cca6 84bd e42d 823d 0015 9a3d
000001e0: 5ef0 9c3d 4591 8e3d 525e 9c3b a919 7b3c
000001f0: bbe3 d63c 6876 24bd 7374 8a3d c8e1 8dbd
00000200: a9b1 bf3d 3bce d5bd 5482 82bd 725a 2dbd
00000210: 131b 89bd 9f9e c7bd 98df a03d ec5e 843d
00000220: 059c 11bd eb5d ae3c 3c1c 1a3d 3756 02bd
00000230: 0cb8 213c 37ab c13d 2c13 d8bc 3f67 8e3b
00000240: 4581 83bd ebe0 a0bd 0c34 d8bc e1f1 2bbd
00000250: c1bc 7e3d d531 53bc 445e aa3b 64c9 9c3d
00000260: 694a 293d 43e9 5ebd 8436 c7bc 90b0 b93d
00000270: cfa3 9ebc 8fc1 a83d 85a5 96bd 946f 9b3d
00000280: 71fb ad3d 4f21 1fbd 59e1 1f3c 6c67 c5bd
00000290: d50f 99bb 22c0 03bd 744e 0ebc 20fa 6ebd
000002a0: dfbe 87bd 32b6 a33d 1ffd c7bd 8927 633d
000002b0: 3036 aa3d 9a7c 693d 30d0 c83d e580 893d
000002c0: 69d5 77bc e720 5f3d 06ab 88bd 78fb a3bc
000002d0: 738b 5fbd 2df1 b83d ff40 163d b1c1 8e3d
000002e0: 44c8 d0bd f6a3 973d a370 29bc a8d0 ab3d
000002f0: 82b8 8b3c 97eb 673d 3026 b5bd 406c 2a3d
00000300: ac8e 253d 3a7b 9fbd bf75 a33d 729f 863d
00000310: 62b6 913d 233c 21bd bfcd d7bc 2194 a4bd
00000320: 545b 133b 5703 d13a 6306 813d 4881 a7bc
00000330: b0ba efbc 30f8 973d 785f 77bd 967e c1bd
00000340: 28c0 b23c a714 943d ea88 343d fc6a 90bd
00000350: a200 403c 32bb c0bd cced 10bd 230b bfbd
00000360: 2604 843d b8af 353d 240f 1cbb 7092 8d3d
00000370: 5f1b 7b3d 3d2a 5a3d 241e 2abc 47ce b1ba
00000380: 46b1 bd3b 8b62 87bd f9cd 493d 5668 adbd
00000390: 4e1b e8bc 83c1 b83d 9ffc df3c dd54 d53c
000003a0: 9126 af3d f9fc aabd 8042 083d c813 b8bd
000003b0: 4eea fcbc 049c 7dbd dae0 14bd fd71 fbba
000003c0: 78e1 d33c 55de 383d aa66 473d 9a55 29bd
000003d0: 1ef4 fa3b 1ffe 863d 19a8 97bc 858f bf3c
000003e0: 11f4 8abd b4b2 cbbb b183 09bd 1fc3 c73d
000003f0: f59d 37bc 5d72 bf3d a395 e93c 87a2 823d

out.bias f4 [4]
0.006857501 -0.087294705 -0.0006301357 0.024316411
00000000: e3b4 e03b 91c7 b2bd b12f 25ba 3633 c73c
