Model exports/best_model_Oct22_protANDmRNA_weights_residual_2024_11191608.pth (torch, 183558 bytes, 28 tensors)

conv1.weight f4 [16, 3, 2, 2]
0	0x3d49f073	0.049301576
1	0xbe2eca53	-0.17069368
2	0xbe6771a4	-0.22601944
3	0xbe56b101	-0.20965959
4	0xbe2b48a9	-0.16726936
5	0x3e22731e	0.15864226
6	0x3e8693b2	0.26284558
7	0x3e8b070a	0.27153808
8	0xbe36bb3f	-0.17844866
9	0xbe39194d	-0.18076058
10	0xbdf5200e	-0.119690046
11	0xbe17b287	-0.14814197
12	0xbe56999f	-0.2095704
13	0xbe2ddd9c	-0.16979069
14	0xbe8050b6	-0.25061578
15	0xbe837519	-0.25675276
16	0x3e022de0	0.12712812
17	0x3e4126cb	0.18862455
18	0x3dde3fe2	0.108520284
19	0x3dc4303e	0.09579514
20	0x3c1940af	0.009353801
21	0x3de11b10	0.1099149
22	0xbe33f8fe	-0.17575452
23	0xbd29196f	-0.04128402
24	0x3e3f98b6	0.18710598
25	0x3e73ff53	0.23827867
26	0x3e8ef7af	0.27923343
27	0x3e037221	0.12836505
28	0xbe6f4525	-0.2336622
29	0x3e3bf920	0.18356752
30	0x3dff2768	0.12458688
31	0xbccdf29e	-0.025140103
32	0xbe080d3e	-0.13286301
33	0x3e02300a	0.12713638
34	0xbe60ce1d	-0.21953626
35	0x3e027dbd	0.12743278
36	0xbe502849	-0.20327868
37	0xbe1f02bf	-0.15528391
38	0x3e1c1ec8	0.15246117
39	0xbe52e02c	-0.20593327
40	0xbe027b08	-0.12742245
41	0xbd4468c0	-0.04795146
42	0xbe874bd1	-0.2642503
43	0x3e2adf6e	0.16686794
44	0xbd531498	-0.05153331
45	0xbc73f547	-0.014890022
46	0xbe8357d5	-0.25652948
47	0xbd2d261a	-0.042272665
48	0xbe8ce44a	-0.2751792
49	0x3e806d48	0.25083375
50	0x3e7634fc	0.2404365
51	0xbd39a7cc	-0.04532604
52	0x3db7fce7	0.08983784
53	0x3e226a36	0.15860829
54	0x3e8f3426	0.27969474
55	0xbd652326	-0.055941723
56	0x3e808573	0.25101814
57	0xbd5760ea	-0.05258266
58	0xbb7f6bce	-0.0038974169
59	0xbe274d24	-0.1633802
60	0xbd9d6587	-0.076853804
61	0x3e1aa6eb	0.15102737
62	0xbdd6d184	-0.10489181
63	0xbe5a488a	-0.21316734
64	0x3e875db3	0.26438674
65	0x3e532247	0.20618545
66	0x3e21e836	0.15811238
67	0x3e208077	0.15674005
68	0x3b8b5f17	0.004253279
69	0x3e46df98	0.19421232
70	0x3dd236d1	0.10264362
71	0x3dc3affa	0.09555049
72	0x3e936c32	0.28793484
73	0x3e1f2298	0.1554054
74	0xbe14836f	-0.14503263
75	0x3e93b305	0.2884752
76	0xbe831ac9	-0.25606373
77	0xbe43da43	-0.19126229
78	0xbe000397	-0.1250137
79	0xbe6de282	-0.23230937
80	0xbdeceee7	-0.115690045
81	0xbe8426fc	-0.25810993
82	0x3e334cef	0.17509817
83	0xbe26569f	-0.16243981
84	0x3e917dc2	0.28416258
85	0xbe26ebbb	-0.16300862
86	0x3e63a46d	0.22230692
87	0x3d9cf676	0.07664196
88	0xbe8182fd	-0.2529525
89	0x3dd352d6	0.10318534
90	0x3ceb1b1b	0.028699448
91	0xbe83e24a	-0.25758582
92	0x3d77233b	0.060336333
93	0xbe2c93a3	-0.16853194
94	0x3e268192	0.16260365
95	0x3e58e12d	0.21179648
96	0x3e5778b1	0.21042134
97	0x3e1b7e2c	0.1518485
98	0x3df17d9a	0.11791535
99	0x3c4bc77e	0.012437699
100	0xbd4a4bb4	-0.049388602
101	0x3e28a2da	0.16468373
102	0x3e67b5ce	0.22627947
103	0x3e900a9a	0.28133088
104	0xbddef14b	-0.10885867
105	0xbe4a60d3	-0.19763498
106	0xbe5a58f6	-0.21322998
107	0x3e005074	0.1253069
108	0x3e76c7b7	0.24099623
109	0x3e65d1b7	0.22443281
110	0x3dba0f0e	0.09084903
111	0x3db3c7db	0.08778354
112	0x3e76e2c4	0.24109942
113	0x3e324253	0.17408113
114	0x3e614dc9	0.22002329
115	0x3ac5d779	0.0015094123
116	0x3e44f5eb	0.19234435
117	0xbe61dbef	-0.22056554
118	0xbe639157	-0.22223412
119	0xbe0dc233	-0.13843612
120	0xbe1454f8	-0.14485538
121	0x3db1c210	0.086795926
122	0xbe0f13cc	-0.13972396
123	0xbe840020	-0.25781345
124	0x3e443bb2	0.19163397
125	0xbe753177	-0.2394465
126	0xbcd7b68b	-0.02633216
127	0x3e2ef4e0	0.170856
128	0x3e0546fc	0.1301536
129	0x3e8d0e28	0.27549863
130	0x3dc37ce7	0.095453076
131	0x3d961357	0.073279075
132	0xbe4b39b3	-0.1984623
133	0xbdfeae4e	-0.1243559
134	0xbdbcd614	-0.0922052
135	0x3dbf31ae	0.093356475
136	0x3e27c9a0	0.16385508
137	0x3d430953	0.047616314
138	0x3e6db841	0.23214819
139	0x3e2bfbe4	0.16795307
140	0xbdf779b1	-0.12083758
141	0xbe90419d	-0.2817506
142	0xbe73f6cb	-0.23824613
143	0x3e52a764	0.20571667
144	0x3d884f49	0.066557474
145	0x3d2b0bb9	0.041759226
146	0xbe14a353	-0.14515428
147	0xbe5610ae	-0.209048
148	0xbe783be3	-0.24241595
149	0xbe8b1ea2	-0.27171808
150	0xbd7c4249	-0.061586652
151	0x3e1a7552	0.15083817
152	0xbe702bc7	-0.234542
153	0x3e2a5fca	0.16638103
154	0x3e0949e2	0.1340709
155	0xbe917a7e	-0.28413767
156	0x3bb66861	0.005566642
157	0xbe379d10	-0.17931008
158	0xbe5c90aa	-0.2153956
159	0x3e8a61f3	0.27027854
160	0xbdcc4b6b	-0.09975322
161	0xbe827539	-0.2548006
162	0xbe78e1f0	-0.24304938
163	0x3e412784	0.1886273
164	0xbda4647c	-0.080269784
165	0x3e57d610	0.21077752
166	0xbe6588b5	-0.22415431
167	0xbe453925	-0.1926008
168	0xbe645607	-0.22298442
169	0xbd16121d	-0.036638368
170	0xbe1bbbc0	-0.1520834
171	0xbe15c3a3	-0.1462541
172	0x3d7ce98a	0.061746158
173	0xbe3de3d1	-0.18543936
174	0x3d02bc18	0.03191766
175	0x3e8e0927	0.27741358
176	0x3d60fa4c	0.0549262
177	0xbd27f4ca	-0.041004933
178	0x3e6a730b	0.22895448
179	0x3db35450	0.08756316
180	0xbe0b667d	-0.13613315
181	0x3e49c0a5	0.19702394
182	0x3e620c7c	0.22075075
183	0xbe5874b0	-0.21138263
184	0x3e7ba9e0	0.24576521
185	0x3da30751	0.0796038
186	0x3dc59ec9	0.096494265
187	0x3e346150	0.17615247
188	0x3d11bd06	0.035580657
189	0xbe3c6d21	-0.18401004
190	0xbe91ace7	-0.28452227
191	0x3d39e99e	0.04538881

conv1.bias f4 [16]
0	0xbe85a2f6	-0.26100892
1	0x3da54b84	0.08071044
2	0x3e918a8c	0.28426015
3	0x3c9eb878	0.01937507
4	0x3e56e00e	0.20983908
5	0xbc49da95	-0.01232018
6	0x3e0a41e6	0.13501701
7	0xbd59f256	-0.053209625
8	0x3dd9959e	0.1062424
9	0xbb13a0c5	-0.0022526246
10	0x3e691336	0.22761235
11	0xbe1fc8c7	-0.15603934
12	0xbbee5aff	-0.007274031
13	0x3e57d5e6	0.2107769
14	0x3e85d011	0.26135305
15	0xbe655cad	-0.22398634

bn1.weight f4 [16]
0	0x3f800000	1.0
1	0x3f800000	1.0
2	0x3f800000	1.0
3	0x3f800000	1.0
4	0x3f800000	1.0
5	0x3f800000	1.0
6	0x3f800000	1.0
7	0x3f800000	1.0
8	0x3f800000	1.0
9	0x3f800000	1.0
10	0x3f800000	1.0
11	0x3f800000	1.0
12	0x3f800000	1.0
13	0x3f800000	1.0
14	0x3f800000	1.0
15	0x3f800000	1.0

bn1.bias f4 [16]
0	0x00000000	0.0
1	0x00000000	0.0
2	0x00000000	0.0
3	0x00000000	0.0
4	0x00000000	0.0
5	0x00000000	0.0
6	0x00000000	0.0
7	0x00000000	0.0
8	0x00000000	0.0
9	0x00000000	0.0
10	0x00000000	0.0
11	0x00000000	0.0
12	0x00000000	0.0
13	0x00000000	0.0
14	0x00000000	0.0
15	0x00000000	0.0

bn1.running_mean f4 [16]
0	0xc318a9fb	-152.66399
1	0xc2f1a80c	-120.82822
2	0x42afc815	87.890785
3	0xc2c37034	-97.71915
4	0x41ea42bf	29.28259
5	0x41ada2f4	21.704567
6	0x41b9ab5f	23.208677
7	0x42a94527	84.63506
8	0x40d5c380	6.6801147
9	0x41e4af78	28.585678
10	0x41a39d1b	20.451712
11	0xc2c0ca6c	-96.395355
12	0xc27345b2	-60.81806
13	0xc24d8f37	-51.38986
14	0xc1becc9e	-23.84991
15	0xc226709b	-41.609966

bn1.running_var f4 [16]
0	0x41d5fe03	26.74903
1	0x42fe7910	127.23645
2	0x43c2ae3f	389.3613
3	0x426e21c5	59.532978
4	0x43648dd7	228.55406
5	0x429b34b0	77.602905
6	0x436e80f9	238.5038
7	0x42717768	60.366608
8	0x43932c7e	294.3476
9	0x435361b5	211.38167
10	0x436e1976	238.09946
11	0x41abe7b8	21.488144
12	0x4275d03a	61.453346
13	0x429922a1	76.567635
14	0x43878e6c	271.11267
15	0x432fabd9	175.67128

conv2.weight f4 [32, 16, 2, 2]
0	0x3daa1df4	0.08306494
1	0xbdbb99f8	-0.091602266
2	0x3d1e57dc	0.038658008
3	0xbdaf16ae	-0.08549248
4	0x3dd0e108	0.10199171
5	0xbded728e	-0.11594115
6	0xbd0f3780	-0.03496504
7	0xbd44b99c	-0.048028573
8	0x3d2ce1ac	0.042207405
9	0xbd4cd57c	-0.050008282
10	0x3d8da1a0	0.06915593
11	0x3d4b2fd4	0.04960616
12	0x3dccb6ba	0.0999579
13	0x3cd79e28	0.026320532
14	0x3dc882c0	0.097905636
15	0xbbc0e660	-0.005886838
16	0x3b855840	0.004069358
17	0xbd244ad0	-0.04011041
18	0xbd226110	-0.039643347
19	0xbcff5370	-0.031167716
20	0xbbe995e0	-0.007128462
21	0xbd463670	-0.04839176
22	0xbdf808bc	-0.12111041
23	0x3daf1dba	0.08550592
24	0x3c036300	0.008019209
25	0x3d9f1430	0.07767522
26	0x3dc0c10e	0.09411822
27	0xbdd92562	-0.10602833
28	0x3de300d2	0.11084141
29	0x3d322414	0.043491438
30	0xbd04f400	-0.03245926
31	0xbd6562d4	-0.056002453
32	0x3dcb7e4e	0.099362
33	0xbd863890	-0.06553757
34	0xbc200260	-0.009766191
35	0x3dad9382	0.084754005
36	0x3cefea10	0.029286414
37	0xbdf63512	-0.12021841
38	0x3c3be570	0.011468276
39	0x3c3b23f0	0.011422142
40	0x3d910b56	0.0708224
41	0xbd723fb0	-0.05914277
42	0x3d2bf088	0.041977435
43	0x3cfd7ba8	0.030942753
44	0x3c9d2000	0.019180298
45	0xbd0f46dc	-0.034979686
46	0xbd52852c	-0.051396534
47	0xbb852960	-0.00406377
48	0xbd9fa770	-0.07795608
49	0xbde6c248	-0.11267525
50	0x3d536bf4	0.051616624
51	0x3d94d12c	0.07266459
52	0x3c00dab0	0.007864639
53	0xbd30bbec	-0.043147966
54	0x3d9581ae	0.07300125
55	0xbdf30a4c	-0.11867198
56	0x3c0f7700	0.008756399
57	0x3d58fbbc	0.052974448
58	0x3dcdb642	0.100445285
59	0x3c8f4e80	0.017493486
60	0x3dd2a292	0.10284914
61	0x3d433930	0.04766196
62	0x3d97aa80	0.07405567
63	0xbd66c7a0	-0.05634272
64	0x3d538e7c	0.051649556
65	0xbddacaf4	-0.106832415
66	0x3dcf3c86	0.10118966
67	0xbc58c3c0	-0.013230264
68	0x3d107fbc	0.035278067
69	0x3d15fb50	0.036616623
70	0x3d9ea1a6	0.07745676
71	0x3deb6048	0.114929736
72	0x3d86618e	0.06561576
73	0xbd89c812	-0.067276135
74	0x3d5a731c	0.053332433
75	0x3ca12138	0.01966916
76	0xbdbc89dc	-0.09205982
77	0x3ca585d8	0.020205423
78	0x3dedca48	0.11610848
79	0x3d8a8f1c	0.06765577
80	0x3cff9c60	0.031202495
81	0xbdb79e9c	-0.08965799
82	0x3d6f36d8	0.058401912
83	0xbd5b17f8	-0.053489655
84	0xbdc4ff28	-0.0961898
85	0x3ddb9556	0.10721843
86	0xbdd89424	-0.105751306
87	0xbd8ea78c	-0.06965551
88	0xbd3d88b4	-0.04627295
89	0xbd5912b4	-0.052996352
90	0x3cb33528	0.021875933
91	0xbd103f20	-0.03521645
92	0x3dc411f8	0.0957374
93	0xbd4c1ee0	-0.049834132
94	0xbd8ce854	-0.068802506
95	0xbd84081a	-0.06446858
96	0x3de4cf16	0.11172311
97	0x3d5a0b40	0.053233385
98	0x3dd304fe	0.103036866
99	0xbd8b1110	-0.06790364
100	0x3da21cb4	0.07915631
101	0x3dbd28c0	0.09236288
102	0x3dc73e3a	0.09728666
103	0xbdbb9cde	-0.091607794
104	0x3d4557f8	0.048179597
105	0xbcb81518	-0.022470996
106	0xbdc6be92	-0.09704317
107	0x3c983298	0.018578812
108	0x3c977258	0.01848714
109	0x3d0fb130	0.03508109
110	0x3dc4401a	0.09582539
111	0x3db39780	0.08769131
112	0x3de121e8	0.10992795
113	0xbde7db40	-0.113211155
114	0x3df2b3e6	0.11850719
115	0xbde73f48	-0.11291367
116	0xbdc6a696	-0.096997425
117	0xbd69a2c8	-0.057040006
118	0x3a396b00	0.0007073134
119	0xbd967e4e	-0.073483095
120	0x3d4df1d8	0.05027947
121	0xbceb6270	-0.028733462
122	0xbd78c368	-0.06073323
123	0x39d55600	0.000406906
124	0x3d18c09c	0.03729306
125	0x3d13d6c0	0.036093473
126	0x3d4e5268	0.050371557
127	0x3df07c38	0.11742443
128	0xbcb1aa00	-0.021687508
129	0xbd7a8270	-0.06115955
130	0x3cdf33f8	0.02724646
131	0xbc6f03d0	-0.014588311
132	0x3d3353b4	0.043780997
133	0x3d74f770	0.059806287
134	0x3dfdbf22	0.12389971
135	0xbd551a68	-0.052027136
136	0x3dcc9564	0.099894315
137	0xbded26d0	-0.115796685
138	0x3dd24732	0.10267486
139	0xbdb7821c	-0.08960363
140	0xbcb609d0	-0.022221476
141	0x3dcadcd8	0.09905404
142	0x3ded90f2	0.11599912
143	0x3c442660	0.01197204
144	0xbcf3aef0	-0.029746503
145	0x3d3d13d8	0.046161503
146	0xbdea153e	-0.11429833
147	0x3d9f839c	0.07788774
148	0xbc821390	-0.015878469
149	0xbc8431e0	-0.016137064
150	0xbcbea488	-0.023271814
151	0x3d28a4b0	0.041172683
152	0xbddec13c	-0.108767
153	0xbded6912	-0.11592306
154	0x3cc538d0	0.024074942
155	0x3dc92b66	0.09822731
156	0x3df8eb60	0.12154269
157	0xbd1a1100	-0.03761387
158	0x3d962df6	0.07332985
159	0xbcf9b348	-0.030480996
160	0xbd9ff3d8	-0.078101814
161	0x3d5077d4	0.050895527
162	0x3cda4428	0.026643828
163	0x3ca67de0	0.020323694
164	0x3c5ddf30	0.013541982
165	0xba180a00	-0.000579983
166	0xbda11cea	-0.07866843
167	0xbd524b6c	-0.05134146
168	0xbdf06b5c	-0.11739227
169	0x3d5058ec	0.050866053
170	0x3d867fe4	0.06567362
171	0xbd5bfd38	-0.053708285
172	0x3d36cb00	0.04462719
173	0xbd4d418c	-0.05011134
174	0x3dc8f6b6	0.098126814
175	0xbd42d17c	-0.04756306
176	0x3dc2a654	0.09504381
177	0x3b7f7440	0.0038979203
178	0x3c716430	0.014733359
179	0xbde7e9aa	-0.11323865
180	0x3d48a614	0.04898651
181	0xbd3c1ea0	-0.045927644
182	0x3d588838	0.052864283
183	0xbdbccb80	-0.09218502
184	0x3dfb8e40	0.122829914
185	0x3d66f47c	0.056385502
186	0xbdc0591e	-0.09391998
187	0x3d97d0d0	0.07412875
188	0x3c4e61a0	0.012596518
189	0x3db6b0e8	0.08920461
190	0xbde98b84	-0.114035636
191	0x3d3557cc	0.044273183
192	0xbd14cad4	-0.036326244
193	0xbcc59a40	-0.024121404
194	0x3dc325e2	0.0952871
195	0x3da5590c	0.08073625
196	0xbd581b88	-0.05276063
197	0x3c4eace0	0.012614459
198	0x3de2cc7e	0.1107416
199	0xbd99cc50	-0.07509673
200	0x3d1b94f4	0.03798385
201	0xbdf8138e	-0.12113105
202	0xbd9513c4	-0.072791606
203	0xbc2838c0	-0.0102674365
204	0x38f32000	0.000115931034
205	0x3da1a636	0.0789303
206	0xbda08970	-0.07838714
207	0xbdcedb08	-0.10100371
208	0xbdf46e36	-0.119350836
209	0xbdfc3ae0	-0.12315917
210	0x3d577fec	0.05261223
211	0x3d1d1f78	0.03836009
212	0x3d922480	0.07135868
213	0xbc67f310	-0.014157072
214	0xbd33b9f8	-0.043878525
215	0x3dd52aac	0.1040853
216	0x3dae3bd8	0.08507508
217	0x3d46d038	0.048538417
218	0xbdd28334	-0.10278931
219	0x3db46006	0.088073775
220	0x3dba9dd2	0.09112133
221	0xbde409ce	-0.111346826
222	0x3de18d3c	0.110132664
223	0xbdc27226	-0.09494428
224	0xbde6da08	-0.11272055
225	0xbd93f836	-0.07225077
226	0x3df06254	0.117375046
227	0xbd1647b4	-0.036689475
228	0x3d5546c8	0.052069455
229	0x3d45e884	0.048317447
230	0xbda54252	-0.0806929
231	0x3d5e1f78	0.05422923
232	0x3db963ec	0.09052262
233	0xbdd96ca6	-0.10616426
234	0x3d5fd808	0.054649383
235	0x3d4b76f0	0.049673975
236	0x3ddcf424	0.10788754
237	0x3dceceec	0.10098061
238	0xbd9748e0	-0.07386947
239	0xbd847af8	-0.06468767
240	0xbdd8946c	-0.10575184
241	0x3d3b6ad0	0.04575616
242	0x3d163160	0.03666818
243	0xbd2fb7e0	-0.042899966
244	0xbd239cec	-0.039944574
245	0xbdd7a7ae	-0.10530029
246	0xbdc1205e	-0.09430002
247	0x3df73a52	0.120716706
248	0xbdb9c800	-0.0907135
249	0x3d178238	0.03698942
250	0x3d7b9e10	0.061430037
251	0x3dd98c00	0.10622406
252	0x3d4d531c	0.050128087
253	0x3dd25918	0.102708995
254	0xbcabc908	-0.020969883
255	0xbdf0301e	-0.117279276

conv2.bias f4 [32]
0	0xbdb2f746	-0.0873857
1	0xbde7ad30	-0.1131233
2	0x3d2164ac	0.03940265
3	0x3d88c140	0.066774845
4	0xbcad30f0	-0.0211415
5	0x3d458380	0.04822111
6	0x3dbcf78a	0.09226902
7	0x3cbac750	0.022800118
8	0x3deb6524	0.114939004
9	0x3dbde47a	0.09272094
10	0x3d8c3e42	0.06847812
11	0x3cb41208	0.021981254
12	0xbd6f9a38	-0.058496684
13	0xbb305e40	-0.0026911646
14	0x3db241c6	0.087039515
15	0x3cafd958	0.021465942
16	0x3d0f7f94	0.035033777
17	0xbcc74700	-0.024325848
18	0xbdebdc22	-0.115165964
19	0xbd988b16	-0.074484035
20	0xbdca6d98	-0.098841846
21	0x3c9cfc88	0.019163385
22	0xbd2ab5ec	-0.0416774
23	0x3d456e90	0.048201144
24	0xbbba0f60	-0.0056781024
25	0xbc82ac98	-0.01595144
26	0x3df5d568	0.12003595
27	0xbd321310	-0.04347521
28	0x3d4e325c	0.050340995
29	0x3d863034	0.06552163
30	0x3dbbb2e0	0.09164977
31	0xbdbf09ae	-0.09328018

bn2.weight f4 [32]
0	0x3f800000	1.0
1	0x3f800000	1.0
2	0x3f800000	1.0
3	0x3f800000	1.0
4	0x3f800000	1.0
5	0x3f800000	1.0
6	0x3f800000	1.0
7	0x3f800000	1.0
8	0x3f800000	1.0
9	0x3f800000	1.0
10	0x3f800000	1.0
11	0x3f800000	1.0
12	0x3f800000	1.0
13	0x3f800000	1.0
14	0x3f800000	1.0
15	0x3f800000	1.0
16	0x3f800000	1.0
17	0x3f800000	1.0
18	0x3f800000	1.0
19	0x3f800000	1.0
20	0x3f800000	1.0
21	0x3f800000	1.0
22	0x3f800000	1.0
23	0x3f800000	1.0
24	0x3f800000	1.0
25	0x3f800000	1.0
26	0x3f800000	1.0
27	0x3f800000	1.0
28	0x3f800000	1.0
29	0x3f800000	1.0
30	0x3f800000	1.0
31	0x3f800000	1.0

bn2.bias f4 [32]
0	0x00000000	0.0
1	0x00000000	0.0
2	0x00000000	0.0
3	0x00000000	0.0
4	0x00000000	0.0
5	0x00000000	0.0
6	0x00000000	0.0
7	0x00000000	0.0
8	0x00000000	0.0
9	0x00000000	0.0
10	0x00000000	0.0
11	0x00000000	0.0
12	0x00000000	0.0
13	0x00000000	0.0
14	0x00000000	0.0
15	0x00000000	0.0
16	0x00000000	0.0
17	0x00000000	0.0
18	0x00000000	0.0
19	0x00000000	0.0
20	0x00000000	0.0
21	0x00000000	0.0
22	0x00000000	0.0
23	0x00000000	0.0
24	0x00000000	0.0
25	0x00000000	0.0
26	0x00000000	0.0
27	0x00000000	0.0
28	0x00000000	0.0
29	0x00000000	0.0
30	0x00000000	0.0
31	0x00000000	0.0

bn2.running_mean f4 [32]
0	0x3d066606	0.03281214
1	0x3dac6e93	0.08419528
2	0x3e298cc3	0.16557603
3	0xbd006b22	-0.03135217
4	0xbdf7e7ce	-0.1210476
5	0xbe04e457	-0.1297773
6	0x3e78aa9b	0.24283831
7	0x3e402e73	0.18767719
8	0x3e6f52ed	0.23371477
9	0x3dbd526a	0.09244235
10	0x3de2a6f7	0.11067002
11	0x3d927f9c	0.07153246
12	0xbe899fda	-0.2687977
13	0x3ea0d8e4	0.31415474
14	0x3dd59d75	0.10430423
15	0xbd942fdd	-0.07235692
16	0x3d3f18ae	0.046654396
17	0xbe1728cc	-0.14761657
18	0xbe28e313	-0.16492872
19	0xbd51afac	-0.051192924
20	0xbf03894d	-0.5138138
21	0xbe975f6e	-0.29564995
22	0x3dc156f8	0.09440416
23	0x3ddfb1b1	0.10922564
24	0x3e554573	0.20827274
25	0x3e703ea4	0.23461396
26	0x3e8f6589	0.28007153
27	0x3e07c424	0.13258415
28	0xbdd385c0	-0.10328245
29	0x3e873568	0.26407933
30	0x3de24946	0.11049132
31	0xbe18b753	-0.14913683

bn2.running_var f4 [32]
0	0x3d7016d3	0.058615517
1	0x3dd504dc	0.104013175
2	0x3db8892e	0.0901054
3	0x3d9fd22b	0.07803758
4	0x3d68f573	0.056874704
5	0x3dab38af	0.08360421
6	0x3da329c0	0.079669476
7	0x3d3a1ce0	0.045437694
8	0x3d4f76ad	0.050650287
9	0x3cffb96f	0.031216351
10	0x3d7d333b	0.061816435
11	0x3db1f63f	0.08689546
12	0x3e14be9e	0.1452584
13	0x3e00fe69	0.1259705
14	0x3d9472d5	0.07248465
15	0x3d63f1b3	0.055650424
16	0x3db4faf7	0.0883693
17	0x3deb4347	0.114874415
18	0x3e05cb1b	0.1306576
19	0x3d483459	0.048878048
20	0x3daa7501	0.08323098
21	0x3d9b6065	0.07586745
22	0x3d5a3d59	0.053281162
23	0x3d3fb444	0.046802774
24	0x3dcb53a3	0.09928062
25	0x3d9f8e93	0.07790866
26	0x3d08b12f	0.0333721
27	0x3deddefa	0.11614795
28	0x3d832a43	0.06404545
29	0x3e06d4e0	0.13167143
30	0x3d1cab55	0.038249332
31	0x3d0b9c20	0.03408444

conv3.weight f4 [16, 32, 2, 2]
0	0x3d1723f1	0.03689951
1	0xbd14d15b	-0.03633247
2	0xbc3f7f72	-0.0116881
3	0x3d03616f	0.03207534
4	0xbc495f39	-0.012290769
5	0xbd42bf9a	-0.047546007
6	0xbc046949	-0.008081743
7	0x3c862d80	0.016379118
8	0xbd52c4a2	-0.051457055
9	0xbc9e70b4	-0.01934085
10	0xbd6f512e	-0.05842703
11	0x3d87fe23	0.066402696
12	0x3ce77d72	0.02825806
13	0x3d801c96	0.06255452
14	0x3d65628e	0.056002192
15	0xbc24f843	-0.010068956
16	0xbd2a4429	-0.04156891
17	0x3d37cf53	0.044875454
18	0x3ca94ee8	0.020667508
19	0x3d1a64cb	0.03769378
20	0x3b4776d5	0.003043582
21	0x3ccc51a3	0.024941271
22	0x3c99d80f	0.018779783
23	0x3cb9750c	0.02263882
24	0xbc30a40d	-0.0107813
25	0x3d04124f	0.032244023
26	0x3d4c4c26	0.04987731
27	0x3d990213	0.07471099
28	0x3d8498ea	0.064744785
29	0x3d6fb385	0.058520813
30	0xbd8a3edc	-0.06750271
31	0xbd643598	-0.055715173
32	0x3ce12d88	0.027487531
33	0xbd581bb1	-0.052760784
34	0xbd53c44f	-0.051700886
35	0xbda43a7b	-0.08018967
36	0x3d76f1b8	0.060289115
37	0xbca197e4	-0.019725747
38	0x3cd24651	0.025668295
39	0x3db3db15	0.08782021
40	0xbd808c09	-0.062767096
41	0x3d90f6f8	0.070783556
42	0xbd22f709	-0.039786372
43	0xbd5ae025	-0.053436417
44	0xbce6f31f	-0.028192101
45	0xbbfd18fd	-0.007723926
46	0xbd62eb7f	-0.055400368
47	0xbd08e4a2	-0.033421166
48	0x3d2c2e92	0.0420366
49	0xbc9909e4	-0.018681474
50	0xbdb2b921	-0.08726717
51	0xbc95991a	-0.018261481
52	0x3d6dc2d8	0.058047146
53	0xbbb149d3	-0.005410412
54	0x3d71602f	0.05892962
55	0x3d929a46	0.071583316
56	0xbd5e27e4	-0.05423726
57	0xbcb18b74	-0.021672942
58	0xbd296706	-0.041358016
59	0xbda56807	-0.08076482
60	0xbd59492f	-0.05304831
61	0x3d804fdc	0.06265232
62	0xbd98226f	-0.07428443
63	0x3d66379d	0.05620538
64	0x3d01e1c3	0.031709444
65	0x3d486a6e	0.048929624
66	0x3caa03ae	0.020753708
67	0x3d9ed73e	0.07755898
68	0xbd6045f1	-0.0547542
69	0xbd537eef	-0.051634725
70	0x3cf58478	0.029970393
71	0xbdb46e33	-0.08810081
72	0xbc275936	-0.010214141
73	0x3d072de5	0.033002753
74	0xbd871c2d	-0.06597171
75	0xbd5a4742	-0.053290613
76	0xbd503070	-0.050827444
77	0xbdaf423a	-0.085575536
78	0xbd820165	-0.06347922
79	0xbbe8b537	-0.0071016806
80	0xbda26266	-0.07928924
81	0x3cb86b2d	0.022512043
82	0x3c93cc8e	0.018041875
83	0xbc0d506c	-0.008625131
84	0xb9bd9aa3	-0.00036164102
85	0xbd985f4a	-0.0744005
86	0xbd6258d3	-0.05526049
87	0xbd885e25	-0.06658582
88	0x3daec0b1	0.08532847
89	0xbd2a6508	-0.041600257
90	0x3d7063b3	0.05868883
91	0xbd7aebec	-0.06126015
92	0xbd76ae3a	-0.06022475
93	0xbd07bc5b	-0.033138614
94	0x3d10333d	0.035205115
95	0xbd590726	-0.052985333
96	0xbd7d5e68	-0.06185761
97	0xbd06d078	-0.032913655
98	0xbd9061f8	-0.07049936
99	0xbb3d2d09	-0.0028865954
100	0x3d741616	0.059591375
101	0xbc61b9f5	-0.013777246
102	0xbd8e4f32	-0.06948699
103	0xbd6e22a8	-0.05813852
104	0x3d5e4723	0.05426706
105	0xbc97919f	-0.018502055
106	0xbd4a53b1	-0.04939622
107	0x3ceaa343	0.028642302
108	0xbc6b1444	-0.014348093
109	0xbcbfa4c5	-0.023393998
110	0xbd7dd2b1	-0.06196851
111	0x3d7eedef	0.06223863
112	0xbd9a9bdc	-0.07549259
113	0x3cc0afa8	0.02352126
114	0x3d012122	0.03152574
115	0x3d852cca	0.065026835
116	0x3a99a6ef	0.0011722724
117	0x3cdbacb0	0.026815742
118	0xbd939ae5	-0.07207278
119	0xbd8198b6	-0.063279554
120	0x3d82d6e8	0.06388646
121	0x3ca90fd7	0.020637436
122	0xbce0a1f2	-0.027420972
123	0xbd46f711	-0.048575465
124	0x3dab5a90	0.08366883
125	0x3d0de739	0.03464434
126	0xbd5fec10	-0.054668486
127	0x3d8ba138	0.068178594
128	0x3d3bbef4	0.045836404
129	0x3c1c8d38	0.009555154
130	0xbd98ecd5	-0.07467047
131	0x3bea45f8	0.007149454
132	0x3da725b4	0.08161488
133	0xbd9fc9b1	-0.078021415
134	0x3c539bfb	0.012915607
135	0x3ce624a5	0.028093645
136	0x3d4c2ef2	0.049849458
137	0x3da57eea	0.080808476
138	0x3d406da2	0.046979554
139	0x3c2842f5	0.01026987
140	0x3d6357dc	0.05550371
141	0x3d0b56d7	0.034018364
142	0xbd386495	-0.045017797
143	0xbb52f6b2	-0.00321905
144	0xbc566b54	-0.013087112
145	0xbd65adf3	-0.056074094
146	0x3db12ed4	0.0865151
147	0x3c1fa07f	0.009742855
148	0xbd2d538c	-0.042316005
149	0xbcd08f3f	-0.02545893
150	0xbda16e6e	-0.07882391
151	0x3cc8b524	0.024500437
152	0x3db44d46	0.08803801
153	0xbd320b8a	-0.043468036
154	0x3d8ea9ed	0.069660045
155	0x3d742bc6	0.059612058
156	0xbc856a0d	-0.01628592
157	0xb92c66c7	-0.00016441486
158	0xbd957117	-0.07296961
159	0xbd61c978	-0.055123776
160	0x3daa7458	0.08322972
161	0x3d976c5a	0.07393713
162	0xbd8ace05	-0.06777576
163	0xbd260855	-0.04053529
164	0x3c9eeeca	0.019400973
165	0x3c895329	0.016763287
166	0x3b98992d	0.004656932
167	0x3d9fb7c9	0.07798726
168	0x3d6ea3f5	0.05826183
169	0x3d77e7ed	0.060523916
170	0x3c992a33	0.01869688
171	0xbb901705	-0.0043972754
172	0x3d3a058d	0.04541545
173	0x3c5961b3	0.013267922
174	0x3da50b4b	0.080587946
175	0x3bfff549	0.0078112227
176	0xbd6bf1de	-0.05760371
177	0xbba35b17	-0.004985224
178	0xbcc37f18	-0.023864314
179	0xbd40eaa8	-0.047098786
180	0xbd177a44	-0.036981836
181	0x3c1e31ba	0.00965541
182	0xbd9d5b2d	-0.07683406
183	0xbdaae6ab	-0.08344778
184	0xbd4c8525	-0.049931664
185	0x3d87a32e	0.06622921
186	0xbb9481af	-0.004532061
187	0x3becc88d	0.007226056
188	0xbcf661e7	-0.03007598
189	0xbbb2c58b	-0.005455678
190	0x3cc7fba3	0.024411982
191	0xbdaf55bf	-0.08561277
192	0x3d6f76fc	0.05846308
193	0x3cc6922c	0.024239622
194	0xbd945454	-0.07242647
195	0x3c985d94	0.018599309
196	0xbdb104e2	-0.086435094
197	0x3daf70bb	0.085664235
198	0xbd8c6cf7	-0.06856721
199	0x3d91ff37	0.071287565
200	0x3d75b654	0.059988335
201	0x3d8863d0	0.06659663
202	0x3d8bf8b2	0.06834544
203	0xbcd60a4d	-0.026127959
204	0xbd852ba8	-0.065024674
205	0x3d64cae4	0.055857554
206	0xbd3a3e25	-0.045469422
207	0x3d246088	0.040131122
208	0xbda5ba16	-0.08092134
209	0xbc9218c1	-0.01783407
210	0xbdaeb595	-0.08530728
211	0x3d7aebd8	0.061260074
212	0x3d5a7ce0	0.053341746
213	0x3cad2097	0.021133704
214	0x3d736c29	0.05942932
215	0xbd960413	-0.07324996
216	0x3c95f2c0	0.018304229
217	0xbd7c26f8	-0.0615606
218	0x3da1061d	0.07862494
219	0x3d96f07c	0.073700875
220	0xbace520c	-0.0015741005
221	0xbd855a01	-0.065113075
222	0xbdab563c	-0.08366057
223	0x3d7d8fe5	0.061904807
224	0xbc2ff02f	-0.010738417
225	0xbca45d1e	-0.020063933
226	0x3d21d9f9	0.039514516
227	0xbd80ee5d	-0.06295464
228	0x3d24d85d	0.040245403
229	0x3d6778c6	0.056511663
230	0x3d0796ec	0.033102915
231	0x3d8aa749	0.06770188
232	0xbd471a5e	-0.04860913
233	0x3d9a0292	0.075200215
234	0xbd96ff1c	-0.07372877
235	0xbb236541	-0.0024932178
236	0xbd1f4684	-0.03888561
237	0x3db3609e	0.08758663
238	0x3d8d1264	0.06888273
239	0xbd6f765e	-0.058462493
240	0xbd11b5d6	-0.035573803
241	0x3ca93c9c	0.020658784
242	0x3d265751	0.040610615
243	0x3d593c9c	0.053036317
244	0x3d78acca	0.06071166
245	0xbdb466cd	-0.0880867
246	0xbd81334d	-0.06308613
247	0xbd7f831c	-0.062380895
248	0xbcc42de2	-0.02394766
249	0xbcc2336b	-0.023706159
250	0x3d92fbba	0.07176919
251	0x3ca91481	0.02063966
252	0xbd6fe132	-0.058564372
253	0x3c4e842a	0.012604753
254	0x3d9ca843	0.07649281
255	0x3daa9102	0.08328439

conv3.bias f4 [16]
0	0x3cacdead	0.021102274
1	0xbc89b354	-0.016809143
2	0xbd4af985	-0.049554367
3	0xbc363518	-0.011121057
4	0xbd8062d3	-0.06268849
5	0xbd476185	-0.048676986
6	0x3d3b3be8	0.045711428
7	0x3d786a41	0.060648207
8	0xbd92073b	-0.07130285
9	0xbb7b45ae	-0.0038341093
10	0xbd974beb	-0.07387527
11	0x3d8a7834	0.06761208
12	0x3d011da4	0.031522408
13	0xbb90453f	-0.004402786
14	0xbb2ee32c	-0.0026685698
15	0xbd465d12	-0.048428603

bn3.weight f4 [16]
0	0x3f800000	1.0
1	0x3f800000	1.0
2	0x3f800000	1.0
3	0x3f800000	1.0
4	0x3f800000	1.0
5	0x3f800000	1.0
6	0x3f800000	1.0
7	0x3f800000	1.0
8	0x3f800000	1.0
9	0x3f800000	1.0
10	0x3f800000	1.0
11	0x3f800000	1.0
12	0x3f800000	1.0
13	0x3f800000	1.0
14	0x3f800000	1.0
15	0x3f800000	1.0

bn3.bias f4 [16]
0	0x00000000	0.0
1	0x00000000	0.0
2	0x00000000	0.0
3	0x00000000	0.0
4	0x00000000	0.0
5	0x00000000	0.0
6	0x00000000	0.0
7	0x00000000	0.0
8	0x00000000	0.0
9	0x00000000	0.0
10	0x00000000	0.0
11	0x00000000	0.0
12	0x00000000	0.0
13	0x00000000	0.0
14	0x00000000	0.0
15	0x00000000	0.0

bn3.running_mean f4 [16]
0	0xbe314b26	-0.17313823
1	0x3e205ed6	0.15661177
2	0xbe9e4351	-0.30910733
3	0xbeb5d854	-0.35516608
4	0x3e0c4847	0.13699447
5	0x3d17ce8c	0.037062213
6	0x3e1162c2	0.1419783
7	0x3e75c1ba	0.23999682
8	0x3e9336bb	0.28752694
9	0x3ecd0848	0.4004538
10	0xbd86db06	-0.06584744
11	0x3e92330f	0.2855458
12	0x3db9ce7e	0.090725884
13	0xbd7cf752	-0.0617593
14	0xbe573d87	-0.21019565
15	0xbe736d5a	-0.23772183

bn3.running_var f4 [16]
0	0x3e4816fc	0.19540018
1	0x3e256bcb	0.16154401
2	0x3daafaf5	0.083486475
3	0x3dd7e080	0.10540867
4	0x3d3b758f	0.04576641
5	0x3dea1149	0.11429078
6	0x3d805f53	0.06268182
7	0x3de3fdf4	0.11132422
8	0x3da01f8e	0.078185186
9	0x3df9e7a1	0.12202383
10	0x3d8c468e	0.06849395
11	0x3dae8cf5	0.08522979
12	0x3db7b500	0.0897007
13	0x3da2c9cc	0.07948646
14	0x3ddf578f	0.10905372
15	0x3d5af809	0.0534592

conv4.weight f4 [8, 16, 2, 2]
0	0xbd3317e4	-0.043723956
1	0xbd88e5b4	-0.066844374
2	0xbc9c8d50	-0.019110352
3	0xbd5beca4	-0.053692475
4	0x3dd01d66	0.10161857
5	0xbd81eba0	-0.0634377
6	0xbdc71b4c	-0.09722003
7	0xbdd7fac8	-0.105458796
8	0xbde22052	-0.11041321
9	0xbb9fe8a0	-0.004880026
10	0xbdeeba8c	-0.11656675
11	0xbd851a3c	-0.064991444
12	0x3db1f7a4	0.08689812
13	0xbbd748e0	-0.0065699667
14	0xbd8295c6	-0.06376223
15	0xbbe11100	-0.0068684816
16	0x3dad9db6	0.084773466
17	0xbb0e96c0	-0.0021757334
18	0xbd235ae8	-0.039881617
19	0xbdc494f0	-0.0959872
20	0xbd511594	-0.05104597
21	0x3ad14100	0.0015964806
22	0x3dd82054	0.10553041
23	0xbda538fa	-0.08067508
24	0xbdc82808	-0.0977326
25	0xbba93e20	-0.0051648766
26	0xbda81f9a	-0.082091525
27	0x3db95b94	0.0905067
28	0xbdf5e03e	-0.120056614
29	0xbdb97228	-0.09054977
30	0xbd8485e0	-0.06470847
31	0x3dcaf9cc	0.09910926
32	0xbcb32fd8	-0.0218734
33	0xbd974a2c	-0.07387194
34	0x3daeeb80	0.08541012
35	0x3dba2806	0.09089665
36	0x3d0dae58	0.034590095
37	0xbd890ad8	-0.066915214
38	0xbde4b63c	-0.11167571
39	0x3d9f1c7a	0.07769103
40	0xbdd31896	-0.10307424
41	0x3d8b208a	0.06793316
42	0x3dd1537a	0.10221
43	0x3dbd9e62	0.09258725
44	0xbdb30c7c	-0.087426156
45	0xbdcc87c8	-0.09986836
46	0x3dc24f10	0.09487736
47	0x3d8eccb4	0.06972638
48	0xbdc80e3a	-0.097683385
49	0x3df2ca00	0.11854935
50	0x3df70ede	0.120633826
51	0x3dc90586	0.09815507
52	0xbd3fae6c	-0.0467972
53	0x3d380314	0.04492481
54	0x3de21ebc	0.11041018
55	0xbd34f728	-0.04418102
56	0xbdd6fe04	-0.104976684
57	0xbb6b3780	-0.0035891235
58	0x3df7228e	0.12067138
59	0xbd5b1db0	-0.05349511
60	0x3d4c61ac	0.049897835
61	0xbd34fd5c	-0.044186935
62	0x3ddbe3fa	0.107368425
63	0x3cfc5918	0.030804202
64	0xbdb451c6	-0.088046595
65	0x3d182440	0.037143946
66	0x3d41c234	0.047304347
67	0xbd973012	-0.073822156
68	0x3af5ee80	0.0018763095
69	0x3de28b4c	0.11061725
70	0x3d740b24	0.059580937
71	0x3ded1766	0.115767285
72	0xbc911140	-0.01770842
73	0xbd9a4c74	-0.075341135
74	0xbdf628d0	-0.12019503
75	0x3db9b8ea	0.09068473
76	0xbdce97a8	-0.1008752
77	0xbdde5f4a	-0.10858019
78	0x3ce926f0	0.02846095
79	0xbc87a9e0	-0.016560495
80	0x3d3c97a8	0.04604307
81	0xbb1ae1c0	-0.0023633093
82	0x3db0240c	0.086006254
83	0xbc9a4ac8	-0.018834487
84	0xbce959f0	-0.028485268
85	0x3c5b16c0	0.013372123
86	0xbda30d1e	-0.07961486
87	0x3c20a520	0.009804994
88	0x3d19e61c	0.037572965
89	0xbdd3f7d6	-0.10350005
90	0x3dc4d1a6	0.096103
91	0xbdfcf4c0	-0.1235137
92	0xbdd993c0	-0.10623884
93	0xbcd4dbf8	-0.025983796
94	0x3d4e9f94	0.050445154
95	0xba23a500	-0.00062425435
96	0xbd1c1cf4	-0.03811355
97	0xbcbed478	-0.023294672
98	0x3d628c6c	0.055309698
99	0xbcf9dd48	-0.030501023
100	0x3dee72ee	0.11643015
101	0x3caea978	0.021321043
102	0xbc6204a0	-0.013795048
103	0xbdc2f260	-0.095188856
104	0x3de3a91c	0.111162394
105	0xbd34a7e4	-0.044105425
106	0xbd224d64	-0.039624587
107	0xbb56d580	-0.0032781065
108	0x3d6805cc	0.056646153
109	0xbc308b80	-0.010775447
110	0xbdb38a92	-0.087666646
111	0x3dedff84	0.11621001
112	0xbd162b88	-0.03666261
113	0x3d1787a8	0.036994606
114	0xbdabd4ac	-0.08390173
115	0x3dc935d4	0.0982472
116	0xbd0b8260	-0.034059882
117	0x3d5588a8	0.05213228
118	0xbd0032e8	-0.031298548
119	0xbd8d28ce	-0.068925485
120	0xbddf3d02	-0.10900308
121	0xbd04c610	-0.03241545
122	0x3de0c090	0.109742284
123	0x3df42c82	0.11922552
124	0xbd289804	-0.0411606
125	0x3be9d0c0	0.0071354806
126	0x3d857b24	0.06517628
127	0xbdf7f1bc	-0.12106654
128	0xbdc3d55c	-0.095621794
129	0x3dd04116	0.10168664
130	0xbd78f128	-0.06077686
131	0xbd7347a0	-0.05939448
132	0x3ce5f6e0	0.02807182
133	0xbd334b34	-0.04377289
134	0xbb3f3640	-0.0029176623
135	0xbded10ac	-0.115754455
136	0xbd5dc28c	-0.054140612
137	0x3d0a5c18	0.033779234
138	0xbd7f5a9c	-0.06234227
139	0xbdaa8fc2	-0.08328201
140	0xbdd8dedc	-0.10589382
141	0xbd5e1ed4	-0.05422862
142	0xbdd19150	-0.10232794
143	0x3b94e1e0	0.004543528
144	0x3c43b4e0	0.011944979
145	0xbdb759cc	-0.08952674
146	0xbd956a24	-0.07295635
147	0x3d686acc	0.056742474
148	0x3d0d8260	0.034548163
149	0x3c0f1330	0.008732602
150	0xbde8bf84	-0.11364654
151	0x3b9849a0	0.0046474487
152	0x3ce4e9a0	0.027943432
153	0xbd49fe70	-0.049314916
154	0x3df34e8e	0.118802175
155	0xbdebd8dc	-0.11515972
156	0xbde9e7ee	-0.1142119
157	0xbd777554	-0.060414627
158	0xbd882eea	-0.06649573
159	0x3d968d24	0.07351139
160	0xbd80f14a	-0.06296022
161	0x3df09172	0.117464915
162	0xbd6516a4	-0.055929795
163	0x3df750e6	0.12075977
164	0xbd9462d6	-0.07245414
165	0x3ddb5e92	0.10711397
166	0x3d581824	0.052757397
167	0x3d8ad664	0.06779173
168	0xbda78794	-0.08180156
169	0xbda51462	-0.08060528
170	0x3c98bea0	0.018645585
171	0x3bfca2c0	0.007709831
172	0xbd902b76	-0.070395395
173	0xbdeef440	-0.11667681
174	0xbbc61c40	-0.006045848
175	0xbd20f064	-0.039291754
176	0xbd8fdfac	-0.07025084
177	0xbdf1cc90	-0.11806595
178	0xbdc9d606	-0.09855275
179	0xbc939108	-0.018013492
180	0x3deb3c98	0.11486167
181	0x3d31df58	0.043425888
182	0xbbf8b080	-0.0075894
183	0xbde3ac70	-0.11116874
184	0x3c8f6d80	0.017508268
185	0xbcd33118	-0.025780246
186	0x3dcd682a	0.10029633
187	0x3d3fdb38	0.046839923
188	0xbdecb81a	-0.11558552
189	0x3df45132	0.11929549
190	0x3dcebbd8	0.10094422
191	0x3dc401ee	0.095706806
192	0x3c884078	0.016632304
193	0xbcaaa430	-0.020830244
194	0xbd93e2aa	-0.07220967
195	0xbc8454a8	-0.016153648
196	0x3db78436	0.08960764
197	0x3d0fb334	0.03508301
198	0xbcc15ed0	-0.02360478
199	0xbcb01f18	-0.021499202
200	0xbc32cda0	-0.010913283
201	0x3dde9e4a	0.10870035
202	0x3c8f5b00	0.017499447
203	0x3def9dec	0.11700043
204	0x3db231e2	0.08700921
205	0xbc401f80	-0.01172626
206	0xbbd72020	-0.006565109
207	0xbd8372f0	-0.06418407
208	0x3d8947d2	0.06703152
209	0xbc57e7d0	-0.013177827
210	0xbd86ee0c	-0.065883726
211	0xbd651c3c	-0.05593513
212	0xbdb9d982	-0.090746894
213	0xbddab1a8	-0.106784165
214	0x3dc42424	0.09577206
215	0x3dce812c	0.10083231
216	0x3d6836d4	0.056692913
217	0xbc913300	-0.017724514
218	0xbde0a6fa	-0.10969348
219	0xbcab40a0	-0.020904839
220	0x3aa9e680	0.0012962371
221	0xbdb115ae	-0.08646713
222	0xbdc3bf62	-0.09557988
223	0xbdbf7224	-0.093479425
224	0xbd9b8a9e	-0.075947985
225	0x3d1726b4	0.036902145
226	0x3df855d0	0.121257424
227	0x3cf42670	0.029803485
228	0xbaf40580	-0.0018617362
229	0xbc9edaf8	-0.019391522
230	0x3c000fd0	0.00781627
231	0xbdc29462	-0.09500958
232	0x3d84e908	0.0648976
233	0x3c906fb8	0.017631397
234	0x3d957ee6	0.072995946
235	0xbd67a198	-0.056550592
236	0x3d5a9a80	0.05337
237	0x3d0bf8ec	0.034172937
238	0x3d7ec04c	0.062195107
239	0xbdea08de	-0.114274725
240	0xbd7534f4	-0.059864953
241	0x3d03b4a0	0.03215468
242	0xbdbb0268	-0.09131318
243	0x3cea3e90	0.028594285
244	0x3dc8a94e	0.09797917
245	0xbdbb3182	-0.09140302
246	0x3c4ec4c0	0.012620151
247	0xbc2c7b70	-0.010527477
248	0x3dc2af3a	0.09506078
249	0x3d954e0c	0.07290277
250	0xbd7e99c8	-0.062158376
251	0x3d788414	0.060672835
252	0xbd502090	-0.050812304
253	0xbccb6cc8	-0.024832144
254	0xbcb5e2f8	-0.022202954
255	0x3da6d93c	0.08146903

conv4.bias f4 [8]
0	0x3ca5dc88	0.020246759
1	0xbc9437c0	-0.01809299
2	0x3c244180	0.010025382
3	0x3c2821e0	0.010261983
4	0x3d07729c	0.033068284
5	0x3d564cc8	0.052319318
6	0x3c971eb8	0.018447265
7	0xbda86e6e	-0.08224188

bn4.weight f4 [8]
0	0x3f800000	1.0
1	0x3f800000	1.0
2	0x3f800000	1.0
3	0x3f800000	1.0
4	0x3f800000	1.0
5	0x3f800000	1.0
6	0x3f800000	1.0
7	0x3f800000	1.0

bn4.bias f4 [8]
0	0x00000000	0.0
1	0x00000000	0.0
2	0x00000000	0.0
3	0x00000000	0.0
4	0x00000000	0.0
5	0x00000000	0.0
6	0x00000000	0.0
7	0x00000000	0.0

bn4.running_mean f4 [8]
0	0xbe06478b	-0.13113229
1	0xbe03bbdf	-0.12864636
2	0xbeb277a3	-0.348569
3	0x3c99ab90	0.018758565
4	0xbd908374	-0.07056323
5	0xbb71cb69	-0.0036894924
6	0x3d997f87	0.07495027
7	0xbea9e7f5	-0.33184782

bn4.running_var f4 [8]
0	0x3e150490	0.14552522
1	0x3daca35d	0.084295966
2	0x3e1b88ff	0.15188979
3	0x3daa8f16	0.08328073
4	0x3ddd84d4	0.108163506
5	0x3ddb0171	0.10693634
6	0x3db0c186	0.08630662
7	0x3e0cab70	0.13737273

fc.weight f4 [128, 288]
0	0x3d29b855	0.04143556
1	0xbd556e00	-0.052106857
2	0x3d02828a	0.031862773
3	0xbb2fc153	-0.002681811
4	0xbd075560	-0.033040404
5	0xbcd2af78	-0.025718436
6	0xbca541be	-0.02017295
7	0x3d6414a5	0.05568375
8	0x3cf91f46	0.03041042
9	0x38fd741e	0.000120856086
10	0x3cde7880	0.027157068
11	0xbc1c5226	-0.00954107
12	0xbd6a0198	-0.057130426
13	0x3bee32b5	0.0072692283
14	0xbd126063	-0.035736453
15	0x3c6a4ac5	0.014300053
16	0x3adfebbc	0.0017083804
17	0x3d51aaf2	0.051188417
18	0xbd13bbd0	-0.036067784
19	0xbd01905e	-0.03163182
20	0xbd5b1ad3	-0.05349238
21	0x3be1c49c	0.0068898927
22	0xbd6a73c1	-0.057239298
23	0xbd69363e	-0.056936495
24	0x3b982f95	0.004644344
25	0x3b425a28	0.0029655788
26	0x3cee24f3	0.029070353
27	0xbc37766a	-0.011197666
28	0xbcdf2ee0	-0.027244031
29	0x3c869149	0.0164267
30	0x3d0d7f45	0.0345452
31	0x39ef3afd	0.00045629582
32	0xbd5c05f2	-0.053716607
33	0x3d6ab51e	0.057301633
34	0x3c9f420a	0.01944067
35	0x3cd9ee7d	0.026602978
36	0xbd0fd02c	-0.035110638
37	0xbc91bf94	-0.017791547
38	0x3d2b5d62	0.041837104
39	0x3b9f4a06	0.004861119
40	0x3cd3d32e	0.025857534
41	0xbbf0347b	-0.007330475
42	0xbd70dbe2	-0.058803447
43	0xbd374a7b	-0.044748764
44	0xbd41304d	-0.047165204
45	0xbc25b6c8	-0.010114379
46	0x3d43de35	0.047819335
47	0x3d31c521	0.043400887
48	0x3d3ca8b1	0.046059314
49	0x3d3774aa	0.044788994
50	0xbcdba7cc	-0.02681341
51	0x3c726b33	0.014796066
52	0x3b094fee	0.0020952183
53	0x3cbe80cd	0.023254776
54	0x3d08ec34	0.033428386
55	0x3b12dc47	0.0022409128
56	0xbd39e62e	-0.045385532
57	0x3d4f6f9e	0.050643556
58	0xbce4c30a	-0.027925033
59	0xbd2b0059	-0.04174838
60	0x3d282d33	0.04105873
61	0x3d67cfb7	0.056594577
62	0xbc4c63b9	-0.012474948
63	0xbd3c9674	-0.04604192
64	0x3d6a7348	0.057238847
65	0x39b6567a	0.00034778175
66	0x3cfa3dc8	0.030547038
67	0x3d5629e1	0.052286033
68	0x3d5f6db5	0.054547984
69	0x3c28b39c	0.010296728
70	0x3d12f8cc	0.035881802
71	0x3d4673a6	0.048450135
72	0xbd5c39b1	-0.053765956
73	0x3d0d6a09	0.03452495
74	0x3bd3894d	0.0064555765
75	0x3d5db69a	0.05412922
76	0xbd4f94a1	-0.050678853
77	0xbd0a080e	-0.033699088
78	0xbbcd4d99	-0.006265354
79	0xbc64dfb9	-0.013969355
80	0xbd1b23e8	-0.03787604
81	0xbc36f0a8	-0.011165775
82	0xbcb6e9ce	-0.022328284
83	0x3d458219	0.048219774
84	0xbca059f3	-0.019574141
85	0x3cd8de32	0.026473138
86	0x3c8ac6c8	0.01694049
87	0xbc579b23	-0.013159546
88	0xbc4a8017	-0.012359641
89	0x3c1b7d0b	0.009490262
90	0x3d655a13	0.055994105
91	0x3c50abc4	0.012736265
92	0xbc8dc39f	-0.017305193
93	0x3bafe462	0.0053678015
94	0x3d307385	0.043078918
95	0xbd017c9d	-0.03161298
96	0xbd407d18	-0.0469943
97	0x3d427b3e	0.047480814
98	0x3c7eae2a	0.015544454
99	0x3c67df51	0.014152364
100	0xbd3ac312	-0.04559619
101	0xb9daab49	-0.00041707818
102	0x3d5cf45c	0.053943977
103	0xbd37a52c	-0.044835255
104	0xb9e019ee	-0.00042743928
105	0xbd34bc4d	-0.04412489
106	0x3d54a0fc	0.05191134
107	0xbb330bd7	-0.002732029
108	0xbcaea4b6	-0.021318775
109	0x3c772005	0.015083318
110	0x3c8f92f4	0.017526127
111	0xbb69ba14	-0.003566389
112	0x3d49de8e	0.04928451
113	0xbbc28b2e	-0.0059370017
114	0xbd1d34b0	-0.038380325
115	0xbc3e7f54	-0.011627037
116	0xbd5f4537	-0.054509368
117	0x3c827df7	0.015929205
118	0xbb858d25	-0.0040756636
119	0x3bda7abb	0.0066674626
120	0x3a88db05	0.001044125
121	0x3cca21cf	0.024674324
122	0xbb353b84	-0.0027653882
123	0xbd38c48f	-0.045109328
124	0x3d005c76	0.031338178
125	0x3d0a2203	0.033723842
126	0xbc82c6ae	-0.015963878
127	0x3c5ea4ab	0.013589065
128	0xbd06b6c9	-0.03288916
129	0x3d3a8699	0.04553852
130	0x3b34323b	0.002749576
131	0xbc7f563f	-0.0155845275
132	0xbcbd5ae5	-0.023114631
133	0x3d1a42cf	0.03766137
134	0x3d0dd348	0.03462532
135	0x3d0449df	0.03229701
136	0x3b8c1281	0.004274667
137	0xbc145019	-0.0090523
138	0x3d186490	0.03720528
139	0xbd4da7bd	-0.050208796
140	0xbc0e096f	-0.008669241
141	0x3a80f256	0.0009837847
142	0xbd0cbd6b	-0.03436033
143	0x3d392b72	0.04520745
144	0xbb8fec54	-0.004392186
145	0x3c997a89	0.018735187
146	0xbcbc535a	-0.022988964
147	0xbd5f0274	-0.0544457
148	0xbbdc4ef4	-0.006723279
149	0xbc9f5863	-0.019451326
150	0x3d41f150	0.047349274
151	0x3d4f5b39	0.050624106
152	0x3cec41ff	0.028840063
153	0x3cbc4a9a	0.022984792
154	0xbcd266eb	-0.02568384
155	0xbd0e07e1	-0.034675483
156	0x3b676ef2	0.0035313931
157	0xbd2c8a1e	-0.042123906
158	0x3c57dfe7	0.013175941
159	0x3c266f4f	0.010158374
160	0x3d19d29f	0.03755438
161	0x3a20149c	0.00061065867
162	0xbcb74aae	-0.022374477
163	0xbd1c97e5	-0.038230795
164	0x3c53268b	0.012887607
165	0xbc5c0764	-0.013429496
166	0x39d04891	0.00039726918
167	0x3d2085a8	0.039189965
168	0x3bf5c310	0.00750006
169	0x3d59bb32	0.05315704
170	0x3d6f58fc	0.05843447
171	0x3d1c04e4	0.0380906
172	0x3c8e27fd	0.017353052
173	0x3b2fe618	0.0026840027
174	0x3cb6597f	0.022259472
175	0x3d1e2f70	0.03861946
176	0xbab99bed	-0.0014160849
177	0x3d4639ee	0.04839509
178	0xbd593080	-0.05302477
179	0x3d4855f4	0.048910096
180	0xbc338743	-0.010957542
181	0x3d6aa964	0.05729045
182	0xbd31e735	-0.043433387
183	0xbc55777b	-0.013028975
184	0xbcd60b04	-0.0261283
185	0x3d65e4fa	0.056126572
186	0x3c70a0e0	0.014686793
187	0xbca0321e	-0.019555148
188	0x3ce33ef1	0.027739974
189	0xbcc935e7	-0.024561835
190	0x3cc6bb99	0.024259375
191	0xbcf068bf	-0.029346822
192	0xbc45552f	-0.012044235
193	0x3ccdb02a	0.025108416
194	0xbc7ec91f	-0.015550881
195	0x3c8ced80	0.017203093
196	0x3d637927	0.05553546
197	0x3d1252c3	0.03572346
198	0xbc896bb2	-0.016774986
199	0x3d31cbba	0.04340718
200	0x3cb1bf5e	0.021697696
201	0xbcba387a	-0.022732008
202	0x3d13cd38	0.036084384
203	0xbd028d7f	-0.031873222
204	0x3ccd3b91	0.025052818
205	0x3d0ec548	0.03485611
206	0xbc3ffc9b	-0.011717941
207	0x3d31e45a	0.043430664
208	0x3c1035a2	0.00880185
209	0x3d3faec0	0.046797514
210	0xbd6f7013	-0.05845649
211	0x3c8e839e	0.017396744
212	0xbce91cc7	-0.028456105
213	0x3cd67a5f	0.026181398
214	0x3c8ae6f9	0.01695584
215	0xbd4aefd0	-0.04954511
216	0xbd06960d	-0.032857943
217	0x3c989a66	0.01862831
218	0xbd59a609	-0.05313686
219	0xbca0b929	-0.019619541
220	0xbc6617da	-0.014043773
221	0xbd28f73d	-0.04125141
222	0xbc5aa079	-0.013343924
223	0xbb2911e3	-0.0025798015
224	0xbca16aff	-0.01970434
225	0x3d2a996f	0.041650232
226	0xbd2d53ec	-0.042316362
227	0xbd45a98c	-0.048257396
228	0x3c146d81	0.009059311
229	0xbca616cd	-0.020274544
230	0x3cf14fb5	0.029456953
231	0x3beadb86	0.0071672825
232	0xbd534675	-0.051580865
233	0xbd25171c	-0.040305242
234	0xbcd82fca	-0.026389975
235	0xbb29c28c	-0.0025903312
236	0xbbe7e17f	-0.007076442
237	0x3c70a0ab	0.014686744
238	0x3d485b91	0.04891545
239	0xbb4aa2e3	-0.0030919842
240	0x3c37fcdb	0.011229719
241	0x3c8df1ec	0.017327271
242	0xbd54eaff	-0.051981922
243	0xbca05182	-0.019570116
244	0x3d1c690e	0.038186125
245	0xbd06bf41	-0.032897238
246	0xbcf3293b	-0.029682746
247	0x3d645477	0.055744614
248	0xbcb79e35	-0.022414306
249	0xbc678622	-0.014131101
250	0xbca75557	-0.020426435
251	0xbc7021d5	-0.014656504
252	0xbc7d6cb2	-0.0154678095
253	0xbd075f30	-0.033049762
254	0xbd18d1ed	-0.037309576
255	0x3d050d8c	0.032483622

fc.bias f4 [128]
0	0x3d1aa4c0	0.037754774
1	0x3d6d3f08	0.05792144
2	0x3cdcb83d	0.02694332
3	0x3d1b36bb	0.037893992
4	0xbc897197	-0.016777797
5	0xbd6610c2	-0.056168325
6	0x3b77b0bd	0.0037794553
7	0x3c05859a	0.008149529
8	0x3d34426c	0.044008657
9	0x3cb53ea3	0.022124594
10	0x3d5dcdd1	0.05415136
11	0x3d276db4	0.040876105
12	0xbd239120	-0.039933324
13	0x3d24c300	0.04022503
14	0x3d66f6b1	0.056387607
15	0xbc0d4f4a	-0.008624861
16	0x3c445d50	0.011985138
17	0xbd219570	-0.039449155
18	0xbb285ea3	-0.0025691174
19	0xbbf0d1d0	-0.0073492303
20	0x3d1334e1	0.0359391
21	0x3afc915f	0.0019269398
22	0x3d1b0af3	0.03785224
23	0xbc734632	-0.014848279
24	0xbd61bd02	-0.055111893
25	0xbc86cbc5	-0.016454587
26	0x3b812f17	0.003942381
27	0xbd38fb40	-0.045161486
28	0xbd1b0909	-0.037850413
29	0xbc533110	-0.012890115
30	0x3b8e69b8	0.0043460988
31	0x3c887317	0.016656442
32	0xbd3b9ebe	-0.045805685
33	0xbd1f17f2	-0.038841195
34	0x3c5fd484	0.0136615075
35	0xbb5632f4	-0.003268418
36	0x3c6cb8bb	0.01444834
37	0x3cc8ae63	0.024497217
38	0x3d3e567c	0.046469197
39	0x3ce461ee	0.027878728
40	0x3c8e6c8c	0.017385744
41	0xbd3130b7	-0.04325935
42	0xbb28dfeb	-0.002576823
43	0xbbd9b3fa	-0.0066437693
44	0x3cfb94dd	0.030710632
45	0xbd050326	-0.032473706
46	0x3a1013a2	0.00054960896
47	0xba83928f	-0.0010038185
48	0x3cc96fb1	0.024589391
49	0x3d70ed91	0.05882031
50	0xbc19fa42	-0.009398045
51	0x3cc4bdfb	0.024016371
52	0xbc0e34b7	-0.00867956
53	0xbd45b0e1	-0.048264388
54	0x3ca11edd	0.019668037
55	0x3baedccf	0.005336381
56	0x3d042a05	0.032266635
57	0x3caffe71	0.021483632
58	0x3cd10290	0.025513917
59	0xbd3eb9e3	-0.046563994
60	0x3d3dc434	0.046329692
61	0x3b15272d	0.0022758946
62	0xbd20ba3a	-0.0392401
63	0x3d46cc66	0.048534773
64	0xbd65b315	-0.05607899
65	0x3cbd4e32	0.023108575
66	0xbd08a620	-0.033361554
67	0xbcd9dfab	-0.026595911
68	0xbccb0324	-0.024781771
69	0x3abafcc6	0.0014266006
70	0xbb0d1dda	-0.0021532685
71	0x3bb3fa14	0.005492458
72	0xbd456db4	-0.048200324
73	0xbc308063	-0.010772797
74	0xbced3834	-0.028957464
75	0xbc8d3ac8	-0.017239943
76	0x3c1ae229	0.009453335
77	0xbc151544	-0.009099308
78	0xbd0eca5d	-0.034860957
79	0xbd133722	-0.03594125
80	0xbd6d04c1	-0.05786586
81	0x3d6684b2	0.05627889
82	0x3d00db5b	0.031459194
83	0xbd2ba801	-0.041908268
84	0x3bcab49f	0.0061860825
85	0x3ca46222	0.020066325
86	0x3c26920c	0.010166656
87	0x3d11af5a	0.03556762
88	0xbd4420c6	-0.047882818
89	0xbbcc4f19	-0.006235015
90	0x3b2a0089	0.002594026
91	0x3cdb9767	0.026805593
92	0xbd2c557b	-0.042073708
93	0x3d45194e	0.048119836
94	0xbcdcc182	-0.02694774
95	0x3cdfea33	0.027333355
96	0xbc5ea4df	-0.013589113
97	0x3af08f94	0.0018353336
98	0xbcdafec5	-0.026732812
99	0xbd31e9e8	-0.04343596
100	0x3cc966a2	0.024585072
101	0x3d12dbc9	0.035854135
102	0x3d30b1aa	0.043138184
103	0xbd15d28c	-0.036577746
104	0x3ce209bf	0.027592538
105	0x3c85f3e5	0.01635165
106	0xbcde5be1	-0.02714342
107	0x3c923497	0.017847342
108	0x3c91dd65	0.017805764
109	0xbd5e9edb	-0.054350715
110	0x3cc7065c	0.024295025
111	0x3c738840	0.0148640275
112	0x3d2857cd	0.04109936
113	0x3bdeeab3	0.0068028807
114	0x3d1b76d4	0.03795512
115	0xbc8969ae	-0.016774025
116	0xbc3999ec	-0.011328202
117	0xbd00e6bb	-0.03147004
118	0xbd361b8b	-0.04445986
119	0xbb40f6d5	-0.0029443998
120	0xbd683dd1	-0.056699578
121	0xbd0578ad	-0.03258579
122	0x3bacff38	0.005279448
123	0x3d644b90	0.055736125
124	0xbd10d7bf	-0.035362
125	0x3c9eb15d	0.019371683
126	0xbd1d741d	-0.038440812
127	0xbb6bdfdb	-0.0035991583
