Model exports/best_model_Oct22_protANDmRNA_weights_residual_2024_11191639.pth (torch, 543746 bytes, 68 tensors)

conv1.weight f4 [16, 3, 2, 2]
000000 cc 85 64 be 6b 55 1d bd 57 e4 7c 3c b3 cd 40 3e
       -0.22316664 -0.03841154 0.0154353 0.18828468
000010 c0 0d 00 00 ba 0d 00 00 b9 0d 00 00 09 0e 00 00
       4.933e-42 4.924e-42 4.923e-42 5.035e-42
000020 f5 c0 41 3e aa 1c 76 3e 33 f8 87 be 72 8c fe bd
       0.18921264 0.24034372 -0.26556548 -0.124291316
000030 95 03 79 3b b4 8a 67 3d 52 93 e5 bd d2 8d 18 be
       0.003799652 0.056528762 -0.1120974 -0.1489785
000040 cc 0d 00 00 bb 0d 00 80 c4 0d 00 80 e1 0d 00 80
       4.95e-42 -4.926e-42 -4.938e-42 -4.979e-42
000050 29 66 0c 3c f6 07 3a 3e 68 ac 48 3e 11 b8 5e 3d
       0.008569279 0.181671 0.19597018 0.05437476
000060 47 3d 20 3d 1e d3 6f be 0e e7 98 3d 44 46 6c 3c
       0.03912094 -0.23420379 0.07465945 0.0144210495
000070 ca 0d 00 80 b0 0d 00 00 bf 0d 00 00 da 0d 00 80
       -4.947e-42 4.91e-42 4.931e-42 -4.969e-42
000080 1c 57 9a 3a 3d 92 78 3e c1 e1 8f bc 51 5f bf 3d
       0.0011775228 0.24274535 -0.017563703 0.09344352
000090 9e 2b f9 3b 50 39 66 bd 37 0a 95 bd 91 97 db bd
       0.0076040765 -0.056207 -0.07277339 -0.107222684
0000a0 b4 0d 00 00 c5 0d 00 00 df 0d 00 00 c7 0d 00 80
       4.916e-42 4.94e-42 4.976e-42 -4.942e-42
0000b0 d4 94 48 bd f3 76 d9 bd ed ce 80 be e7 d9 73 be
       -0.04897006 -0.10618391 -0.25157872 -0.23813592
0000c0 b2 e8 20 bd aa 80 67 3d dd 34 0d bd 1a c0 67 bd
       -0.039284416 0.056519188 -0.034474242 -0.056579687
0000d0 c2 0d 00 80 db 0d 00 80 4d 0e 00 00 00 0e 00 80
       -4.935e-42 -4.97e-42 5.13e-42 -5.022e-42
0000e0 13 6f c0 bd 95 73 0f 3c f6 e3 ea 3d f9 a0 fe 3d
       -0.09396186 0.008755584 0.11469261 0.12433047
0000f0 d9 23 5b be 5f 75 d1 3d ab 78 aa 3b 61 48 20 be
       -0.21400394 0.10227465 0.005202373 -0.1565261
000100 bd 0d 00 00 b5 0d 00 00 e1 0d 00 80 cb 0d 00 00
       4.928e-42 4.917e-42 -4.979e-42 4.948e-42
000110 13 e4 40 3d b2 8c 86 3e 74 db b4 bd 4e 95 59 be
       0.04709251 0.26279217 -0.0883092 -0.21248361
000120 24 a2 80 ba a6 4a 4a 3e f4 94 22 be 51 9e 21 3e
       -0.0009813947 0.19755039 -0.15877134 0.15783049
000130 b2 0d 00 00 b0 0d 00 80 bc 0d 00 00 c2 0d 00 80
       4.913e-42 -4.91e-42 4.927e-42 -4.935e-42
000140 f3 c3 60 3e 28 25 1c 3d fe e7 54 3e c9 0f 26 bd
       0.21949749 0.038121372 0.20791623 -0.040542398
000150 19 16 e2 bd 76 c9 47 be bd d8 5c 3e a4 f1 05 be
       -0.11039371 -0.19510445 0.21567054 -0.1308046
000160 bc 0d 00 00 d8 0d 00 80 03 0e 00 80 24 0e 00 80
       4.927e-42 -4.966e-42 -5.026e-42 -5.073e-42
000170 d4 2e 87 be d9 29 04 3e bf 19 60 bd 41 7f 5c 3e
       -0.26402915 0.12906589 -0.054712053 0.21532919
000180 de 4b 62 bd 7a 6c e6 bd 50 6e f4 3d 03 6d c8 bd
       -0.055248134 -0.11251159 0.11935103 -0.09786417
000190 be 0d 00 00 3d 0e 00 80 b7 0d 00 00 b0 0d 00 80
       4.93e-42 -5.108e-42 4.92e-42 -4.91e-42
0001a0 c2 0f 8b 3e 6b 30 63 3e 06 ac 27 3e 62 a3 27 bd
       0.2716046 0.22186439 0.16374215 -0.0409273
0001b0 87 05 4d be 09 83 1c 3d ae 95 1b 3e 34 05 3d 3e
       -0.2002164 0.038210902 0.15193817 0.18459016
0001c0 b8 0d 00 80 cc 0d 00 80 d8 0d 00 00 c9 0d 00 80
       -4.921e-42 -4.95e-42 4.966e-42 -4.945e-42
0001d0 ed 08 8d 3d 2a 0c ab bd 74 f7 5b 3e 8b 4a bc bd
       0.06886468 -0.083519295 0.21481115 -0.091939054
0001e0 e3 32 1c be a6 4b 29 3e 14 62 b1 3d f9 0d fc 3c
       -0.15253787 0.16532764 0.08661285 0.030768381
0001f0 c5 0d 00 80 04 0e 00 80 c2 0d 00 80 b5 0d 00 80
       -4.94e-42 -5.028e-42 -4.935e-42 -4.917e-42
000200 c3 4d 7a bd 47 33 5a bd 49 62 49 be ae 16 94 3e
       -0.061109316 -0.053271558 -0.19666399 0.28923553
000210 34 94 fb bd 01 46 22 be 0c f6 38 be 8c 11 b6 3d
       -0.12284127 -0.15847017 -0.1806261 0.088900656
000220 b9 0d 00 80 37 0e 00 00 dc 0d 00 80 f5 0d 00 00
       -4.923e-42 5.1e-42 -4.972e-42 5.007e-42
000230 1b 53 21 be 27 c7 7d 3e 9a d5 24 be 87 45 f1 bd
       -0.15754358 0.24783002 -0.16097108 -0.117808394
000240 02 f0 97 bc be a9 25 be a9 69 3e 3e 65 b8 f0 bd
       -0.018547062 -0.16178033 0.18594994 -0.117539205
000250 b5 0d 00 00 e4 0d 00 00 00 0e 00 00 ba 0d 00 00
       4.917e-42 4.983e-42 5.022e-42 4.924e-42
000260 05 b8 73 be 0e 90 30 be e2 ca 5c 3d 00 f5 55 3e
       -0.23800667 -0.17242453 0.05390442 0.20894241
000270 89 cd 14 3e 72 60 11 3e cb 30 86 3e cb 00 36 3e
       0.1453153 0.14196947 0.262091 0.1777374
000280 cb 0d 00 80 c7 0d 00 00 b7 0d 00 80 c7 0d 00 80
       -4.948e-42 4.942e-42 -4.92e-42 -4.942e-42
000290 8f 30 ee 3d 90 8d b2 3d 0c e4 55 3e 12 67 b3 3d
       0.116303556 0.08718407 0.20887774 0.087598935
0002a0 69 20 df 3d 86 99 83 be 6d c8 86 bd 93 18 f7 ba
       0.108948536 -0.25703067 -0.06581197 -0.0018851928
0002b0 d0 0d 00 80 f4 0d 00 80 bb 0d 00 00 53 0e 00 80
       -4.955e-42 -5.005e-42 4.926e-42 -5.139e-42
0002c0 33 12 38 be 96 f7 99 bc fb ba 5d be b1 ed 35 be
       -0.17975692 -0.018794816 -0.21653359 -0.17766453
0002d0 49 96 3e 3e 70 0c 18 be 3d 32 57 3e 0e 73 f3 3d
       0.18612017 -0.14848495 0.21015258 0.11887179
0002e0 f9 0d 00 00 ad 0d 00 80 ce 0d 00 00 ec 0d 00 00
       5.012e-42 -4.906e-42 4.952e-42 4.994e-42
0002f0 2b de 9a 3d 09 0c 86 be 8e 20 ee 3d b7 c7 6a 3d
       0.075619064 -0.26181057 0.11627303 0.05731937

conv1.bias f4 [16]
000000 f0 2d 05 35 ca 96 3b b4 9b e4 63 35 3b a0 f8 b6
       4.961321e-07 -1.7470589e-07 8.4896755e-07 -7.4096292e-06
000010 c8 8e 78 b6 ed 9b cf 35 5d ac f7 b0 de 8b f9 b4
       -3.703799e-06 1.5468082e-06 -1.8020604e-09 -4.648163e-07
000020 d5 32 fd b4 9a 2d a2 b3 49 06 03 35 93 0f 81 b5
       -4.7161907e-07 -7.552008e-08 4.881045e-07 -9.615782e-07
000030 67 05 de 35 1d 69 a9 b6 3f 3f 14 36 55 7d 97 35
       1.6541861e-06 -5.0488293e-06 2.2090533e-06 1.1286853e-06

bn1.weight f4 [16]
000000 f7 84 77 3f 45 ab 5e 3f b2 98 57 3f 01 eb 78 3f
       0.96687263 0.86980087 0.8421737 0.9723359
000010 64 25 6d 3f f9 3a 72 3f 7f e7 50 3f 96 b3 4b 3f
       0.9263518 0.94621235 0.81603235 0.795709
000020 1c 3c 5a 3f 95 63 54 3f 54 a2 43 3f b1 36 50 3f
       0.8524797 0.8296445 0.7641957 0.8133345
000030 01 0b 4c 3f 16 b4 63 3f 71 b4 63 3f 78 6d 5b 3f
       0.7970429 0.88946664 0.88947207 0.8571391

bn1.bias f4 [16]
000000 80 2a 13 be 6f 91 50 bc ee 27 0f 3c c2 69 d9 3c
       -0.14371681 -0.012729987 0.008737547 0.026539687
000010 09 32 cb 3c 7b 2d 1c bd 67 f2 03 3d 20 a5 01 3d
       0.024804132 -0.03812931 0.032213595 0.031651616
000020 8a dd fa 3c 76 fc cd 3c b9 fb ed bd 52 b5 86 bd
       0.030623216 0.025144797 -0.11620278 -0.06577553
000030 e4 98 4d 3c 98 8f 01 3d bf 95 84 bd 94 4d 77 3d
       0.012548659 0.031631082 -0.06473874 0.06037672

bn1.running_mean f4 [16]
000000 46 ea e5 3f f1 98 00 42 a0 e6 df 41 86 de e0 c2
       1.796212 32.149357 27.98761 -112.434616
000010 64 6e 21 41 97 54 ea c1 96 a0 a3 42 0a 6f d0 c1
       10.089451 -29.291304 81.813644 -26.054218
000020 81 fa 80 42 05 b1 19 42 5c d6 54 41 23 0c 8d c2
       64.489265 38.42287 13.302334 -70.523705
000030 c2 33 0e c2 ae 17 1b 43 73 7a d3 c2 1a 22 2c 42
       -35.550545 155.0925 -105.73916 43.033302

bn1.running_var f4 [16]
000000 c8 65 44 42 41 d8 a2 42 aa 7b b6 42 61 71 20 42
       49.099396 81.42237 91.24153 40.11072
000010 cb 14 f9 40 e1 e6 1e 42 40 af 57 43 8a ea 30 43
       7.783788 39.725468 215.68457 176.91617
000020 0b 57 1c 43 08 f3 d6 42 22 73 8e 42 48 2b 5c 42
       156.34001 107.47467 71.22487 55.042267
000030 11 af c2 42 52 3b 0f 41 3a b8 26 43 4b 34 12 42
       97.34193 8.9519825 166.71964 36.551067

conv2.weight f4 [32, 16, 2, 2]
000000 7f f6 a1 3d 8e 34 b5 3d 9b d7 c4 bd ad fc ec bb
       0.079083435 0.08847915 -0.09611436 -0.0072322697
000010 92 09 eb 3d 32 a8 c0 bb 60 5f a6 bd 66 bb 3f bd
       0.11476435 -0.0058794254 -0.0812366 -0.046809576
000020 cd 90 37 bd ab 8a b5 3d 80 04 41 bd 12 2d 0c 3c
       -0.044815827 0.088643394 -0.047123432 0.0085556675
000030 cd 5a bc 3d 95 38 30 3d df 4e 2f bd 0f 8d a1 3d
       0.091970064 0.04302271 -0.042799827 0.07888233
000040 00 cf 05 3c d8 90 84 3d 5d 06 c3 bd da d7 e1 bd
       0.008167028 0.06472939 -0.09522698 -0.110274985
000050 94 8a 46 3d 59 5e a2 3b 9a dd f9 bd 66 c7 dd bd
       0.048472002 0.004955095 -0.1220047 -0.10829048
000060 d3 3f 45 bd b4 3e 98 bd d3 2a 7e 3d 56 2d 1c bd
       -0.04815657 -0.07433835 0.06205256 -0.038129173
000070 c9 06 75 3c 2b d1 02 3d 77 34 24 3d c9 c5 b3 3d
       0.014955231 0.03193776 0.040089097 0.08777959
000080 48 13 16 bd 27 ac bb 3c 18 fa 87 3c 54 8e d2 bd
       -0.03663948 0.022909237 0.016598746 -0.10281053
000090 f6 26 9a 3c 53 52 47 3d 05 6d 0a bd 7a ba 0f 3d
       0.018817406 0.048662495 -0.033795375 0.035089947
0000a0 8d fa a9 bc dd 08 8c 3d 74 12 9a bc 66 bb e0 3d
       -0.020749355 0.06837628 -0.018807627 0.109732434
0000b0 2f 9a 5f 3d 4a 6c e9 3d c1 a0 4c bd b2 08 e9 bb
       0.0545904 0.113976076 -0.049957994 -0.0071116323
0000c0 7c 90 90 3c 31 14 d0 3c f8 f7 db 3c b3 46 af bd
       0.01764702 0.025400253 0.02685164 -0.08558407
0000d0 8a 6c cc 3d e5 82 ad 3d 43 5e 4e bd 9e 88 90 3d
       0.0998164 0.08472232 -0.050382864 0.07057308
0000e0 5f 94 21 bc 89 7d e2 3d ef 3c d0 3d 1d ff c8 3d
       -0.009862035 0.110591 0.10167872 0.09814284
0000f0 61 97 2c bd 72 ce a9 bc bd 58 d2 bc 39 91 b9 bc
       -0.042136554 -0.020728324 -0.02567708 -0.022652255
000100 78 1b 12 be 39 9b c2 3d 38 83 f3 bb 89 2a c6 3c
       -0.14268291 0.095022626 -0.007431414 0.024190204
000110 06 a3 e8 3d f6 51 d9 bd 75 d4 09 bd fa 1d b2 3c
       0.11359219 -0.10611336 -0.03364988 0.02174281
000120 ca e0 5b 3c 32 50 a2 3d a0 e5 9d 3d d7 11 c6 3c
       0.013420293 0.07925452 0.07709813 0.024178429
000130 b4 5f ab bd b8 d2 68 3d 01 82 c9 3d 16 a7 41 bd
       -0.08367863 0.056841582 0.098392494 -0.047278486
000140 15 76 e1 3d ce 91 70 3d a4 f9 f1 bc 3f 7c da ba
       0.110088505 0.0587328 -0.029537983 -0.0016669108
000150 7e 45 d7 3b b6 f3 de 3d c5 59 ac 3d 71 f1 f7 ba
       0.0065695634 0.10886328 0.0841556 -0.001891656
000160 66 ac 91 3d b3 1f 33 3d 0b 7f ef bc 4c bd a9 bd
       0.071129605 0.043731403 -0.029235383 -0.08288059
000170 73 7d c6 3d a8 e7 9c bd f8 8c b8 3c 77 ef a2 3b
       0.09691896 -0.076613724 0.022528157 0.004972394
000180 33 62 98 3d 44 1b 46 bd 92 e9 8e 3c 5f f4 8e 3d
       0.07440605 -0.048365846 0.01744536 0.06980204
000190 fa 9a 22 3d de 3c 28 3d 1c 76 7e bd 4f 31 a7 3d
       0.03969858 0.041073672 -0.062124357 0.08163702
0001a0 d5 41 9f 3d b2 98 c6 3b 39 28 38 bb 5a 84 80 bc
       0.07776228 0.006060683 -0.0028100146 -0.01568811
0001b0 b4 03 6d bd 00 b4 10 bd 54 80 be 3d 88 4a 8a ba
       -0.05786486 -0.03532791 0.093018204 -0.0010550776
0001c0 9b 1a d2 bd 66 4e 0a bd 28 6f 10 bd be 62 d4 bc
       -0.10258981 -0.033766173 -0.035262257 -0.02592599
0001d0 5e a8 78 bd 8e a2 d5 bd 3c 4a 8b 3d f7 2e 1f 3d
       -0.060707442 -0.104313955 0.068012685 0.03886315
0001e0 50 0d 0f 3e c3 e4 91 bd 74 2f a3 3b dc 49 10 3d
       0.13969922 -0.07123711 0.004980022 0.035226688
0001f0 a2 5b 39 bd 86 e3 95 bd 5e 9b ab bd 93 da 7d 3d
       -0.045253403 -0.07318787 -0.08379243 0.061976027
000200 ba 2b 44 3d c5 94 e4 3d 1b 48 84 bc 6d ae d9 bc
       0.047893263 0.11161188 -0.016147664 -0.02657243
000210 39 31 d3 3d e0 4f e9 3d d1 8a c4 bb 88 b5 49 3d
       0.10312123 0.11392188 -0.0059979935 0.049245387
000220 f2 a5 2c 3d 43 af e6 bc 25 87 74 bd 2e c4 1c 3d
       0.042150445 -0.028159743 -0.059699196 0.03827303
000230 9d ec 3d bd 6f 79 db 3d a1 e9 a0 bd c0 c1 80 bd
       -0.04636823 0.10716521 -0.07857061 -0.06286955
000240 1f b6 a5 bd 1e 5f 02 be d6 6f aa 3d e9 5c 55 bd
       -0.080913775 -0.12731597 0.08322112 -0.05209056
000250 78 a8 34 bd 8f 7c 41 3c 07 92 28 bd 3e 83 b6 bd
       -0.044105977 0.011809482 -0.041154888 -0.08911751
000260 ad 89 e1 3c ee e1 ff bd b4 4e f1 3c 91 05 8b bd
       0.02753147 -0.124942645 0.029456474 -0.06788171
000270 2e 19 8e 3d 17 c7 56 3d bc 4b 51 3d 94 20 89 3d
       0.069383964 0.05243596 0.051097617 0.06695667
000280 54 10 c8 3d b9 db c4 bd af 44 5e 3d 2f 25 76 3d
       0.09768739 -0.09612221 0.05426472 0.060094055
000290 4c 90 c4 bd be c7 55 3b 1d 43 83 3c 1e ef 4c bd
       -0.09597835 0.0032620276 0.016023213 -0.050032727
0002a0 97 35 cf 3c 8f 52 22 3d 8d ad 67 3d 8e 78 ff 3c
       0.025294108 0.039629515 0.056561995 0.031185415
0002b0 d4 2e 42 3b 7e 63 7c bc 4e 44 61 3d 40 66 99 3a
       0.0029629963 -0.01540458 0.05499678 0.0011703447
0002c0 01 7b e4 3c 96 24 df bc d7 48 21 3d 7c 91 14 bd
       0.027890684 -0.027239125 0.039376106 -0.036271557
0002d0 77 36 dc 3d 0c 7d e2 3d dc 5f 9d 3c 1b c6 61 3d
       0.10752576 0.11059007 0.019210748 0.05512057
0002e0 d8 90 42 bd 00 d0 a2 3d 5b eb ce 3c 5d 5d aa bc
       -0.047501415 0.07949829 0.02525871 -0.020796472
0002f0 b4 5b aa 3d 47 34 b7 3c 2b 8a 35 bd c3 22 59 bc
       0.08318272 0.022363795 -0.04432122 -0.013252917
000300 82 6d ac 3d 55 c4 d7 3d e7 57 6c 3d fa 56 5e bc
       0.084193245 0.10535494 0.057701018 -0.0135705415
000310 41 5b 83 bc bd b0 36 3d 2b 12 bb 3c 1d cc 2a 3c
       -0.016034724 0.044602145 0.022835812 0.010424641
000320 0c cf a8 3c 8b 0b c0 bc de 3d b2 3d d5 39 e7 bc
       0.02060654 -0.023443004 0.087032065 -0.028225819
000330 9f 6b 00 bb 5a 68 e0 3c 7a d6 91 bb 2a db 14 bd
       -0.0019595397 0.027393509 -0.0044506164 -0.036341824
000340 00 17 f7 3c b1 6f c9 3d c6 16 d1 bb 6d 1c f4 3c
       0.030162334 0.098357566 -0.0063808886 0.02979871
000350 f3 ef fc 3d fe 7e 47 bd ed 53 b2 3c 37 8d 52 bc
       0.12350454 -0.048705094 0.021768535 -0.012851051
000360 28 78 ab 3c 16 58 0b bc e6 54 7f bc 55 f9 52 3d
       0.020931318 -0.008504888 -0.015584206 0.051507313
000370 a6 dd a0 bb dd 2d 4b 3c 19 66 6f bc 7c 58 87 bd
       -0.004909235 0.012401071 -0.014611744 -0.06608674
000380 6c 4a 31 3e 63 7d 03 3d 11 99 8e bd 30 25 57 bd
       0.17313546 0.032102 -0.06962789 -0.0525257
000390 5c ef 4f 3c 0e 33 8e bd 38 7b 0a bc e4 ec 27 bd
       0.012691345 -0.06943332 -0.008452229 -0.0409974
0003a0 97 0a b1 bd 18 59 b3 bd e0 c9 0a 3c d0 6f 97 bd
       -0.08644598 -0.08757228 0.008470982 -0.073943734
0003b0 9b 72 0e bb 2c e4 a4 3d e4 26 1e 3d 65 38 f9 bc
       -0.002173579 0.08051333 0.038611308 -0.030422399
0003c0 28 8a 7c 3d bb ea 24 bd 08 c8 c1 3c 7c f6 dc bc
       0.061655194 -0.04026292 0.023654953 -0.026973002
0003d0 74 04 2e bc 3a d7 c8 3b 24 5f 87 3d be 9f c0 3c
       -0.010621179 0.0061291726 0.066099435 0.023513671
0003e0 46 28 1d bd 98 b8 3c bd 5b 6d 25 bd ac e4 44 3d
       -0.038368486 -0.04607448 -0.040387493 0.04806964
0003f0 6b d1 98 3c 57 b0 00 bb 64 b5 4d 3d 9d a6 72 bc
       0.018654546 -0.0019636357 0.050221816 -0.0148102315

conv2.bias f4 [32]
000000 f0 41 c2 b6 96 45 50 b6 49 4f 50 37 58 7f af 36
       -5.7893267e-06 -3.103492e-06 1.2416226e-05 5.230231e-06
000010 c0 e7 01 37 a4 49 03 b7 76 a5 6a 37 7e 68 19 b7
       7.742958e-06 -7.825354e-06 1.3986011e-05 -9.14384e-06
000020 d1 bf 4c 35 f5 8c 48 b7 7f 84 bc b6 b0 34 10 b6
       7.627505e-07 -1.1953748e-05 -5.618261e-06 -2.148834e-06
000030 63 eb 62 b7 8c 5c 13 b7 bc 10 78 b6 47 06 0d 37
       -1.3525455e-05 -8.7834305e-06 -3.696462e-06 8.4057165e-06
000040 39 22 3e 37 fa b9 d1 b7 2f 3f 9b 36 3d 3f 3a b7
       1.1332851e-05 -2.5001344e-05 4.6267155e-06 -1.1101188e-05
000050 5e c2 65 b5 ac 20 af 36 f2 ca 28 37 ab 08 89 b6
       -8.559199e-07 5.21921e-06 1.0060832e-05 -4.0839273e-06
000060 20 44 fb 35 0e ca 14 37 34 1e 56 b6 72 f7 f0 b6
       1.8720784e-06 8.868532e-06 -3.1906065e-06 -7.181364e-06
000070 7d 3b 3f b7 54 c6 7f 36 ff 1c 03 b6 8d 73 0c 37
       -1.1398338e-05 3.8113403e-06 -1.95374e-06 8.371554e-06

bn2.weight f4 [32]
000000 02 ca 4e 3f ec a1 5f 3f 6b b1 53 3f 80 c5 45 3f
       0.8077699 0.8735645 0.82692593 0.77254486
000010 a4 de 47 3f c7 af 3a 3f 9b 83 4c 3f 22 e5 36 3f
       0.780741 0.72924465 0.79888314 0.7144338
000020 a6 19 3f 3f aa c6 32 3f 79 7c 4b 3f 2b 12 2e 3f
       0.7464851 0.6983439 0.79486805 0.6799647
000030 d0 c9 4d 3f 5d 76 58 3f dd 1b 53 3f 94 6e 4d 3f
       0.80386066 0.8455561 0.8246439 0.80246854
000040 b2 42 68 3f 4d b6 47 3f 2f 43 58 3f ff 2c 4e 3f
       0.9072677 0.78012544 0.84477514 0.8053741
000050 1f a2 51 3f 07 09 6b 3f 70 bf 53 3f 1c de 4a 3f
       0.81888 0.9181065 0.82713985 0.7924516
000060 ed b7 47 3f e5 91 61 3f 5b da 5c 3f 10 87 3c 3f
       0.78015023 0.8811324 0.86270684 0.7364359
000070 b2 29 40 3f cd db 44 3f 66 c4 26 3f d2 12 2a 3f
       0.7506362 0.7689789 0.6514343 0.6643497

bn2.bias f4 [32]
000000 3f 84 3c bd 42 f5 5a bd 8b 81 07 3d 64 75 47 bc
       -0.046024557 -0.053456552 0.033082526 -0.012173984
000010 ff 95 54 bd a0 97 c6 3c e6 fe 22 3b 27 8b 23 3d
       -0.05190086 0.024242222 0.002487117 0.039927628
000020 a8 09 1f bc d8 1c 24 3c 5d 19 ef 3c 65 96 5b bd
       -0.009706892 0.0100166425 0.029186899 -0.053610224
000030 52 d6 e0 bc 83 93 5f 3d 4a 1a 31 bd eb e8 15 bd
       -0.027445946 0.054584038 -0.04323796 -0.03659908
000040 ef ae b8 3c ae 8f 1a bd f2 45 3e 3d 91 81 17 bd
       0.022544352 -0.03773468 0.046453424 -0.0369888
000050 34 f3 92 ba 68 1b 97 3c bf f6 05 bd 34 fd 3a bd
       -0.0011211396 0.018445686 -0.03270602 -0.04565163
000060 97 e0 2c bc 91 3e 16 bd a8 d5 7e bc c3 8e 12 bc
       -0.010551593 -0.03668076 -0.015553869 -0.00894517
000070 61 27 56 3d 62 f2 df bc ae 40 3a 3d 9c 73 c8 bc
       0.05228365 -0.027337257 0.04547184 -0.02446919

bn2.running_mean f4 [32]
000000 57 e6 82 3e 51 ee 3d 3e 0c 28 f9 3d b8 95 48 3e
       0.2556636 0.18547942 0.121658415 0.19588363
000010 b7 a6 c8 3d 2b f0 c8 3d 1d 17 1a be 1a fe 78 be
       0.09797423 0.098114334 -0.1504788 -0.24315682
000020 2d 3a 9d 3d 88 59 96 bd 9b 26 92 be c5 fa 6d 3e
       0.07677112 -0.073412955 -0.2854508 0.23240192
000030 d5 17 22 3d d3 f0 a8 be 20 36 5f 3e 7c 67 77 3e
       0.03957351 -0.32996234 0.21797991 0.2416057
000040 c6 f2 a6 bd 59 00 a9 3c 15 e8 8b be 39 ea a7 3e
       -0.08151774 0.020630049 -0.27325502 0.32795885
000050 d7 ca aa 3d a8 33 2b be ff d1 3d 3e 35 f7 4d 3d
       0.0833947 -0.16718924 0.18537138 0.050284583
000060 1c 69 50 3e dd 2a b1 3e 68 29 93 3e b9 25 57 3c
       0.20352596 0.34603015 0.28742528 0.013131552
000070 65 e5 11 be 6e 17 01 3e ca 9d c1 3c 13 83 90 bd
       -0.14247663 0.12606594 0.02363481 -0.070562504

bn2.running_var f4 [32]
000000 7d 57 75 3d 34 0e b4 3d 57 61 05 3d 58 e8 1b 3e
       0.05989789 0.087917715 0.032563534 0.15225351
000010 71 92 e6 3c b8 77 f9 3c 64 1d 3f 3d 74 1a 89 3d
       0.028146 0.030452594 0.04665889 0.06694499
000020 cc ca 75 3d 63 d1 09 3e f1 a2 24 3e 4e 67 03 3e
       0.060007855 0.13458781 0.16077782 0.12832376
000030 83 30 3f 3d ee f5 87 3d 3d d4 76 3d 59 89 99 3d
       0.046677124 0.06638704 0.060261 0.074969
000040 3d 1b 45 3d 03 e5 bb 3c fa b1 c1 3d 4d 84 c1 3d
       0.04812168 0.02293635 0.094577745 0.094490625
000050 0d 42 6d 3d 02 cb e0 3d e2 90 86 3d 8f d4 a3 3d
       0.05792432 0.10976221 0.06570603 0.07999527
000060 57 f4 81 3d 9e 3e 95 3d ef 29 bb 3d 15 bc a3 3d
       0.06345432 0.07287334 0.091388576 0.07994858
000070 16 e1 72 3d f2 62 79 3d a2 29 93 3d 71 e6 cf 3d
       0.05929669 0.060885377 0.07185675 0.10151375

conv3.weight f4 [16, 32, 2, 2]
000000 a0 df 68 3d f7 51 b8 bd 96 3c 34 3d 76 8f 41 bc
       0.05685389 -0.090000086 0.04400309 -0.011813989
000010 c5 c8 07 bc 00 72 15 bd 48 9b 55 bb da ac b5 3c
       -0.008287613 -0.036485672 -0.0032593776 0.022177149
000020 75 72 66 3c 3b f6 0a 3d a6 b5 d7 bc b1 d3 29 3c
       0.014065375 0.03392623 -0.026331734 0.010365413
000030 92 0a ac 3d 58 3c 24 bd 6e 5e 2f 3d b5 56 86 3b
       0.084004536 -0.04009661 0.042814665 0.0040996918
000040 97 21 11 3c 90 0c 10 3d 7b f8 e5 3c 78 cb 5a ba
       0.008858106 0.03516823 0.028072586 -0.0008346359
000050 a7 a5 1e 3d 51 a7 49 bc b1 e5 65 3c 8a 1d ba bc
       0.038732197 -0.012307958 0.0140318135 -0.022719163
000060 3a e7 98 3d 04 cb 60 3d 3d 76 60 3c 15 8f 80 3d
       0.07465978 0.05488111 0.013700065 0.06277291
000070 53 cf df b9 1f ee 0a 3d 2d 17 34 3c d6 e5 2f 3d
       -0.00042688343 0.033918496 0.010991854 0.042943798
000080 f4 1e ad ba 7c 3b ec 3a 6a 04 88 3c 66 de a3 bc
       -0.0013208077 0.0018023099 0.016603667 -0.020003509
000090 8c 0c 7c bd 61 29 1c bd a7 a2 1b 3d 70 18 17 3d
       -0.061535403 -0.0381254 0.037996914 0.03688854
0000a0 92 40 84 3c b0 83 a2 3b 19 ab 98 3d 56 34 52 3d
       0.01614407 0.004959546 0.07454509 0.051319443
0000b0 aa 23 80 bd 47 64 cb bc a7 49 fc bc d8 9d 8b 3d
       -0.062568024 -0.02482809 -0.030796839 0.06817216
0000c0 da d4 41 3a 5e 28 7c bd f6 61 23 bd d4 37 49 3b
       0.0007394083 -0.061561935 -0.039888345 0.0030703442
0000d0 94 53 06 3d 00 a4 85 3d f0 2d 31 3c ae 89 01 bd
       0.03279455 0.06525421 0.010814175 -0.031625442
0000e0 19 0a b5 bd 52 96 d4 bc 82 44 ab 3c 88 be 00 3d
       -0.088398166 -0.025950585 0.02090669 0.031431705
0000f0 29 23 bf bc c6 b2 69 3c 1c 9d b3 bc 8f 12 1c bc
       -0.023332195 0.014263814 -0.021925502 -0.009525909
000100 ae 13 04 bd 72 eb 14 3c e7 aa 21 3d 3b 06 2b 3d
       -0.03224533 0.009089338 0.039469626 0.04175399
000110 ac 20 e8 3b 2b 03 c2 bc fc 76 7e 3b c8 fc cf bb
       0.007083973 -0.023683151 0.0038828244 -0.0063472725
000120 28 91 fe bc 82 78 cc 3c 09 10 58 bd 7c 29 00 bc
       -0.031075075 0.024959806 -0.052749667 -0.007822391
000130 bb 8f 30 3c e5 ea 13 3d bb a6 b6 3c f4 ba b9 3d
       0.0107764555 0.036112685 0.0222963 0.090688616
000140 0a 97 9f bc c5 11 2d 3c c4 94 ce bb bc 2c 9e bd
       -0.0194812 0.010563319 -0.0063043553 -0.07723376
000150 bd 32 d2 3d a0 ed 37 3d 8e 54 c9 ba 9a c5 ab 3b
       0.10263584 0.04490435 -0.0015360282 0.005242062
000160 9d 8f 5b 3d f4 f1 15 bc 1e 88 d9 3c 09 1f 31 3d
       0.053603757 -0.009151924 0.026554164 0.043242488
000170 2e d9 a4 bd 8e a4 45 3d e1 31 23 3c e2 fd d7 3b
       -0.08049236 0.048252635 0.0099606225 0.0065915445
000180 ac 90 60 bd d9 23 e9 bc f4 fa 28 bb d7 5f 94 bc
       -0.05482547 -0.028459476 -0.0025784345 -0.018112106
000190 8b 03 f0 3d ba 13 88 3d 45 a0 8b 3d 52 bb 9c 3d
       0.11719426 0.066443875 0.06817678 0.07652916
0001a0 1f 09 73 3d 53 60 c2 bd 42 9a 83 3d 16 fe ab 3d
       0.05933487 -0.09491029 0.06425907 0.083980724
0001b0 2c c6 75 3d 94 de 60 bd b5 50 d3 3c a3 ec 26 3c
       0.060003445 -0.054899767 0.02579532 0.0101882545
0001c0 c8 f4 3f 3d 8b 62 2c 3d 02 59 73 3c 8c ed 5b bb
       0.0468643 0.042086165 0.014852764 -0.0033558337
0001d0 57 6a 3e 3d b6 bf 31 bd b9 29 6e bb 17 e0 5a 3d
       0.046488132 -0.04339572 -0.0036340787 0.053436365
0001e0 6c dc 52 bd fc 92 40 bd 80 a9 d6 bc 53 b6 59 bd
       -0.051479742 -0.047015175 -0.02620387 -0.053152394
0001f0 2a e5 90 3a e3 18 9e bd d4 5c 88 3a be a7 33 bc
       0.0011054624 -0.077195905 0.0010403641 -0.010965286
000200 f6 89 ab bb 10 d2 cf bd 63 9f 1a 3d ce 34 98 3b
       -0.005234952 -0.10147488 0.03774966 0.0046449667
000210 67 f5 c2 3d f0 f4 58 bd 75 fe 69 bc 97 f7 12 bc
       0.09519463 -0.052967966 -0.014281859 -0.008970163
000220 97 eb 92 bc 56 7c e2 bc fa 66 5d 3d 6f 7b 17 3c
       -0.017934604 -0.027647179 0.054053284 0.009245737
000230 49 dc 86 bd 98 66 bf bb d6 52 36 bd d7 b3 34 3d
       -0.06584985 -0.0058410875 -0.044512592 0.04411682
000240 37 63 90 3d 71 2c 92 3c 88 9f 25 3d ed e6 9d 3c
       0.07050174 0.017843457 0.040435344 0.019275153
000250 45 cb f6 3c 57 79 87 3d 18 65 89 3b 7d 98 12 3d
       0.030126223 0.066149406 0.0041929595 0.035789955
000260 d1 78 86 3d a2 39 1a bd 26 4f 47 3d 38 78 88 3d
       0.06566013 -0.03765262 0.048659466 0.06663555
000270 4a 69 9a bd 09 e6 ac ba 2d 45 4e bd 90 83 46 bd
       -0.075396135 -0.0013191114 -0.05035894 -0.04846531
000280 4c c3 7f 3c 1d 98 07 bd 93 61 de 3c a9 9d 82 3c
       0.015610527 -0.03310405 0.027146136 0.015944319
000290 06 a3 47 bd f4 e4 0d 3d d2 b4 07 3d b1 59 d4 bc
       -0.048739456 0.034642175 0.033131428 -0.025921674
0002a0 c0 52 1c bc b0 a3 b4 3b 12 e9 be ba 36 97 8f 3d
       -0.0095412135 0.005512677 -0.001456531 0.07011263
0002b0 a7 aa d8 3c df af fd 3c 05 07 9b bd 38 28 2f 3d
       0.02644856 0.030967651 -0.07569698 0.042762965
0002c0 41 24 b3 bc f3 a9 6e bd ce a5 4c 3c 4a 1d af bc
       -0.021867873 -0.058267545 0.012490703 -0.02137627
0002d0 df 90 f8 bc ae c5 f0 3c cf 20 5f 3d d8 9e 7f 3d
       -0.030342517 0.029391136 0.054474648 0.062407345
0002e0 71 8b 6d ba 13 72 43 bd 55 2f ad 3c a8 64 00 3c
       -0.0009061611 -0.04771621 0.021140734 0.007836498
0002f0 3a 0e 87 bd c8 e2 0c 3d cb 1a 0d bb 90 da 65 bd
       -0.065945104 0.034395963 -0.0021530862 -0.05611664
000300 e6 27 90 bd 1a 68 15 bd 98 82 84 bd 3f 60 52 3d
       -0.0703886 -0.036476232 -0.06470221 0.05136132
000310 56 17 37 3d 50 93 98 bd 45 c2 16 bd 43 d1 37 bd
       0.04469999 -0.07449973 -0.036806364 -0.044877302
000320 ec 65 65 3d 02 ea e6 3d ed 2b 09 3c b4 67 6a 3d
       0.056005403 0.11275102 0.008372289 0.057227805
000330 bd 5c 97 bc a2 40 3a ba 48 83 6e 3a 85 ae ee 3c
       -0.018476838 -0.0007104968 0.0009098542 0.029135952
000340 f2 e4 87 3c 76 af b8 3c 29 97 4b bd 9d d2 96 bd
       0.016588662 0.022544604 -0.049704704 -0.0736439
000350 45 0f c7 3d 71 96 49 3d b6 5f 2c 3d 29 16 4a 3c
       0.09719709 0.049215738 0.042083465 0.012334385
000360 9b db 0e bd 6a 3f a8 3c 2f 23 14 3c 08 c7 a5 bc
       -0.0348774 0.02053805 0.009041592 -0.020236507
000370 a8 d5 b6 3c fb 9e ad bd d9 25 f2 bc 6d 58 89 3c
       0.022318676 -0.08477589 -0.029559063 0.016765798
000380 ea 69 b2 3c c9 84 9b 3c 81 40 82 3c 03 f0 6e bc
       0.02177902 0.018984215 0.015899898 -0.01458359
000390 21 b5 a1 3d ed 6a a0 3d 08 36 36 bd 96 f9 cb bc
       0.07895876 0.078328945 -0.044485122 -0.024899285
0003a0 e6 ea a0 bc 20 1a d2 bc 87 d1 54 bd b2 c9 24 bd
       -0.019643258 -0.025647223 -0.051957633 -0.040231414
0003b0 39 5b 05 bd 00 52 13 3d e5 f4 21 bd d4 ce 21 3d
       -0.0325577 0.035966873 -0.03954019 0.039503887
0003c0 47 c0 cc bd 43 0e e6 bd c1 a2 85 bc a9 1e 9a bd
       -0.099976115 -0.11233189 -0.016312959 -0.07525379
0003d0 7b a8 a5 ba ad 6a 9f 3c 41 81 24 3d 6a 09 79 bc
       -0.0012638712 0.019460047 0.04016233 -0.015199998
0003e0 de 47 9c 3d ff 4a bf 3d 70 ff be 3c e7 b0 9e bb
       0.07630895 0.09340476 0.023315161 -0.0048428657
0003f0 aa 81 62 bd ca 4c a8 3d 59 6d ef bb 10 4e f1 3c
       -0.05529944 0.08217771 -0.0073067364 0.029456168

conv3.bias f4 [16]
000000 6d f9 17 b6 51 c3 98 b4 d2 87 cb b4 3a ef ac b6
       -2.2645938e-06 -2.8454318e-07 -3.791052e-07 -5.153849e-06
000010 a3 cb 01 37 3b 20 bb b5 57 47 f6 b5 4a 27 d6 b6
       7.736412e-06 -1.3941966e-06 -1.8349191e-06 -6.382271e-06
000020 d4 2a c1 b7 bb 2a 09 35 f7 8d c7 b6 b5 a5 60 36
       -2.3027336e-05 5.109866e-07 -5.947189e-06 3.3475055e-06
000030 82 25 36 37 8f fc 2b 36 56 96 08 b7 a1 24 65 37
       1.0856778e-05 2.5627994e-06 -8.1412345e-06 1.3657992e-05

bn3.weight f4 [16]
000000 19 38 5c 3f e9 77 60 3f 1d b4 62 3f d3 58 71 3f
       0.860231 0.8768297 0.8855608 0.9427616
000010 c4 32 44 3f f3 fd 4e 3f 87 88 57 3f 68 f1 5a 3f
       0.7663996 0.80856246 0.841927 0.85524607
000020 88 79 3a 3f 61 34 53 3f ed 9b 49 3f 7d e2 66 3f
       0.7284169 0.825018 0.7875355 0.90189344
000030 16 02 5e 3f 76 0a 32 3f a4 c5 3b 3f 6a e9 6f 3f
       0.8672193 0.6954721 0.7334845 0.93715537

bn3.bias f4 [16]
000000 d1 87 9b bd ee 64 e5 bb 79 23 20 bd b1 05 08 bd
       -0.07594264 -0.007000557 -0.03909633 -0.033208553
000010 f3 76 99 3b ad d8 0c bd 6a 78 02 3d ce 2f 72 3c
       0.0046833693 -0.034386326 0.031853117 0.014781905
000020 a8 a9 4a 3b aa 58 ca 3b 93 c0 9c bc b6 91 00 bd
       0.0030923877 0.0061751204 -0.019134795 -0.03138896
000030 00 89 62 3d c8 8e df 3c 91 92 04 3d 42 b5 e9 3c
       0.055306435 0.027289763 0.03236634 0.028528813

bn3.running_mean f4 [16]
000000 9f d0 7f 3e 9d dc 89 3d b1 7b 5f 3e 64 e8 9b 3d
       0.24981926 0.06731532 0.21824528 0.07612684
000010 47 aa 10 bd 9f 0f 9f 3e 1f e9 87 be 1f ec 22 be
       -0.03531864 0.31066605 -0.26545045 -0.15910386
000020 50 dd 04 3e 09 44 5c 3d 28 26 29 3d 8e 45 56 3d
       0.12975049 0.05377582 0.041296154 0.052312426
000030 6d 30 b5 be 3e ee 79 be b2 34 10 be 92 5d dd be
       -0.35388508 -0.24407288 -0.14082602 -0.4323545

bn3.running_var f4 [16]
000000 a4 18 f4 3c 83 ec d6 3d 8d 92 a0 3d e9 ff 49 3e
       0.029796906 0.1049433 0.07840452 0.19726528
000010 6e 02 3a 3d d8 9c 7c 3d 5f 3a bd 3d 6f 0d 1a 3e
       0.045412473 0.061673015 0.09239649 0.15044187
000020 8c e3 79 3d fb 63 72 3d cb df 23 3d 86 04 85 3d
       0.06100802 0.05917738 0.040008347 0.064950034
000030 92 81 40 3e b3 90 e0 3d 54 05 98 3d 91 2d b6 3d
       0.18799427 0.10965099 0.07422891 0.0889541

conv4.weight f4 [8, 16, 2, 2]
000000 b2 33 2f 3d ea cc a0 bc 3c 2f a2 bc 86 15 b7 3b
       0.04277391 -0.01962896 -0.019797914 0.0055872826
000010 e9 a9 80 3d 85 bb 0a 3e bd f2 c2 bb 18 dd b7 bd
       0.06282408 0.13548096 -0.005949347 -0.08977717
000020 cc c4 b3 3c f4 1d 0e bd 96 db f6 bc ec 41 02 3d
       0.021944426 -0.034696534 -0.030134004 0.03180115
000030 a5 c3 97 3d 10 51 d8 bd 71 a6 4e bd 3e 2e 3b 3d
       0.07410363 -0.105623364 -0.0504517 0.045698397
000040 25 c5 c7 3d b6 c2 5c bd be 33 0b bd a0 b4 55 bb
       0.09754399 -0.05389663 -0.033984892 -0.0032608882
000050 bf ce 44 3d 7c 02 7f 3b 92 e5 53 bd aa c7 5d 3d
       0.04804873 0.0038911393 -0.051732607 0.054145493
000060 43 81 02 bd 5d 88 c0 bc ac ee ba bd c2 1c 82 bd
       -0.031861555 -0.023502523 -0.09127554 -0.06353141
000070 62 f4 87 bd 79 d0 be bc c8 5c 9a bd a3 7a 8a bc
       -0.06638409 -0.023292767 -0.07537228 -0.01690418
000080 16 e5 b2 3d b4 33 ee 3c a4 d6 a6 3d 0c 35 02 3d
       0.08735101 0.029077388 0.08146408 0.03178887
000090 ea 92 36 3d ae 30 da bd 8c 90 2c bd ca 76 44 bd
       0.044573702 -0.10653816 -0.04213004 -0.04796485
0000a0 6c 97 02 be fd 49 a9 3d 8e 4d 09 bd 64 17 23 3c
       -0.12753075 0.08266065 -0.033521228 0.009954307
0000b0 c0 cd 06 3e 47 cf ff 3d 8e 4c 34 3d 1d 91 06 bd
       0.13164425 0.12490707 0.04401832 -0.032853235
0000c0 7d 94 54 bc 0e 91 42 bd 17 25 94 3c 24 d7 df 3c
       -0.0129748555 -0.047501616 0.018084092 0.027324267
0000d0 54 7d 71 bd 9a 3d 03 3d 6e f3 90 bb f0 60 6d bc
       -0.058957413 0.03204117 -0.0044235503 -0.014488444
0000e0 63 6c 92 bd d6 dd 04 be 9e 37 c1 bc 09 40 e0 3c
       -0.071495794 -0.12975249 -0.02358609 0.027374284
0000f0 fb d1 13 3e ce 05 66 bb d8 30 d5 bd 45 d3 91 bd
       0.1443557 -0.0035098675 -0.10409707 -0.071203746
000100 8a a3 4c bd ca a3 09 3e 36 9b 40 bc 5a 8c fb 3b
       -0.04996065 0.13441387 -0.011755755 0.0076766433
000110 9a 05 e1 bc 44 8b 1d bd e2 c7 fe 3c ab 79 f5 3c
       -0.027468491 -0.038462892 0.03110117 0.029965242
000120 13 6c c8 3d 57 76 62 bc 0b e4 85 ba f3 1e d1 3c
       0.097862385 -0.01382216 -0.0010215057 0.025527453
000130 a2 bf 62 3d ff 08 58 3d ee 1f 00 bd d7 5d 28 3c
       0.055358537 0.052742954 -0.03128045 0.010276279
000140 00 c7 13 bd 64 57 b7 3c b9 d0 79 bd 35 d1 91 bc
       -0.036078453 0.022380538 -0.06099007 -0.017799953
000150 7b d7 88 3c 6f 47 e7 3d b8 67 79 3a a3 2e 40 3d
       0.016704312 0.11292922 0.00095140515 0.046919476
000160 33 b7 23 bb 30 25 2c 3d 5f 2f 92 3b 2d c4 d8 3c
       -0.0024981021 0.042027652 0.0044612135 0.026460731
000170 bc 37 e8 3d 1f 4d 01 3e 12 dd 15 bd fe 0a f5 bc
       0.113387555 0.12627076 -0.036587782 -0.029912468
000180 3a 48 aa 3a 9d 07 87 3d 84 b2 66 bd 70 13 91 bc
       0.0012991496 0.06593249 -0.05632259 -0.017709464
000190 f7 1b d2 3d 48 6f 1d 3d fb f1 88 3d 12 00 c8 3c
       0.1025924 0.038436204 0.06686779 0.024414096
0001a0 f6 29 5b bb a4 c8 06 be f6 73 af 3d 64 16 9b bd
       -0.0033441759 -0.13162476 0.0856704 -0.0757263
0001b0 df 5f cb bd ae a2 ce 3c cc 56 01 3d 4f f2 76 bd
       -0.09930395 0.025224056 0.031576917 -0.060289677
0001c0 fe e7 25 3b e5 05 5d 3d a4 af 19 3d b6 db 7d bd
       0.002531528 0.0539607 0.03752102 -0.06197711
0001d0 5f 8d 33 bc c2 f5 b3 bd 00 e3 2c bd b7 e3 b1 3d
       -0.010958998 -0.08787109 -0.04220867 0.08686011
0001e0 18 75 12 bc 1c 44 1c 3d 35 74 ea 3d e8 5d 79 3d
       -0.00893905 0.03815089 0.11447946 0.06088057
0001f0 02 43 4e bd 10 2d c1 ba 5e 35 28 3e 57 0d 0d 3e
       -0.050356872 -0.0014738161 0.16426608 0.1377462
000200 c3 60 06 3e e5 e9 2b 3d a0 fa 45 3b 8c b2 84 3d
       0.13122849 0.041971106 0.0030209199 0.064793676
000210 a7 dc 86 3d 43 ab 3c 3d 8b 73 4c bb 59 4a 8a 3d
       0.06585055 0.046061765 -0.0031196799 0.06752462
000220 09 62 df bd 05 20 93 bc 02 ec df 3b 9a 79 9e 3d
       -0.109073706 -0.017959604 0.0068335542 0.077380374
000230 df 28 b1 3b 9b ae 0c bd 0d 10 e9 3d 18 52 05 3e
       0.0054064835 -0.034346204 0.113800146 0.13019598
000240 be a3 e5 3d 85 fb be bd 3c 6f 1c 3b ef 08 df 3c
       0.11212872 -0.09325317 0.0023870012 0.02722594
000250 14 7d b3 bd 38 8a 6c bd b6 7a aa bc 9c f1 9c 3d
       -0.08764091 -0.057749003 -0.020810466 0.07663271
000260 a2 3c a4 bd 22 79 88 bd 3c a9 71 bc 87 4a c2 bd
       -0.08019377 -0.06663729 -0.014749821 -0.09486871
000270 03 5b 39 bd 81 09 c2 bd d5 a4 97 3d 15 57 14 bd
       -0.04525281 -0.09474469 0.07404486 -0.03621586
000280 f8 c1 48 bd 79 8a 60 3c 5b 60 1c 3d bf c7 27 3b
       -0.049013108 0.013704889 0.03817783 0.0025601236
000290 38 59 3c 3c 76 f2 ac bd fb c5 de 3c b9 d9 a5 bd
       0.011495881 -0.08444683 0.027194014 -0.08098168
0002a0 ba 37 00 bb 07 01 f5 3c 7b 4c 95 bc cf 5e 46 3d
       -0.0019564466 0.029907716 -0.018224945 0.04843026
0002b0 1b ab 45 3c 01 7a bc bc 2f e6 96 3c a6 0f 4d 3d
       0.0120647205 -0.023007395 0.018420307 0.05006375
0002c0 b7 6d 9b 3d ce 92 f6 3d 02 7e 65 3d 2e 31 d2 3d
       0.07589286 0.120397195 0.056028374 0.102632865
0002d0 8b 42 2d 3c 9d 92 14 3d 4d d0 d8 bd 4e 94 5d bd
       0.010574947 0.036272634 -0.10586605 -0.054096512
0002e0 25 44 cd 3d 4c ae ca 3d 8c 37 8c bd 05 98 50 bb
       0.10022763 0.09896526 -0.06846532 -0.0031828892
0002f0 3c 03 ae 3d 7e 63 c8 3b ff 7c c1 bb 1e 65 ed bd
       0.08496711 0.006115376 -0.0059047933 -0.11591552
000300 33 89 bb 3d 53 37 08 3d f8 77 16 bd 57 0b ed bc
       0.09157028 0.033255886 -0.036735505 -0.028936071
000310 ee 54 5e 3c c8 16 7a 3d 40 35 38 bc 47 15 56 3c
       0.0135700535 0.061056882 -0.011243165 0.013066596
000320 59 3f 87 3d 92 7f 9d 3b 04 51 5b 3d 6c a2 7e 3d
       0.066038795 0.0048064673 0.05354406 0.062166616
000330 0b d4 34 bc 6f 9d 58 bd 6f 5e d3 bb f2 f8 c0 3d
       -0.011036883 -0.052884515 -0.0064504663 0.094224826
000340 bb 58 25 be b0 ca 8d bd 57 ce 14 bb d8 43 08 bb
       -0.16147129 -0.06923425 -0.0022705996 -0.002079239
000350 d3 40 8e bc fb fd fc 3c 87 60 7f bd 64 53 63 bd
       -0.017364895 0.030882826 -0.062347915 -0.05549945
000360 1f f9 98 bc 0f 28 cb bc f0 f8 63 bb 5c 18 9a bd
       -0.018673478 -0.024799375 -0.003478583 -0.075241774
000370 b4 99 e1 bd a2 3a 99 bd a0 5b 3c 3d a9 ed c5 bd
       -0.11015645 -0.074818864 0.045985818 -0.09664471
000380 c8 02 bb bd 91 e9 8b bd 77 55 26 3d 79 e4 3a 3c
       -0.0913139 -0.06831659 0.04060885 0.011407011
000390 54 1b 07 bc a7 6b 4f bd df 6a 0f 3d 3d f9 43 3d
       -0.008246262 -0.050639775 0.03501403 0.047845114
0003a0 30 1a 52 bc aa 94 9c 3d f8 2a 05 be c7 cc 7b 3c
       -0.012823626 0.07645543 -0.13004673 0.015368647
0003b0 56 aa a3 bc 56 cf a2 bd d4 ef 81 3c 47 86 a7 bd
       -0.019978683 -0.079497024 0.01586143 -0.08179908
0003c0 5a 83 9c bd 10 19 1e 3c 3e 49 32 bd 31 20 2b bd
       -0.07642241 0.00964953 -0.04352688 -0.041778747
0003d0 0b 9c 1e be 8f 9e 2d bd 74 b0 3a 3d 32 c6 68 bd
       -0.15489213 -0.04238754 0.045578435 -0.05682964
0003e0 fd 62 94 bd cc e6 4f bc c2 7d 25 bd 7b b7 14 bd
       -0.07245443 -0.012689304 -0.040403135 -0.036307793
0003f0 43 4a 08 bd 04 3e 01 bd 8e 35 ff bc 61 d6 f4 bd
       -0.033273946 -0.031553283 -0.031153467 -0.11954952

conv4.bias f4 [8]
000000 18 56 c5 36 61 d7 53 37 a4 4f 96 b6 9b 74 42 36
       5.88108e-06 1.2626727e-05 -4.4796197e-06 2.8976126e-06
000010 56 82 8a 36 ed 6d 7f b5 0f c9 74 37 42 ae 20 b6
       4.1278936e-06 -9.5154866e-07 1.4590346e-05 -2.394329e-06

bn4.weight f4 [8]
000000 c9 5c 85 3f a4 d7 8d 3f 7e e0 94 3f 93 3e 89 3f
       1.0418941 1.1081433 1.163101 1.0722221
000010 c4 82 9a 3f 90 54 95 3f 3c dc 83 3f a7 54 98 3f
       1.2071157 1.1666431 1.0301585 1.1900834

bn4.bias f4 [8]
000000 85 58 d3 3d 0e d2 1b 3e 36 4a fd 3d f8 0d d5 3d
       0.10319618 0.15216848 0.1236767 0.10403055
000010 31 1d d2 3d a2 70 0c 3e 1b eb 03 3e 60 cd 1e 3e
       0.10259474 0.13714841 0.12882654 0.15508032

bn4.running_mean f4 [8]
000000 4c 3b f6 bd e0 95 ab 3e 06 f4 6d 3e f8 43 ec be
       -0.12023029 0.33512783 0.23237619 -0.46145606
000010 e6 55 20 3e bd c3 95 3e 73 b9 ae 3d ee ac 84 3e
       0.15657768 0.292509 0.085314654 0.25913185

bn4.running_var f4 [8]
000000 2b 55 cd 3c ef 6f c7 3c 00 9a 3a 3d 65 84 cc 3c
       0.025065025 0.024345366 0.045557022 0.024965474
000010 42 4f 83 3d da a9 03 3d 54 74 dc 3c 33 8c 2f 3d
       0.064116016 0.032144405 0.026910938 0.042858314

fc.weight f4 [128, 288]
000000 a8 80 1a 3d e8 dc 4b 3d bb 66 d7 3c da be 68 bc
       0.037720352 0.04977122 0.026294103 -0.014205659
000010 8d 12 30 3c a6 21 13 3c 76 ad 73 3b 22 3f fb 3a
       0.01074661 0.00898019 0.0037182248 0.0019168595
000020 8a f9 7a bb 9b 4d 9f 3b 6d 1f a0 ba 26 28 14 bb
       -0.003829571 0.004861546 -0.0012216397 -0.0022606938
000030 92 52 8c bb 3a 17 ae ba fa bb 94 3c 40 07 06 bc
       -0.004282304 -0.0013282069 0.01815604 -0.0081804395
000040 a1 41 5c ba 5a 7c 72 3c fa cf 4c ba 60 db ef bb
       -0.00084021135 0.014800156 -0.00078129733 -0.0073198527
000050 94 58 c6 bb bd ae b4 3a 00 61 53 bc f0 95 0f bc
       -0.00605304 0.0013784986 -0.012901545 -0.008763775
000060 ad 6b 11 3c 14 4d 16 3c 7f ef b3 3b 3f 0e 2a 3c
       0.00887577 0.00917365 0.0054911966 0.010379373
000070 bb 74 0d 3c 96 db 0b 3c 9e ce a0 bb 21 f5 de bb
       0.008633788 0.00853624 -0.004907443 -0.006804124
000080 c5 3e 3b bb fa 28 c8 3a 24 78 8e bb d5 70 ea bb
       -0.002857135 0.0015271001 -0.004347818 -0.007154564
000090 c7 ae 28 bc 3e 2e 94 3c 85 7c 1e ba fa b8 cd bc
       -0.010295576 0.018088456 -0.00060457765 -0.025112618
0000a0 43 b3 95 bb 72 e4 8f bc 02 af 91 bb ac f5 7e ba
       -0.004568489 -0.017564986 -0.0044459114 -0.0009725939
0000b0 10 80 35 ba 2d 65 80 3a b4 50 c1 3b 24 6c e1 3b
       -0.0006923685 0.0009795778 0.005899513 0.0068793464
0000c0 68 d6 72 3a 1b 5f 59 3b 41 a7 e6 b9 c7 d5 c9 3a
       0.00092635164 0.003316826 -0.00043993632 0.0015398794
0000d0 69 5e ae ba e0 12 4f bb da b5 0f ba 4a 45 4d 3a
       -0.0013303283 -0.0031596944 -0.0005482115 0.0007830454
0000e0 6d ca 5e bb 1d 3f b4 bb 20 4c eb 3b 6c 36 56 3b
       -0.0033995167 -0.0055006878 0.0071807057 0.0032686247
0000f0 42 ef 9e 3c 03 76 2e bc 89 1d 96 bb f1 17 13 bc
       0.019401196 -0.010648253 -0.0045811576 -0.008977876
000100 81 94 1f b9 4d 3c a2 bc 36 d6 c4 3c a5 dc b0 bc
       -0.00015218744 -0.019804144 0.024027925 -0.021589587
000110 4f 71 be 3a 93 1a 94 3c 93 ea 1b 3a bc fe 7b 3c
       0.0014529618 0.018079078 0.0005947735 0.015380558
000120 cf bd 89 3c a8 1f 12 3c 59 74 b0 3c 0b 44 fb 3c
       0.01681414 0.00891868 0.021539854 0.030672094
000130 8a 02 ef 3c dc 99 ec 3c 2d 85 f6 3b e1 69 64 3c
       0.029176015 0.02888196 0.0075232 0.013941259
000140 18 85 0b 3b 69 5d a6 3a 3d 8f e0 3b 97 c7 38 3c
       0.0021289047 0.0012692633 0.006853013 0.011278055
000150 4f 04 d4 3b 5e dc c9 3b c1 d6 c7 b9 60 ba d4 3b
       0.00647024 0.006160303 -0.00038116242 0.006491944
000160 d0 97 f1 3a a0 08 d8 ba 0b 1b b3 3b b8 b3 e8 ba
       0.0018432084 -0.0016482063 0.0054658703 -0.0017753756
000170 3e 6b d7 3a d9 49 29 ba 79 1b d3 ba a6 4e 29 bb
       0.0016435159 -0.00064578425 -0.001610621 -0.0025834232
000180 8c b3 3c bc c6 34 94 bb 72 73 fa bb a9 be 59 bc
       -0.011517417 -0.0045228926 -0.0076431567 -0.013290086
000190 2a ef d0 bb c5 a7 01 bc 16 84 65 ba 17 d4 4c 3b
       -0.006376167 -0.0079135345 -0.0008755339 0.0031254345
0001a0 7a 8d 5e bc c8 16 b3 3c 84 72 fd 3c f4 5d eb bc
       -0.013583535 0.021861449 0.030938394 -0.028731324
0001b0 ce 7c 00 bc 41 fd d5 bb 61 9a 2b bc fe 84 b2 bb
       -0.007842256 -0.0065304344 -0.0104738185 -0.005447983
0001c0 5e 4a 1a bc ac 86 a9 3b 8c 16 4f 3b 09 bf 57 bb
       -0.009417145 0.005173525 0.0031599132 -0.0032920262
0001d0 98 31 48 3b c6 7e 81 3a 6f f9 bf ba 26 e1 73 3b
       0.0030547138 0.00098797 -0.001464648 0.0037213056
0001e0 c2 9e 03 bb 19 19 f9 bb 20 25 a6 ba 00 63 44 bb
       -0.002008364 -0.007601869 -0.0012675859 -0.0029966235
0001f0 01 e9 95 bb 53 df 1f bb 57 52 54 ba ef d5 dd 3a
       -0.0045748954 -0.0024394586 -0.0008099428 0.0016924719
000200 93 5e df ba 82 f7 a9 ba 34 6c 81 3b dc fd a4 3b
       -0.0017041735 -0.001296744 0.0039496664 0.005035145
000210 bd ce b0 bb 00 ce 4a 3b b9 e2 3f 3c 2f 62 ac 3c
       -0.005395739 0.003094554 0.01171177 0.021042911
000220 af 91 b4 3c d4 7b 7f bc 4e 4f 19 3d fb 93 06 bc
       0.022042124 -0.015593488 0.037429146 -0.008213992
000230 65 4e 18 ba f0 88 6a bc a3 d5 a0 3c 43 95 aa 3c
       -0.00058100215 -0.014314875 0.01963312 0.020823127
000240 22 59 b7 bc aa 5d 14 bc be 99 ad 3c a2 f2 a3 3c
       -0.022381369 -0.009055534 0.021191474 0.020013157
000250 bf 14 0b bd 4e 8c 12 bc eb 60 c0 3b e8 90 69 3b
       -0.033955332 -0.008944584 0.0058709285 0.003563935
000260 c8 f3 1f bc 74 aa 80 3b e2 88 21 bc c8 e0 e6 bb
       -0.009762712 0.0039265696 -0.009859296 -0.007045839
000270 56 c2 33 3b b5 24 95 3b 07 07 62 3b 91 84 b5 3a
       0.0027429066 0.004551495 0.0034489052 0.0013848712
000280 c1 73 d7 3a 6b b0 e4 3b e4 6d 31 3c 2a ed 26 3c
       0.0016437696 0.0069790385 0.010829423 0.01018838
000290 27 3e 07 3c 8a 28 e2 3b 24 9b eb 3b d4 c7 fd 3b
       0.008254564 0.0069018053 0.007190125 0.0077447686
0002a0 bd 96 fe bb 6b aa 2f bc f5 72 33 bc f4 9a 28 bc
       -0.0077694342 -0.010721783 -0.010952701 -0.01029085
0002b0 a4 92 9d bb 75 55 d2 bb 9b 48 e7 ba f4 c8 fe bb
       -0.0048087407 -0.0064188787 -0.001764554 -0.0077754203
0002c0 c5 94 3d 3c 35 96 f8 3c 52 26 2e 3c 81 9d 17 3d
       0.011571114 0.030345062 0.010629253 0.03701544
0002d0 83 7d 23 3d cc f3 80 bc 8e ac d4 39 f4 33 b6 3c
       0.03991462 -0.015741251 0.00040564354 0.02224157
0002e0 bd 95 c4 bb 54 24 51 bb dd fd 89 3c 39 6c 16 3b
       -0.0059992955 -0.0031912522 0.016844684 0.002295269
0002f0 6b 69 33 3b 4e 1e fc ba 84 74 07 3c 0b b3 fd 3a
       0.0027376066 -0.0019235106 0.008267526 0.0019355727
000300 39 54 44 3b 79 de bc 3c 90 02 b3 3c ba e4 92 3c
       0.0029957427 0.023055302 0.021851808 0.017931331
000310 b7 7c 8e 3c 17 87 86 3c 1b d2 42 3c c6 f0 cc 3b
       0.017393453 0.016421838 0.011890913 0.0062542884
000320 d0 82 20 3c 62 a1 67 3a ee 2d 0f 3c ce 0d a9 3b
       0.009796813 0.00088359986 0.008738978 0.0051591164
000330 c9 3b df 3a 61 03 02 3c c3 18 f1 3b 14 f1 56 3b
       0.0017031367 0.007935376 0.007357688 0.0032797502
000340 03 62 08 bb e1 ba 43 b8 27 c8 40 3c 92 ed 34 3c
       -0.0020810373 -4.6665667e-05 0.01176647 0.011042969
000350 1b 79 18 3c 7f c6 00 3c 6c d0 fb 3b 5b e3 4b 3c
       0.009306218 0.007859825 0.007684758 0.0124443425
000360 d9 11 ff bb fd 5f ba bb 3e 9f 9b 3b cf 79 88 3a
       -0.00778411 -0.005687712 0.0047492078 0.0010412278
000370 e0 85 67 bb 8d c2 da bb ea 49 a5 bb 83 c6 0e bb
       -0.0035327598 -0.0066760243 -0.0050442116 -0.0021785803
000380 37 fe 02 3a 13 b9 ec 3a d2 41 2e 3b 94 ae 4c bb
       0.00049969874 0.0018060528 0.0026589525 -0.0031231986
000390 f5 fb 0c 3c 33 15 2e 3b 97 51 41 bb 3f 8e 48 3b
       0.008604993 0.0026562929 -0.0029498094 0.0030602363
0003a0 52 59 d3 ba fb 68 d1 3b 34 0e 87 bc fc f2 d0 3c
       -0.0016124642 0.0063906885 -0.016486265 0.025506489
0003b0 4f 7b 4c 3c 8e e4 dd 3b 38 d9 01 3a b5 7d 74 bb
       0.012480571 0.0067716306 0.00049533276 -0.0037306373
0003c0 01 0d 95 bc 69 f6 cd 3c fc 56 dc 3b 14 77 0f bb
       -0.018194677 0.025141912 0.0067242365 -0.0021891044
0003d0 e7 0a 2e 3c e1 f1 3f 3c 15 18 85 3b 74 c4 26 3c
       0.0106227165 0.011715383 0.0040617087 0.010178674
0003e0 8a ed 81 3c cf 0d 8d 3b a5 6d 8e 3c c5 f4 4a 3c
       0.015860338 0.0043046246 0.017386267 0.012387459
0003f0 44 bd 52 3c 4a 65 f0 bc 42 7b 3a bc 93 f5 ad bc
       0.012862507 -0.029345173 -0.011381926 -0.021235263

fc.bias f4 [128]
000000 35 20 a1 3c 01 62 8f bc 24 41 78 3d fd f9 01 bd
       0.019668678 -0.017502787 0.060608998 -0.031732548
000010 8d bc 9e bb 4d 4d 8f 3b 9e da 95 3c 60 69 71 3c
       -0.0048442543 0.0043732286 0.018292721 0.014734596
000020 70 7d f6 bb a5 df 0a bb 45 03 00 bc 84 5e 58 3c
       -0.0075222775 -0.0021190431 -0.0078132795 0.013206128
000030 51 df ce 3c c2 af 13 3c 0d 73 e4 b8 2c f7 07 bd
       0.02525297 0.009014072 -0.00010893317 -0.033194706
000040 1c 96 5c 3d a6 c2 8d 3c 09 6d 46 bc 7f 98 16 3c
       0.053854093 0.01730473 -0.012110957 0.009191631
000050 16 0c bc 3c 93 b8 a7 ba fa 74 c5 bc be 99 c5 3a
       0.022954982 -0.0012796096 -0.02410363 0.0015075726
000060 16 d7 0d bd 68 2b 2e bc 08 94 75 bd 5d d5 14 3d
       -0.03462895 -0.010630466 -0.059955627 0.03633629
000070 9a 98 9b 3c 1e cb e5 3b c7 8d 69 3b ea 1a 5e b4
       0.018993665 0.007012739 0.0035637484 -2.0685152e-07
000080 ea 64 85 3d b8 e0 d7 ba 75 3d c9 bc 56 95 23 3c
       0.065133885 -0.001647017 -0.024565438 0.009984335
000090 f6 93 fd bb ea 03 4a 3c 7b fb 9d 3c d3 86 de 3c
       -0.0077385856 0.012330035 0.019284954 0.027163899
0000a0 9a ab be bb 59 e7 b8 3b 0e 3a 9a 3c 1b a9 10 3d
       -0.0058187963 0.005642813 0.01882651 0.03531752
0000b0 99 b2 f6 bc 7e 62 f6 3b c8 8f 5a 3d bf c8 34 3d
       -0.030114459 0.0075190654 0.053359777 0.04413676
0000c0 f8 59 4b 3c c7 84 06 3c 18 07 3f bb eb 16 81 3b
       0.012411587 0.0082103675 -0.0029148515 0.0039394996
0000d0 f8 da 4d 3c 3e fa dd 3c 0f d6 de 3c e2 04 24 3d
       0.012564413 0.027096864 0.02720168 0.04004372
0000e0 bd e3 89 3c 11 8a b5 3c 1e 04 5e 3c bd 84 ff 3b
       0.016832227 0.022160562 0.013550786 0.007797806
0000f0 cb be b1 bc 96 03 a4 bb c9 30 c9 3b 5f 4f b8 bc
       -0.021697422 -0.0050053103 0.006139849 -0.022498785
000100 d9 31 51 3a 76 0a 72 bc 49 04 91 3c 78 ae 23 3d
       0.0007980145 -0.014773002 0.017702239 0.03996131
000110 41 76 aa 3c ae 97 80 bc 49 bb eb bc ea 2e db 3c
       0.020808341 -0.015697327 -0.028775828 0.026755769
000120 19 bf 10 3c 25 89 d2 bb 36 cc a0 bc e9 02 58 3c
       0.008834624 -0.0064250403 -0.019628625 0.013184288
000130 07 aa 02 3c c7 2b 4f bb c7 60 60 3a 6c 5f a5 3c
       0.007975108 -0.0031611787 0.0008559343 0.020187102
000140 36 7f 86 3c 0f 7c e2 bc a0 98 26 3d 85 e5 57 3d
       0.01641808 -0.027647046 0.0406729 0.05270912
000150 ac c3 01 3d 32 b9 3f 3c de 4f 4e bc 76 d1 14 3b
       0.031680748 0.011701869 -0.012592284 0.0022707856
000160 c6 2a b5 3c 21 60 e0 3c 2d 0a c2 3c 30 c1 d1 bc
       0.022115123 0.027389588 0.023686493 -0.025604814
000170 5b 19 a5 3c 59 74 b4 3c a1 ef c4 3c 23 0f d4 3c
       0.020153692 0.022028135 0.024040045 0.025886124
000180 1d a4 1f 3d 7a 63 a9 3c 87 72 30 3d f9 e0 05 bb
       0.03897487 0.020677317 0.04307797 -0.0020428284
000190 5a 49 ee ba 95 4c 68 3c e3 8f be ba ea 9c 29 bd
       -0.001817982 0.014178415 -0.0014538731 -0.04140941
0001a0 39 6a ac bc ce 56 83 bc 7c eb 3c 3b 45 7b 3a 3b
       -0.021046745 -0.016032603 0.0028826883 0.0028454822
0001b0 09 e3 24 bc a3 8b a4 bc 05 b7 8a 3c f4 94 0a bd
       -0.010063895 -0.020086115 0.016932974 -0.03383346
0001c0 16 63 74 3b 23 5b 00 3c 4e 35 9a 3c 08 19 9a bb
       0.0037290505 0.007834229 0.018824246 -0.004702691
0001d0 5b 58 88 ba 3b e4 35 bc db 92 0b 3b c9 68 7b 3c
       -0.0010402309 -0.011101778 0.002129725 0.015344807
0001e0 e2 d3 3b bc 37 ec a1 bc b6 ab 7f 3d 13 24 ef 3c
       -0.011464091 -0.019765956 0.062419616 0.029192006
0001f0 23 a1 22 bc d1 e7 10 3c 68 be 9b bc 16 e8 88 bc
       -0.009926113 0.008844332 -0.019011691 -0.01671223
