Model exports/best_model_Nov21_Protein_2024_11211449.pth (torch, 540770 bytes, 68 tensors)

conv1.weight f4 [16, 3, 2, 2]
000000 3e 55 57 bd 1a 71 57 3d be 4a bd bc 00 0e 91 3d
       -0.052571528 0.052598096 -0.023106929 0.070827484
000010 c2 0d 00 80 04 0e 00 80 08 0e 00 80 14 0e 00 00
       -4.935e-42 -5.028e-42 -5.033e-42 5.05e-42
000020 8b 10 70 bd 3f 2c 75 be 58 8a 2e be 15 3d 23 be
       -0.058609527 -0.2394266 -0.17044961 -0.1594127
000030 dd 84 6d 3e 76 fa 52 3e 2c 82 6b 3d 8d 2e 69 be
       0.23195215 0.20603356 0.05749719 -0.22771664
000040 d0 10 00 80 c0 0d 00 80 d6 0d 00 00 f7 0d 00 00
       -6.031e-42 -4.933e-42 4.963e-42 5.01e-42
000050 88 e0 e9 3d bc 28 7d bd e6 70 db 3d 6c 22 ba bd
       0.11419779 -0.061806425 0.10714893 -0.09088597
000060 60 e4 01 3e 52 f5 59 3d eb 2c 11 3e cf 13 70 3e
       0.12684774 0.05321247 0.14177291 0.23445056
000070 b0 0d 00 00 c3 0d 00 00 d3 0d 00 00 ae 0d 00 80
       4.91e-42 4.937e-42 4.959e-42 -4.907e-42
000080 42 e5 27 3e 47 b8 e9 bd 11 2a 83 bd 1c 50 ff 3d
       0.16396049 -0.11412101 -0.06404508 0.124664515
000090 28 0a ff 3d df e0 c0 3c fc ce e7 3d d7 71 03 3e
       0.12453109 0.023544727 0.11318776 0.12836395
0000a0 b2 0d 00 00 bc 0d 00 00 bb 0d 00 00 d4 0d 00 00
       4.913e-42 4.927e-42 4.926e-42 4.96e-42
0000b0 9c 04 80 be 52 c6 2d 3e 9a 9c c5 bd e3 8f 9f 3d
       -0.25003517 0.16970184 -0.0964901 0.07791116
0000c0 02 c6 7d be c4 97 1f be 14 e5 7d be a2 5b 66 3e
       -0.24782565 -0.15585238 -0.24794418 0.22495893
0000d0 b0 0d 00 80 fe 0d 00 80 ad 0d 00 80 c8 0d 00 80
       -4.91e-42 -5.02e-42 -4.906e-42 -4.944e-42
0000e0 41 ea 1c 3e 1f 19 f5 3c 11 ba 78 be 60 0f a4 bd
       0.15323736 0.029919205 -0.24289729 -0.08010745
0000f0 48 68 4e be 53 95 37 3e 1c 1a 54 3e 8b c7 a8 3d
       -0.20156968 0.17928056 0.20713085 0.08241185
000100 b1 0d 00 80 c7 0d 00 80 f9 0d 00 00 0a 0e 00 80
       -4.912e-42 -4.942e-42 5.012e-42 -5.036e-42
000110 67 ca 0f be 64 82 b3 3c de e2 84 3d 35 04 b8 bd
       -0.14042054 0.021912761 0.06488584 -0.089851774
000120 aa b1 ba bd e9 9b 41 be b0 15 4e bc 3f f9 1f bd
       -0.09115918 -0.18907131 -0.012578413 -0.03905606
000130 14 0e 00 80 b8 0d 00 80 d5 0d 00 00 3c 11 00 80
       -5.05e-42 -4.921e-42 4.962e-42 -6.183e-42
000140 6c b0 fa bd fe f7 52 be 70 5e b9 3d 6d 58 12 3e
       -0.12240681 -0.20602414 0.09051216 0.14291544
000150 7c 9c 6d 3e 0c 6f 4e be 5f ad 1f be 29 f3 30 bd
       0.23204225 -0.20159549 -0.1559348 -0.043200646
000160 cf 0d 00 00 28 10 00 80 fa 10 00 00 c2 0d 00 80
       4.954e-42 -5.796e-42 6.09e-42 -4.935e-42
000170 79 fe 5c be 81 e8 0d be fd ed 58 bd c0 77 20 3e
       -0.21581449 -0.13858224 -0.05296134 0.15670681
000180 78 3a 8a bd 9b b4 83 3d 1f a8 3e be 08 92 64 be
       -0.06749433 0.06430932 -0.1861882 -0.22321332
000190 e6 0d 00 80 e0 0d 00 80 cb 0d 00 80 e0 0d 00 00
       -4.986e-42 -4.977e-42 -4.948e-42 4.977e-42
0001a0 27 87 87 be dc 2b 62 3c 3d 6e 14 be 6f 60 f1 3d
       -0.264703 0.013804402 -0.14495178 0.117859714
0001b0 f6 39 25 3e 57 66 8a 3e 19 86 50 3d 06 72 f8 3c
       0.16135392 0.27031204 0.050909135 0.030327808
0001c0 eb 0d 00 00 c9 0d 00 00 b1 0d 00 80 cd 0d 00 80
       4.993e-42 4.945e-42 -4.912e-42 -4.951e-42
0001d0 64 3f 34 be 40 67 01 3d 76 dc 57 3e bb af 8b bd
       -0.17602307 0.031592607 0.21080193 -0.06820627
0001e0 70 77 85 bd a3 6f 71 3e 24 7e d7 3d 42 87 15 3e
       -0.065169215 0.23577742 0.10522106 0.14602378
0001f0 c0 0d 00 80 d8 0d 00 00 c6 0d 00 80 b4 0d 00 80
       -4.933e-42 4.966e-42 -4.941e-42 -4.916e-42
000200 25 3d 25 3e 3d dc b9 bd d0 80 04 bd 13 0a 11 be
       0.16136606 -0.0907521 -0.032349408 -0.14164
000210 98 90 2d be 26 c5 69 be 8b 7c 25 bd a2 54 86 3e
       -0.1694969 -0.22829112 -0.040401977 0.26236445
000220 f0 0d 00 00 b2 0d 00 80 1e 0f 00 00 da 0d 00 80
       5e-42 -4.913e-42 5.423e-42 -4.969e-42
000230 eb 3f 07 3e 9f 1c 8d be 6b a3 39 be cc 5a 7d 3d
       0.13207977 -0.275609 -0.18128745 0.06185417
000240 60 dc 53 3c f9 49 1e 3e 6d 2d 07 be 38 1a c8 bc
       0.012930959 0.15457906 -0.13200922 -0.024426565
000250 44 0e 00 00 c8 0d 00 00 b2 0d 00 00 e9 0d 00 00
       5.118e-42 4.944e-42 4.913e-42 4.99e-42
000260 48 10 e5 bd ae b6 8f 3e 10 9d 22 3e ee 95 a7 3c
       -0.11184746 0.2806906 0.15880227 0.020457234
000270 e0 cb 14 be 73 ae 59 be a2 68 06 3e f3 5d 32 3e
       -0.14530897 -0.21257953 0.13125852 0.17418651
000280 be 0d 00 00 0e 0e 00 00 cc 0d 00 80 f6 0d 00 80
       4.93e-42 5.042e-42 -4.95e-42 -5.008e-42
000290 53 4b 19 3d 95 29 a5 bd ee 81 7c 3d b4 44 9f 3d
       0.03742535 -0.08064572 0.061647348 0.07776776
0002a0 97 c5 4c 3e 8d aa 1c 3e aa 70 cd 3d 94 7a a1 3d
       0.1999725 0.15299435 0.100312546 0.07884708
0002b0 c7 0d 00 80 ca 0d 00 00 db 0d 00 80 c2 0d 00 80
       -4.942e-42 4.947e-42 -4.97e-42 -4.935e-42
0002c0 f7 fa 9c bd 42 d8 0d 3b 45 8f 54 3e b6 24 39 be
       -0.07665055 0.0021643792 0.20757778 -0.1808041
0002d0 78 df e0 3d 30 eb 3c be e9 f7 01 be 14 4a c3 bd
       0.10980123 -0.18449092 -0.12692226 -0.09535614
0002e0 b1 0d 00 00 ad 0d 00 00 bc 0d 00 00 40 0e 00 00
       4.912e-42 4.906e-42 4.927e-42 5.112e-42
0002f0 fb c7 62 3d 1f 06 94 bc f3 a3 bd bd c0 a2 14 3e
       0.055366497 -0.018069325 -0.092597865 0.14515209

conv1.bias f4 [16]
000000 d3 05 87 36 fd 75 99 b6 67 2d d2 35 cf 2f a1 b6
       4.0239916e-06 -4.573491e-06 1.5659433e-06 -4.8037396e-06
000010 64 f6 b6 b5 27 e2 d3 36 3b 3e 06 37 1d 6a 97 b7
       -1.3631766e-06 6.3146176e-06 8.001512e-06 -1.8050016e-05
000020 99 54 96 b5 d6 1e 90 36 6e b7 0c b6 0b 2d f2 36
       -1.1200492e-06 4.295124e-06 -2.0968396e-06 7.2174057e-06
000030 9f b5 8b b6 8a 0d ec b6 a1 5a 8e b5 a1 63 61 b5
       -4.1636663e-06 -7.0349242e-06 -1.0606201e-06 -8.396401e-07

bn1.weight f4 [16]
000000 1b da 78 3f d8 89 6f 3f ff 3a 76 3f bc a6 73 3f
       0.972078 0.9356971 0.9618377 0.9517629
000010 05 4d 7b 3f 12 87 71 3f f2 c0 76 3f 9e 7e 6a 3f
       0.981644 0.94346726 0.9638816 0.9159945
000020 73 58 67 3f 4f 94 6f 3f e4 39 78 3f 3a 1b 79 3f
       0.9036934 0.93585676 0.96963334 0.9730717
000030 59 66 74 3f 52 6a 75 3f 4a 31 72 3f ee 84 77 3f
       0.9546867 0.95865357 0.9460646 0.9668721

bn1.bias f4 [16]
000000 2a 74 c1 bc 07 57 c0 3c c3 55 89 bc 8f 76 9f 37
       -0.023614962 0.023478998 -0.016764527 1.9009485e-05
000010 97 46 49 3d de 10 79 bb bd 9d 21 3c 8d 75 f4 3c
       0.049139585 -0.0038004438 0.009864268 0.029841209
000020 88 25 0d 3c 34 a1 c7 bb 28 75 11 3b d4 30 15 bd
       0.008614905 -0.006092215 0.0022195075 -0.03642352
000030 2a 8e 9b 3c 0b 29 ff bc 74 14 74 3c 53 41 a8 3c
       0.018988688 -0.0311475 0.0148974545 0.020538962

bn1.running_mean f4 [16]
000000 be d1 a5 c2 1f fe 17 42 5a fc 9d 42 b4 59 ef 41
       -82.90965 37.998165 78.992874 29.9188
000010 7f 89 81 c2 3c ed 2a 41 f2 f6 4f c2 00 80 63 c2
       -64.76855 10.682919 -51.991158 -56.875
000020 ca 0a b0 c2 c4 0d 5e 42 32 09 09 42 67 77 5b c2
       -88.02107 55.513443 34.25898 -54.866604
000030 65 25 45 42 33 b7 14 41 f2 c2 51 42 e2 c2 ab c1
       49.28652 9.294726 52.440376 -21.470158

bn1.running_var f4 [16]
000000 be 33 7e 43 3a e5 d6 41 fa 84 dc 42 f2 b2 07 43
       254.20212 26.861927 110.25972 135.699
000010 44 ac 71 42 d4 48 bd 42 21 fc 06 42 4d a9 5a 41
       60.41823 94.64224 33.74622 13.666333
000020 1f 3f 95 41 11 63 1c 43 6c 10 1b 43 22 0a 2f 41
       18.65582 156.38698 155.06415 10.939974
000030 4b a0 7d 42 ac 4a 82 41 dc af 40 43 2a 71 a9 42
       63.406536 16.28646 192.68695 84.72102

conv2.weight f4 [32, 16, 2, 2]
000000 ef 3e 81 3d d2 a1 6e 3d 42 dd 3d 3d d9 39 c8 3b
       0.06310832 0.058259793 0.046353586 0.0061104116
000010 68 be 82 3c 20 3a 87 bd ca ab 9e 3d 4b ec f4 3c
       0.015959933 -0.06602883 0.0774761 0.02989783
000020 f6 36 0f 3d 6f 1f a0 3d 2c f1 7f 3d a0 1b c6 3d
       0.034964524 0.078184955 0.06248586 0.09673238
000030 36 20 26 bd b8 80 b0 bd d7 13 0f 3e 72 25 bd 3d
       -0.040558062 -0.08618301 0.13972412 0.09235658
000040 6a da c8 bc f7 12 b5 bd ca a2 9c bd 82 df a5 3d
       -0.02451821 -0.08841508 -0.07648237 0.08099271
000050 ef 3b b8 bd e8 c3 57 3c e4 83 74 3d e4 dc 93 bd
       -0.089958064 0.013169266 0.059696093 -0.07219866
000060 b4 7d b1 3d a8 85 d1 bd 1d 72 b2 bd 3f e7 4c 3d
       0.08666554 -0.10230571 -0.08713172 0.05002522
000070 f4 2c e5 3c bf 4a 8f 3d e4 e6 4c bd 01 f3 88 bd
       0.027975537 0.069966786 -0.050024882 -0.06686974
000080 11 23 a1 3d d8 39 ba bd 2a 19 76 bd 2a 08 8d bd
       0.078680165 -0.09093064 -0.060082592 -0.06886323
000090 30 b1 cb bd b3 e8 08 3d d0 2b 0b 3d fb bf 47 bd
       -0.09945905 0.033425044 0.03397733 -0.04876707
0000a0 cb 2a e3 bc 29 17 79 bd ae 80 fb 3d b8 a9 81 bd
       -0.027730366 -0.060813103 0.12280403 -0.063311994
0000b0 00 f9 65 3d e3 e4 a6 bd 36 c0 be 3a bd 84 1e 3d
       0.056145668 -0.081491254 0.0014553133 0.038700808
0000c0 33 2e cc 3d 9c d7 93 3d 85 e3 95 bd c5 ef a4 bd
       0.09969749 0.072188586 -0.073187865 -0.08053545
0000d0 ff 8f 10 3c 84 71 47 bc ff 96 51 bd 74 c9 0a be
       0.008823394 -0.01217306 -0.05116939 -0.13553411
0000e0 02 30 66 3c c0 0c 91 3d 24 a3 e9 3d ed f9 a1 bd
       0.014049532 0.0708251 0.1140807 -0.07908998
0000f0 e8 7f b5 3d b5 ab 4e bd 23 67 82 bc 87 e6 e0 bd
       0.08862287 -0.05045672 -0.01591832 -0.109814696
000100 d1 98 07 3d c1 6d 04 bd 7c 80 f6 bb 33 91 03 3e
       0.03310472 -0.032331232 -0.0075226407 0.12848358
000110 fc 80 ee bd e2 3e 47 3d 3b 66 1f bd 0b 16 f4 bb
       -0.116456956 0.048643954 -0.038915854 -0.007448917
000120 24 ad 56 bc ae 00 df 3d cb c5 d3 3d 84 fc 95 bd
       -0.013102803 0.108888015 0.103404604 -0.07323554
000130 ae fa b2 bd 24 d2 38 bd e4 39 cb 3d b8 5f ef 3d
       -0.087392196 -0.04512228 0.09923151 0.11688179
000140 cb 6d eb bd f4 bb 96 bd 45 8a f2 bc 46 8c fa 3d
       -0.11495551 -0.07360068 -0.029606948 0.12233786
000150 f9 da 5d 3d a8 b8 8a bb 1d 0b d8 3d 5e 34 96 bc
       0.054163907 -0.0042334385 0.10548995 -0.018335517
000160 54 df 52 3c e1 a6 e3 3b b4 d2 0b 3d dc 24 08 be
       0.012870628 0.0069473838 0.03413649 -0.1329531
000170 42 e7 de bb 46 2d 12 bc b3 dc 22 3d d7 05 3b 3d
       -0.0068024704 -0.008921927 0.039761256 0.045659866
000180 36 d2 57 3d 3e 57 8b 3d 5a 31 71 bb 00 8f 78 3b
       0.052690707 0.068037495 -0.0036803097 0.0037927032
000190 d8 aa aa bd db 54 4e bb f9 73 78 3d 26 d9 f7 3d
       -0.08333367 -0.0031483683 0.060657475 0.12101965
0001a0 fc 35 ac bd 4d 49 cf bd a9 df d4 3d 96 d5 75 bd
       -0.08408734 -0.10121403 0.10394222 -0.060018145
0001b0 ac 15 95 3d e7 a7 45 bd 8f 1c f8 bd e7 78 77 3d
       0.07279524 -0.048255827 -0.12114822 0.060418036
0001c0 79 e0 2e 3d 16 c8 35 bd da b9 80 bd 6f 77 c1 bd
       0.042694543 -0.04438027 -0.06285448 -0.09446608
0001d0 38 a8 68 3d fd ee cc bc da d8 d8 3d 80 f1 ca 3d
       0.05680105 -0.025016302 0.10588236 0.09909344
0001e0 dc 52 23 3d 3e c1 2f bd 5a fa 0f bd d7 ad 95 bd
       0.039873943 -0.0429089 -0.035150863 -0.07308548
0001f0 73 dc cd bc b2 48 80 bd 3b c3 d0 bd 33 9c 9e 3c
       -0.025129532 -0.062638655 -0.10193487 0.019361591
000200 81 87 cb 3d 75 5e 6a bd 6e d9 ae 3c 30 33 a8 3c
       0.09937955 -0.057218987 0.021343913 0.02053222
000210 48 a4 a8 3d ab 26 d2 bd ab 6d 79 3d 4d b5 28 bd
       0.08234459 -0.102612816 0.060895603 -0.041188527
000220 09 fd 13 3c 98 73 6f 3d ba 1f 7f bd 63 1d 29 bd
       0.009032496 0.05845985 -0.062286116 -0.04128779
000230 be 15 5b 3d 27 62 80 bd f5 39 cd bd 1f e3 31 bc
       0.05348753 -0.06268721 -0.1002082 -0.010857373
000240 bd 0a 82 bc dc 4b ad 3d ec 1e 00 3e f2 de aa 3c
       -0.015874261 0.08461735 0.12511796 0.020858262
000250 4d 03 af 3d a0 f2 72 bd 2c af 9d bd bf d0 22 bc
       0.085455514 -0.059313416 -0.07699427 -0.009937464
000260 f2 72 b5 3d ec 2a 97 bd 51 c3 b9 3b 10 74 70 3d
       0.08859815 -0.073812336 0.0056690355 0.058704436
000270 2f 34 7c 3d dd 26 82 bd f0 18 7d 3d b2 c1 b5 3d
       0.061573204 -0.06355069 0.06179136 0.08874835
000280 54 d2 83 bd c7 6a 92 3d f5 3a c6 bd f7 f2 43 bd
       -0.06436601 0.071492724 -0.09679214 -0.04783913
000290 65 b3 3d 3d 44 b7 0f 3d 27 47 be 3d a1 76 81 3d
       0.046313662 0.035086885 0.09290915 0.06321455
0002a0 fd 28 cb 3d 19 c8 8d bd e1 ab d5 3d 38 d2 83 3d
       0.09919927 -0.06922931 0.10433174 0.064365804
0002b0 cb 90 3e bd 10 7b 43 bd ee a3 f3 3c 86 01 5a 3d
       -0.046524804 -0.047724783 0.029741254 0.05322411
0002c0 f8 1f a0 3c ec 8f 8a bd 80 93 cd bd a5 aa 59 bd
       0.019546494 -0.06765732 -0.10037899 -0.053141255
0002d0 2f 7f 29 bd bd b7 4e bb ae 98 b7 ba fe d1 93 bd
       -0.041381057 -0.0031542622 -0.0014007294 -0.07217787
0002e0 57 20 d1 bc 54 1f a0 bd 94 11 f8 3d a3 74 dd 3d
       -0.025528116 -0.07818475 0.12112728 0.10813262
0002f0 8d 0f f0 bd e7 92 88 bd c0 40 49 3d 05 21 10 3d
       -0.11721716 -0.066686444 0.049134016 0.03518774
000300 53 9c d8 3c 97 da b2 bd 65 d3 c8 3d 61 e6 02 3e
       0.026441729 -0.08733099 0.09805945 0.12783195
000310 24 d5 da bd 93 bd 0c bd c6 53 a2 bd 25 e8 0b bc
       -0.106851846 -0.03436048 -0.07926135 -0.008539234
000320 c7 67 8b bd 32 7b 9a 3c 48 3f 94 3c b6 9c b5 3d
       -0.06806903 0.018857572 0.018096581 0.08867781
000330 e7 bb 25 bd bf 66 95 bd bb d9 af 3d eb 11 8c bc
       -0.0404624 -0.07294988 0.08586451 -0.017098388
000340 e7 04 e3 3c 70 59 8a 3c 83 28 86 bc 2d e8 a5 3d
       0.027712299 0.01688835 -0.01637674 0.08100925
000350 91 84 ca 3c 15 e0 a2 bd 9a c7 42 bd 5e 96 0e bd
       0.024721416 -0.079528965 -0.047553636 -0.03481137
000360 8d d2 e1 3d 5a 1c ec bc 8f da f2 3c dd 46 12 3d
       0.110264875 -0.028822113 0.029645232 0.03571211
000370 d7 0b 0c be 3d 0a 72 3c b9 09 a1 bd 3b bf 10 bb
       -0.13676392 0.014772949 -0.078631826 -0.0022086638
000380 d6 29 3b 3d fa d7 b5 bc 18 48 c4 bc 8b f7 42 3b
       0.045694195 -0.022197712 -0.023960158 0.0029749598
000390 1c ca 66 3b 2d dc c2 bc e4 b7 08 3b 38 6c 33 bd
       0.0035215681 -0.023786629 0.002086156 -0.043804377
0003a0 85 63 a8 3d 87 a1 93 3d b1 a7 22 bd 7f 1f 45 3b
       0.08222107 0.07208543 -0.039710704 0.0030078588
0003b0 c0 12 6a bd 75 11 c4 bd 7a 9a cb bd ca 2c 9e 3c
       -0.057146788 -0.09573642 -0.099415734 0.019308466
0003c0 64 0c 42 bc fc 97 b3 bd 61 5f 32 bd 71 b8 6c 3c
       -0.0118437745 -0.08769223 -0.04354799 0.014448271
0003d0 a9 79 f7 bd d1 2e ae bd e6 b4 5f bd 0d 14 27 3d
       -0.12083752 -0.08505023 -0.054615878 0.040790606
0003e0 19 94 9f bd 8b a3 f0 bd 36 c0 77 3d f3 56 a3 bd
       -0.07791919 -0.11749943 0.06048604 -0.079755686
0003f0 50 74 94 3d d7 40 05 3e 13 b4 4c bd 00 05 af bd
       0.07248747 0.13013016 -0.04997642 -0.085458755

conv2.bias f4 [32]
000000 dd 48 35 b7 82 01 b1 36 a5 9a 1a 37 93 83 40 b7
       -1.08054055e-05 5.2751866e-06 9.215121e-06 -1.1474726e-05
000010 7b 71 7d b8 37 d3 17 b8 05 55 c9 b7 f8 fe 6b 36
       -6.0425587e-05 -3.6197915e-05 -2.4000658e-05 3.516614e-06
000020 94 9b d7 36 fc 2a 9f 36 58 a6 61 38 bd 06 3b 36
       6.425611e-06 4.7435733e-06 5.37991e-05 2.7869094e-06
000030 aa d4 88 36 6d d1 ac 37 70 ca d5 b7 0a 82 52 36
       4.077873e-06 2.060152e-05 -2.5485846e-05 3.1368131e-06
000040 79 96 ca b7 33 e8 34 38 2b 78 c0 b7 e0 ec 3f 37
       -2.4150346e-05 4.3131597e-05 -2.2944141e-05 1.1439639e-05
000050 a0 c7 24 38 bf 35 6f 36 97 45 08 b7 0b fe 2d 38
       3.9286562e-05 3.564506e-06 -8.122434e-06 4.148301e-05
000060 b3 3a ff 37 08 40 17 38 ac a5 d1 36 6a 84 21 b8
       3.0425703e-05 3.606084e-05 6.247972e-06 -3.850871e-05
000070 95 7e 26 b7 9e b8 28 b8 3e b8 48 b8 ec 77 b4 b7
       -9.923843e-06 -4.022626e-05 -4.7855305e-05 -2.1513515e-05

bn2.weight f4 [32]
000000 73 68 70 3f 17 fe 5a 3f 94 0f 73 3f 5c b8 6d 3f
       0.93909377 0.8554396 0.94945645 0.92859435
000010 43 3f 6d 3f 10 71 6b 3f 0c bb 64 3f 44 79 60 3f
       0.92674655 0.91969395 0.8934791 0.87685037
000020 cc 48 5d 3f bb fa 6e 3f 77 bb 6d 3f 14 41 5e 3f
       0.86439204 0.93351334 0.92864174 0.8681805
000030 fa 63 63 3f 00 99 73 3f 92 34 71 3f e7 c1 6f 3f
       0.8882443 0.95155334 0.9422084 0.93655246
000040 18 a9 62 3f 4c f8 66 3f b6 9b 70 3f 7c d8 69 3f
       0.88539267 0.9022262 0.93987596 0.91345954
000050 73 ea 71 3f 0c 36 64 3f 53 46 57 3f 76 20 74 3f
       0.94498366 0.8914497 0.8409168 0.9536203
000060 aa ef 6c 3f 1b bb 63 3f 0e d3 71 3f f8 1a 70 3f
       0.925532 0.88957375 0.9446267 0.9379115
000070 3e 0b 62 3f 5c cc 6b 3f 6d 58 67 3f b1 d9 6e 3f
       0.88298404 0.921087 0.903693 0.9330092

bn2.bias f4 [32]
000000 87 5e f0 bb 11 9c e7 bb 6d 66 f8 ba 10 d2 51 3d
       -0.0073354873 -0.007068165 -0.0018951424 0.05122572
000010 16 2c 8d 3b 56 ec 6d bc 0e 7e a5 bc b9 13 99 3c
       0.004308234 -0.014521679 -0.02020171 0.018686162
000020 a8 c0 11 3c 2b 81 25 ba f1 ca af bb c7 a7 14 3d
       0.0088960305 -0.0006313498 -0.0053647687 0.036292817
000030 d8 ca 83 3c 21 80 76 bc 8d ef f2 bb 16 ec 2d 3d
       0.016087934 -0.015045197 -0.0074138106 0.042461477
000040 62 04 2d 3c 78 0e b5 bc 02 87 37 bd 6e 1f 04 3c
       0.010560127 -0.022101626 -0.044806488 0.008064134
000050 25 b1 54 bd 4a 7e 23 3b 5b ec b6 bc d4 be 9b bc
       -0.05192675 0.00249471 -0.0223295 -0.019011892
000060 cf 73 5d 3c 46 7c d5 bb 9b de 47 bc 3d 93 6b ba
       0.01351638 -0.0065150587 -0.012199069 -0.0008986479
000070 75 7d 77 bb cf 67 50 39 94 32 53 bc f2 ed 65 3c
       -0.0037763987 0.00019875097 -0.012890477 0.014033781

bn2.running_mean f4 [32]
000000 ca a7 fd 3d 88 b5 60 3d 34 7c f4 3d 44 15 26 be
       0.12385519 0.05486062 0.11937752 -0.1621905
000010 90 b3 b3 bd 28 ca e2 be 2b 7c 0d bd d4 c0 e3 bd
       -0.08774483 -0.44294858 -0.034542244 -0.111207634
000020 90 6b 14 be e7 76 c2 bd ca bd 39 bc 33 ee 70 be
       -0.14494157 -0.09495335 -0.011336753 -0.23528366
000030 4c b7 35 be 8b b8 7c 3e 45 3d 7c 3e b4 88 8b be
       -0.17745703 0.24679773 0.24632747 -0.27252734
000040 97 e3 71 3d f2 39 13 bd 1e fe a8 3d 18 84 6b bd
       0.059054937 -0.035943933 0.08251594 -0.05749902
000050 61 40 c2 3d 32 53 7f be f8 d0 98 be 6e 1d 77 3e
       0.094849356 -0.2493408 -0.2984693 0.2413232
000060 95 96 75 be ee 4e bd 3d 61 4e 7b 3c b3 10 72 3d
       -0.23983224 0.0924357 0.015338511 0.059097957
000070 79 1c 9f bd 9a 0a 00 3e 97 45 bc be 1c 78 8b be
       -0.077691026 0.12504044 -0.36771843 -0.27240074

bn2.running_var f4 [32]
000000 03 05 32 3e 67 12 a2 3d 67 c0 ee 3d 07 ff 05 3d
       0.17384724 0.07913666 0.116577916 0.032713916
000010 c3 05 0e 3e c8 45 d2 3d 1b e8 4f 3d 4d 05 42 3d
       0.13869385 0.10267216 0.050758462 0.047368336
000020 f8 d7 f6 3d 93 cd 0c 3d cf a4 e0 3c 21 66 12 3e
       0.120529115 0.03437574 0.027422337 0.14296772
000030 3a 74 13 3d 5b 92 38 3d 4d 57 6f 3d f5 ff b3 3d
       0.035999514 0.04506145 0.058432866 0.08789054
000040 68 04 f1 3c d7 ab de 3c 8e 15 73 3c a9 6f fe 3d
       0.029421046 0.027181549 0.014836682 0.12423641
000050 c6 67 ce 3c fd c1 01 3e e2 eb 88 3e 28 47 b8 3c
       0.025195967 0.12671657 0.26742464 0.022494867
000060 10 a5 e0 3d da 51 68 3d f7 9f 10 3e de 44 37 3e
       0.10968983 0.056718685 0.14123522 0.17897364
000070 b1 5a 02 3e 56 48 e9 3c 07 ab ef 3d 2c 52 1f 3e
       0.12729909 0.028476875 0.11702543 0.1555869

conv3.weight f4 [16, 32, 2, 2]
000000 82 12 40 3d 43 b7 96 3d e9 60 68 3c cf 23 b4 3d
       0.04689265 0.07359173 0.014183261 0.087958924
000010 e6 29 78 3b 61 8c 1c bd d1 81 30 3d 30 14 05 bd
       0.003786677 -0.038219813 0.043092553 -0.032489955
000020 ba 8a f2 3c 89 3b 59 bd bc 10 a0 3d 04 5b d4 3c
       0.029607166 -0.053035293 0.07815692 0.025922306
000030 68 6e cb 3d 7c aa 5f 3d f9 b2 aa 3d 76 1f 0a bd
       0.09933168 0.054605946 0.083349176 -0.03372141
000040 79 b9 76 3d 4c d8 79 3d 0c ce 45 3d 97 0f 99 bc
       0.060235474 0.060997292 0.048292205 -0.018684192
000050 d5 c7 b7 bc b4 e9 7c bc 25 5f ea 3c 7d 79 85 bc
       -0.022434155 -0.015436579 0.028609822 -0.016293282
000060 b0 4f 5d bb be 7c a9 bc 88 9a 44 3d 1c a2 db 3c
       -0.0033769421 -0.020689365 0.047998935 0.026810698
000070 ad c3 c2 38 6a c8 15 bc 77 33 13 3d 06 b0 70 bd
       9.287088e-05 -0.009142021 0.035937753 -0.05876162
000080 ef 51 46 3c 3e e1 36 bd 11 69 ed bb d3 07 0b 3d
       0.012104495 -0.0446484 -0.007245191 0.03394301
000090 4c 59 a6 3d a2 9d bf 3d df 48 6a 3c 08 dc 21 bd
       0.08122501 0.09356238 0.0142996 -0.03951648
0000a0 dc 54 96 bc c9 01 29 3d c4 ba ba bc d5 1a 20 3d
       -0.018351011 0.041261468 -0.022794135 0.03908809
0000b0 a4 5f cf bd fd 32 e7 39 f1 e1 19 ba 1b f1 18 bc
       -0.10125664 0.00044097743 -0.0005870155 -0.009334828
0000c0 06 99 6b 3d 78 68 95 bc c2 6b 68 3d 91 cf cb bb
       0.05751898 -0.018238291 0.05674339 -0.006219812
0000d0 67 b0 12 bd de b4 40 bd c5 f0 81 bd f5 2e 64 bd
       -0.03581276 -0.04704749 -0.06344751 -0.055708844
0000e0 da 86 7b 3d a4 98 31 3d c7 2c 64 bc 37 c2 11 3d
       0.0614079 0.04335846 -0.013926691 0.03558561
0000f0 c9 5d ce 3c 42 8d 83 bd 66 8d 83 3d b9 a1 54 3d
       0.025191205 -0.06423427 0.06423454 0.051912043
000100 c1 08 03 bd 4a d7 11 bd a5 bf 6c 3a 9d 04 19 3d
       -0.03199077 -0.035605706 0.0009031243 0.037357915
000110 ca e3 2c 3d 5a a3 f0 bc 87 7f af bc f2 45 12 3c
       0.042209424 -0.029374767 -0.021423114 0.008927809
000120 c7 d9 8a 3c 0b 3b 7c 3c 73 d4 a0 3d e3 3f a1 bc
       0.016949547 0.015394936 0.078530215 -0.019683784
000130 e2 a6 c5 bc cc 90 77 3d 9a c8 31 3d 3e 4d 94 3d
       -0.024127427 0.060440823 0.0434042 0.07241295
000140 d9 87 35 3d bc c5 9e 3d d1 9d 19 bb fc 8e 91 bb
       0.044319008 0.077525586 -0.0023440013 -0.004442094
000150 0b 53 0d 3d 5f ad 86 3d 35 8d 3f bd e7 6f 26 3d
       0.034503024 0.06576037 -0.046765525 0.040634062
000160 fe 35 b6 bc 99 5b 4e 3c 17 53 1b 3d 02 0f 22 3c
       -0.022242542 0.012595081 0.037921038 0.009891273
000170 5a 05 d1 3d 2b 6b ce 3c 79 61 60 3b 58 2a 42 3d
       0.10206099 0.025197586 0.0034237786 0.047403663
000180 e0 51 56 bd 40 e7 87 bc 51 8e a3 bc 05 2c 63 bd
       -0.052324176 -0.01658976 -0.019965323 -0.055461902
000190 9b b3 b5 3d 2a db 04 3d 77 74 23 3c 03 bf 74 3c
       0.08872148 0.032435574 0.009976498 0.014938119
0001a0 14 3a 56 3c a4 7c c4 3b 50 50 25 bd bb 41 4a 3d
       0.01307537 0.0059963036 -0.040359795 0.04937909
0001b0 75 80 e8 bc 62 13 fc bc 60 26 57 bd a7 08 8d 3d
       -0.028381566 -0.030770961 -0.05252683 0.06886416
0001c0 0a e0 9b 3d 19 5e 88 bd 3f 14 42 3d 0e eb af bd
       0.076110914 -0.06658573 0.04738259 -0.08589755
0001d0 e2 ce 3d bd f0 f0 0a 3d af 57 35 bd 1b 31 d2 3c
       -0.046339877 0.033921182 -0.044273075 0.025658181
0001e0 2e 12 b5 bd 73 d9 5a bc 42 99 30 3d 1b 77 1f 3d
       -0.08841358 -0.013357508 0.043114908 0.038931947
0001f0 3b d1 1b bd f2 7c a6 bd 32 24 18 bd 54 e7 e9 bc
       -0.038041335 -0.081293 -0.037143894 -0.028552689
000200 56 a2 83 bb 4f c3 6e bc 3a b1 71 bc 07 28 c0 3c
       -0.0040171547 -0.014572932 -0.014751727 0.023456587
000210 2f 12 f5 3c eb 56 4c 3c 67 3a 46 3d e0 56 76 3d
       0.029915897 0.012471895 0.04839554 0.060141444
000220 74 f5 dc 3c 07 9d 10 3d 4f f8 b6 bd b1 a2 8e bb
       0.02697251 0.035306003 -0.0893408 -0.0043528904
000230 db c1 b2 bc 8e 22 a7 3d 00 19 1c bb 27 f4 1f 3c
       -0.021820953 0.08160888 -0.0023818612 0.0097628
000240 3c df f6 3c 81 d9 a7 bc 6f c4 93 3d 78 c8 a2 bd
       0.030135743 -0.020489456 0.07215201 -0.07948393
000250 39 4b 6a 3d 97 0c 9a bd 8a a5 b4 bd 2b 75 06 be
       0.057200644 -0.075219326 -0.088206366 -0.13130634
000260 0d 24 86 3d df 65 9d bc 0a 5b cc 3c 95 50 e9 bc
       0.06549845 -0.019213615 0.024945755 -0.028480807
000270 d5 e7 d9 bb c6 85 28 bd a2 35 a4 3b 63 dc 53 bc
       -0.006649951 -0.0411432 0.0050112763 -0.012930962
000280 d8 4d 26 bc 75 8c a0 3d 27 eb aa bd 37 b0 25 bd
       -0.010150395 0.0783929 -0.08345633 -0.040451255
000290 96 6c 23 bc 8e 71 0b 3d 24 7d 10 3d c0 fb b2 bd
       -0.009974619 0.03404384 0.035275593 -0.08739424
0002a0 94 9a 81 3d 7a e8 f4 bb 37 1a 17 bd 4b de ce 3d
       0.063283116 -0.0074740024 -0.036890235 0.10100993
0002b0 b2 40 f1 bb 0a 02 ef bd 09 18 80 3d 6b d6 1b bd
       -0.0073624486 -0.11670311 0.06254584 -0.03804628
0002c0 6d 54 9e bb 84 df 2a bd 8a 91 a4 3c 27 72 8e 3c
       -0.0048318417 -0.041717067 0.02008893 0.017388416
0002d0 8b c5 2f bd 0c 15 b6 ba a8 c6 4b bd b7 53 1b bd
       -0.042913 -0.001389177 -0.04975 -0.037921634
0002e0 54 45 9c 3d 67 9b 5f bb e0 ad 69 3d 3b cb 4e 3d
       0.07630411 -0.0034119727 0.057050586 0.050486784
0002f0 b1 d3 80 bc c2 58 b6 3d f2 6f 28 3d d8 48 6a bd
       -0.015725942 0.08903648 0.041122384 -0.057198375
000300 3f af 44 bd 46 c7 96 3d 0c 19 02 bd 46 7f 51 bc
       -0.04801869 0.07362227 -0.031762168 -0.012786692
000310 0b 14 83 bd e7 d6 9e 3d ae a1 5a bc d3 82 f4 ba
       -0.06400307 0.07755833 -0.0133442115 -0.0018654711
000320 5b 15 75 ba 83 85 1a bd df 48 25 bd fa e7 93 bd
       -0.00093491905 -0.037724983 -0.0403527 -0.072219804
000330 d0 d6 27 bc 19 ad 95 bc e1 e1 16 3d ff 41 0d bd
       -0.010244086 -0.018271016 0.03683651 -0.034486767
000340 21 65 8a bc 11 2e 36 3c e6 08 1c 3d ea 5b 57 bd
       -0.016893925 0.0111193815 0.038094424 -0.05257789
000350 47 e2 1d bd f9 77 62 bd e2 cd 87 3d 85 7c b0 bd
       -0.038545873 -0.055290196 0.06631066 -0.086175
000360 36 df 17 3d c1 4b 87 bd 85 a8 89 bd 49 28 9e 3d
       0.037078105 -0.06606246 -0.06721596 0.077225275
000370 dd 21 b9 bc 71 5f 51 3d 35 80 5d bd 07 ae a7 3d
       -0.022599155 0.05111641 -0.054077346 0.0818749
000380 dd bb 4a 3d 5e b9 e8 bc 32 9f 4e 3d 01 3e a9 3d
       0.049495567 -0.028408702 0.05044479 0.082637794
000390 41 f4 a8 3d fc fe 74 bd 07 3b 26 3d 62 3b 38 3d
       0.08249713 -0.059813485 0.040583637 0.044978507
0003a0 1e 7f ca bc e9 b4 ae 3d 09 7d 92 3c 87 a7 6f 3d
       -0.024718817 0.085305996 0.017881887 0.058509376
0003b0 42 d9 04 bc 2a 66 4e 3d 94 db 97 3d 8f ba 59 3c
       -0.008108439 0.0503904 0.07414928 0.013289108
0003c0 d8 70 1e bd c5 23 45 3d 35 b2 53 3d 35 b5 00 3d
       -0.038681835 0.048129816 0.051683623 0.031422812
0003d0 44 98 2e 3d 41 f3 8f 3d 08 a2 ca bc 94 5b 11 3d
       0.04262568 0.07028819 -0.024735466 0.035487726
0003e0 dc b6 83 3c 7b f5 de bd c2 10 32 bb 0e 0e 53 3d
       0.016078405 -0.108866654 -0.0027170633 0.051527075
0003f0 22 ad 23 bd ed 14 04 bd 5e 51 b2 3b 44 d6 9e 3d
       -0.039960034 -0.03224652 0.0054418286 0.07755712

conv3.bias f4 [16]
000000 e4 a3 d9 35 b0 05 0f b8 66 4a 0c b8 49 5b 09 b7
       1.6215458e-06 -3.4099154e-05 -3.344789e-05 -8.18709e-06
000010 71 20 2a b6 81 e8 17 38 ee 96 80 b8 ec 62 0f 38
       -2.5350857e-06 3.621774e-05 -6.1316285e-05 3.4185985e-05
000020 bf 96 2c 38 57 8c cf 37 2a 41 6f 37 04 6f a2 37
       4.114839e-05 2.4741674e-05 1.4260682e-05 1.93636e-05
000030 f4 28 f2 b7 4f 44 d4 b7 ba 47 72 36 5b 72 8a 37
       -2.8867718e-05 -2.5304178e-05 3.610256e-06 1.6504133e-05

bn3.weight f4 [16]
000000 cd 17 72 3f 09 a0 70 3f 6b 58 71 3f 13 aa 71 3f
       0.9456757 0.93994194 0.9427554 0.9440014
000010 39 e5 54 3f 9e 1a 6f 3f ff c2 6e 3f ca a6 68 3f
       0.83162266 0.9339999 0.9326629 0.908795
000020 82 d4 72 3f bc 7b 6c 3f 13 ca 6b 3f 55 48 73 3f
       0.9485551 0.92376304 0.92105216 0.95032245
000030 aa 50 65 3f 31 2b 74 3f d0 47 74 3f 51 57 6e 3f
       0.8957621 0.95378405 0.9542208 0.93101984

bn3.bias f4 [16]
000000 b2 e7 a1 bc af 00 92 3c 00 cb a2 3c 6b a2 8e bb
       -0.019763801 0.017822592 0.019872189 -0.004352858
000010 54 6a b9 bc b9 db ab bc a0 48 1c 3b e6 2d 01 bd
       -0.022633709 -0.020978795 0.0023846999 -0.031537913
000020 a8 6a 24 bd 13 bf 85 bc ba 24 e2 bc 88 f2 a0 bb
       -0.040140778 -0.016326463 -0.027605403 -0.0049117245
000030 5e 45 1a 3c ff 22 ec 3c 0b c9 cd 3c 2d 04 3c bc
       0.0094159525 0.028825281 0.025120279 -0.011475605

bn3.running_mean f4 [16]
000000 8b a7 b6 3e 05 f0 e4 3d 50 ab b9 be 4b 59 ce 3e
       0.356747 0.111785926 -0.36263514 0.403025
000010 18 09 0c be e6 30 4a 3c 25 90 02 be 5b 90 02 be
       -0.13675344 0.01234076 -0.127503 -0.1275038
000020 6f 53 dc 3e bc 65 0a 3e 60 76 cf 3e cd 62 d3 3e
       0.43032405 0.13515371 0.4052 0.41286317
000030 2f 75 60 3d 4d 09 04 be a9 43 e2 be a4 39 c8 3d
       0.054799255 -0.12894173 -0.44192246 0.09776619

bn3.running_var f4 [16]
000000 70 c6 fe 3d 06 fd b3 3d c0 9b 57 3d f7 dc 66 3d
       0.12440193 0.08788495 0.05263877 0.056363072
000010 d5 ba 23 3d ad 59 21 3d 47 28 04 3e f8 0f ce 3d
       0.0399731 0.039392162 0.1290599 0.100616395
000020 43 93 28 3d b4 ce 04 3e 16 84 56 3d 8f 4a 4a 3d
       0.041156065 0.12969476 0.05237206 0.04938751
000030 6b 71 ee 3d 35 b4 6d 3e be 77 7d 3d 80 bc 41 3d
       0.116427265 0.23213275 0.061881773 0.04729891

conv4.weight f4 [8, 16, 2, 2]
000000 a1 12 9a bd 4e d2 a3 3d be 0e f3 bc 44 2f 8a 3c
       -0.075230844 0.07999097 -0.029670116 0.016868241
000010 c6 8e 8b 3d 4d f8 c8 bd b2 a3 9c bd 1b 11 9c bd
       0.06814341 -0.098129846 -0.0764841 -0.0762045
000020 60 4a b7 3d cd d1 9f 3b 9f 17 03 bd 14 0f 57 bd
       0.08949733 0.004877305 -0.03200495 -0.052504614
000030 b2 1c e4 bd 8d 8c 59 3d 57 cb 89 bd 61 46 94 bd
       -0.11138286 0.053112555 -0.06728237 -0.07239986
000040 99 55 6f 3b ca 3f 35 3c c1 1b b5 bd 23 34 fd bc
       0.0036519526 0.011062572 -0.08843184 -0.03090865
000050 13 4e d2 3d 5c e1 b7 3c bd 9b c5 bd dc fd bc 3b
       0.10268798 0.022446327 -0.09648845 0.005767567
000060 6e 58 48 bd 29 a4 04 be b7 81 8a 3d ca 85 b3 3d
       -0.048912458 -0.12953247 0.067630224 0.087657526
000070 a5 9c cd 3c 82 66 8c bd b6 02 e8 3d e7 da cb bc
       0.025099108 -0.06855489 0.11328642 -0.024884654
000080 2b 4f c0 3d d1 b7 83 ba c9 de a5 3d 2c b9 b2 bd
       0.093901 -0.0010049288 0.080991335 -0.08726725
000090 9f be f6 bc ae f8 18 bd 5a 8b 35 3c 07 f1 a6 3d
       -0.030120192 -0.037346534 0.011080587 0.08151441
0000a0 3c 84 99 3d 11 c8 4a bc 32 32 c8 3d fa 53 c9 3d
       0.07495925 -0.012376801 0.09775199 0.098304704
0000b0 23 d4 2e bc 7e cd 4a 3d d0 17 1b 3c d7 b4 11 be
       -0.0106706945 0.04951238 0.009466127 -0.14229141
0000c0 d9 47 58 bd 02 7a 4a bd e8 04 cc bb 09 b5 78 3d
       -0.052802894 -0.049432762 -0.006226171 0.060719524
0000d0 5f 60 cd bd cc 11 fb bd eb cc aa 3d 89 69 16 bd
       -0.10028147 -0.12259254 0.08339866 -0.03672174
0000e0 ce c2 c4 bd 80 dc 8d bd cc b2 9d 3d 84 e3 51 bd
       -0.096074685 -0.06926823 0.077001184 -0.051242366
0000f0 1e 82 ad bd 05 79 96 bd ca d6 62 3d 7c f2 c3 3d
       -0.084720835 -0.073473014 0.05538062 0.095677346
000100 69 37 93 bd b5 6a a7 bd 50 12 d8 3d 08 6c 06 3d
       -0.07188303 -0.081746496 0.10550368 0.03281787
000110 24 66 13 3d d1 fa 93 3c 24 06 9e bd 45 f9 85 3d
       0.03598608 0.018063935 -0.07716015 0.06541685
000120 8f 67 68 bd 61 fa 57 3b 1d 41 ad bd ef 91 34 bd
       -0.056739386 0.0032955634 -0.08459685 -0.044084486
000130 db e3 8f 3d fb 6a 80 bd 7e a4 2d 3c 03 05 9e bd
       0.07025882 -0.06270405 0.0105983 -0.077158
000140 7b 39 c3 3c 86 d9 b1 3d 54 bc d6 3c 69 a0 b7 bd
       0.02383112 0.086840674 0.026212849 -0.08966143
000150 42 44 84 bd 65 78 a4 3d fa 2b 53 bd dc 11 bd bd
       -0.06458332 0.08030776 -0.05155561 -0.09231922
000160 34 e9 c5 3d d4 44 bf bd 0b 7b 78 3c 4a a3 3e bd
       0.096636206 -0.093393 0.0151660545 -0.046542443
000170 e1 b7 1c 3d 4d 05 df bd 38 92 d9 3d e8 8f ec bd
       0.038261298 -0.10889683 0.10623592 -0.115508854
000180 3b c0 c0 bd 11 0b 10 3d a3 27 80 bd f6 ba 06 be
       -0.09411665 0.035166804 -0.0625756 -0.13157257
000190 52 99 02 be 8e af 94 3d 78 de 14 bd bc ed e9 bd
       -0.127538 0.07260047 -0.036344975 -0.11422297
0001a0 65 25 b9 3d a4 d0 a2 bc 96 3d 77 bc 1b dc 07 3d
       0.090403356 -0.019874878 -0.015090367 0.033168893
0001b0 a5 e9 b9 3d f7 b4 cc bc 73 13 1f 3d 43 2d a9 bd
       0.09077767 -0.024988635 0.038836908 -0.08260586
0001c0 a7 3d 14 3e 92 8a 85 bd 7f c1 37 3c 7e a0 9c bd
       0.14476644 -0.06520571 0.011215567 -0.07647799
0001d0 62 f9 3e 3d 81 bc 55 bd 7e 5a 2e bd 41 b1 d6 3d
       0.04662455 -0.052181724 -0.04256677 0.10483027
0001e0 3a 1d 9f 3c 25 1d 66 3d ad 45 b3 3d dd 39 09 3e
       0.019423116 0.05618014 0.08753524 0.1340098
0001f0 1b 94 cd bd e0 c0 ab 3d 8b 20 38 b9 ad 34 7c 3d
       -0.100380145 0.08386397 -0.0001755973 0.061573673
000200 88 92 3a ba 1d 63 db bd 65 c2 e1 bd 04 e2 00 3d
       -0.0007117172 -0.10712264 -0.11023406 0.031465545
000210 26 50 ca 3d 9c 6f c0 3d 6b 1d 8d 3d fe 1a 5d bd
       0.09878568 0.09396288 0.06890377 -0.05398082
000220 8a 65 5d bd b9 51 a5 bd 47 dd e8 bd 82 fd ee 3d
       -0.054051913 -0.08072228 -0.1137033 0.116694465
000230 e9 5e a2 bd f6 84 cf bd d5 aa 76 3d 38 12 dc 3d
       -0.07928259 -0.10132782 0.060221512 0.107456625
000240 d4 5f b0 bd e6 f8 79 3c 00 4e 6f 3d 4c 09 9e 3d
       -0.08612028 0.015257096 0.058423996 0.07716617
000250 8a 86 a5 3d 67 c6 d9 3d fb 2f c0 bb fa 7f d6 3d
       0.08082302 0.10633545 -0.0058650947 0.10473628
000260 0b ad de bc 9a 7f 48 3c 75 82 41 bd 54 ff ba bd
       -0.027182123 0.012237454 -0.047243554 -0.09130731
000270 65 f7 9a bd 63 84 60 3d a3 0a 79 bd 80 41 8c bd
       -0.07566718 0.054813754 -0.06080116 -0.06848431
000280 ca 42 dd 3d a8 5a c5 3c 4a e6 2d bd a9 df e3 3d
       0.10803755 0.02409108 -0.04245595 0.11126644
000290 21 c5 b3 3d b3 40 15 3d 95 12 99 bc 87 f1 14 bd
       0.08777834 0.036438655 -0.018685618 -0.03636315
0002a0 c4 bb 0c 3e 9b 12 61 bc ea 10 8f bd 3c 5b bc bd
       0.13743502 -0.013737346 -0.06985648 -0.09197089
0002b0 c5 28 f6 3c ab 91 bd bb cb cd 2d 3d 8b ec ba bd
       0.030048737 -0.0057851872 0.042432588 -0.09127148
0002c0 85 5b ea 3c 9b f2 0e be e7 ff bc bd 72 58 ac bd
       0.028608093 -0.13959734 -0.09228497 -0.08415307
0002d0 ca da ee 3d 0f 8d eb 3d ea a4 a8 3c 51 6a fd 39
       0.116628245 0.11501514 0.02058645 0.00048335132
0002e0 0b e8 86 bd 3a a7 ba 3d ac 60 dd bc 5d 7a ea bd
       -0.065872274 0.09113927 -0.027023636 -0.1144912
0002f0 25 66 0e bd b7 77 47 bd 47 ca df 3c 47 e7 e0 3d
       -0.03476538 -0.048698153 0.027318133 0.10981613
000300 96 a5 da 3c 23 13 0d 3d 91 a3 8d 3c 72 c5 54 bd
       0.026690286 0.03444208 0.017289909 -0.05194611
000310 69 66 38 bd 3d 17 bd 3d d4 28 7c 3a c0 22 52 3d
       -0.04501954 0.09232948 0.0009619121 0.05130267
000320 9c 4f 36 bd 70 ea ee bd 2c cd 1e bd 30 28 d2 3d
       -0.044509515 -0.11665809 -0.038769886 0.102615714
000330 59 20 cd 3d 37 09 a8 bd 11 df 05 bd c4 0f 6b 3d
       0.100159355 -0.082048826 -0.032683436 0.057388082
000340 02 76 b0 3a 0c 13 45 3d dd ea a2 bd 9d 68 d2 3c
       0.0013462903 0.048113868 -0.07954953 0.02568465
000350 b2 0b df 3c d4 74 47 bd 48 bc 2a 3d 29 9d 46 3c
       0.027227256 -0.0486954 0.041683465 0.012122431
000360 c3 62 d8 3d 6d e5 ad bd ed 2e da bd 4c 1e d2 3d
       0.10565712 -0.08491025 -0.10653482 0.10259685
000370 f3 4d b5 3d ec 36 8c 3d 91 97 9b bd 47 eb d8 3d
       0.08852758 0.06846413 -0.075972684 0.105917506
000380 09 ea a9 3d 65 00 92 3c f0 34 86 bd ec 50 d2 3b
       0.08296592 0.017822454 -0.06553066 0.006418338
000390 e9 03 d0 3c ca 46 7b bc 23 8f 1e bd 4b e8 b2 3d
       0.02539249 -0.015336702 -0.038710725 0.087357126
0003a0 51 37 33 bb d0 b8 4a bd 48 ee 82 3d 81 93 b4 bd
       -0.0027346204 -0.049492657 0.06393105 -0.08817197
0003b0 6a 48 ea bd 3b da c8 3d ac 16 2b 3b 00 4a 24 bd
       -0.11439593 0.09807249 0.0026106043 -0.040109634
0003c0 ed f6 32 3d f0 8a 40 3d 63 00 b1 bc b0 d8 9b bd
       0.043692518 0.0470075 -0.02160663 -0.07609689
0003d0 8c 09 42 3d cb fe 4a bc 1b 98 f4 3c 23 bf 66 bd
       0.047372386 -0.012389849 0.029857686 -0.056334626
0003e0 73 d3 26 3c 98 8d 4d bd 6d d9 f1 3d cc 9f a5 3d
       0.010182249 -0.050183862 0.11809049 0.080871195
0003f0 27 00 8d bd 84 80 13 3d e0 2d d2 3c 42 8c f5 3d
       -0.06884795 0.036011234 0.02565664 0.11989643

conv4.bias f4 [8]
000000 3f 03 5f 38 8c e9 bd 36 ca aa 31 37 89 6b ee 37
       5.3170366e-05 5.6598274e-06 1.0589787e-05 2.8421886e-05
000010 ee 89 8e 37 32 1a c6 37 5e 49 b1 b7 c6 52 71 37
       1.6991948e-05 2.3615637e-05 -2.1134209e-05 1.4383992e-05

bn4.weight f4 [8]
000000 a7 4f 9b 3f 1c 7c 9b 3f 8a ba a2 3f e5 91 9a 3f
       1.2133683 1.214725 1.2713177 1.2075773
000010 75 ed a2 3f 4b 64 9f 3f b5 66 a0 3f 5a 3d a2 3f
       1.2728716 1.2452482 1.2531344 1.2674973

bn4.bias f4 [8]
000000 5a 14 1f 3e ef 2d 4e 3e c0 ac 5c 3e 23 16 2e 3e
       0.15535107 0.2013471 0.21550274 0.17000632
000010 6c 8e 35 3e ac 2d 16 3e af 1e 42 3e d5 f9 2c 3e
       0.17730111 0.1466586 0.18957017 0.16892178

bn4.running_mean f4 [8]
000000 9d 20 8e be bb 3a 06 be 53 eb bf 3d 0a ca 2d 3e
       -0.27759257 -0.13108341 0.093710564 0.16971603
000010 46 85 d8 be ce 0f 5e 3e 0c 5e 71 3e c1 0a 53 bc
       -0.4228918 0.21685717 0.23571032 -0.012880982

bn4.running_var f4 [8]
000000 ee 3a a3 3c 21 8c ef 3c e0 fc a7 3c d8 c2 8e 3c
       0.01992556 0.029241623 0.020506322 0.017426893
000010 2b b0 ae 3c 8d 23 8e 3c 03 71 cf 3c d7 45 58 3c
       0.021324238 0.017350936 0.025322443 0.013200245

fc.weight f4 [128, 288]
000000 79 32 9b bd dd bc 92 bc 95 b8 16 3d 50 c2 2c bd
       -0.07577986 -0.017912323 0.036797125 -0.0421775
000010 b3 99 01 bd e4 8a 0f bd f3 56 13 bd ea 1a 31 bd
       -0.03164072 -0.035044566 -0.035971593 -0.043238558
000020 d4 86 1d bd 75 ff 8e bc 1c 0d 10 bd 1c 96 0b bd
       -0.03845866 -0.017455796 -0.035168752 -0.034078702
000030 ac 85 82 bc 81 34 6e bc 1d 0f 84 bc 87 77 3b ba
       -0.01593288 -0.014538885 -0.016120488 -0.0007151295
000040 f9 2e e2 bc 4b fe d5 bc a0 82 2e bd 94 87 af bc
       -0.027610289 -0.026122233 -0.042605042 -0.021426953
000050 08 4f 7f 3c 3d 2b 02 bd 2e 23 8e 3c b8 ce 92 3c
       0.015582807 -0.031779516 0.01735076 0.017920837
000060 83 43 07 3d e8 0a 4a 3c 78 89 5b bb 8e d1 bc bc
       0.03302337 0.012331702 -0.0033498686 -0.023049142
000070 eb c9 26 3c 04 e2 b3 bc 21 4e 37 3d d9 e6 c0 3c
       0.010179977 -0.021958359 0.044752244 0.023547577
000080 4e 73 24 3a f7 c9 d4 3b c2 9d 3b bd e4 7d f7 3c
       0.0006273285 0.0064938026 -0.045804746 0.030211397
000090 15 2e 07 bd bf f4 2e bd 6e f6 0f bd 67 ce e5 3c
       -0.03300293 -0.042713877 -0.035147123 0.028052522
0000a0 e8 ef 10 3d b4 19 ab 3c 5c bf bd 3b ff 68 f2 bb
       0.035385042 0.02088628 0.005790634 -0.0073977704
0000b0 50 67 14 bc 28 40 42 3c ac aa 1a ba 2f af 33 3c
       -0.009057835 0.011856116 -0.0005900066 0.01096706
0000c0 af 7e c5 3c bc 41 6a 3c e6 dc 39 3c 23 64 4d 3c
       0.024108259 0.014297899 0.01134417 0.0125360815
0000d0 8e ce a7 3c ac b9 82 3c a6 50 81 3b ca 38 6a 3a
       0.020484235 0.015957676 0.0039463816 0.0008934854
0000e0 19 af 17 3b df 8f ae bc 18 bf 2c 3c 16 03 af bc
       0.0023145138 -0.021308837 0.010543607 -0.021363776
0000f0 c0 05 67 bc 7d 06 fa bc eb 54 e9 bc f6 cf 03 3d
       -0.014100492 -0.030520672 -0.028482875 0.03218075
000100 33 4b 45 bc 07 dd f6 3b e6 4e 3b 3d 6d a3 15 3b
       -0.012041855 0.0075336727 0.04572954 0.0022833005
000110 ba 23 57 3d 5b 14 1f 3d be a7 bc 3d a1 73 cc 3d
       0.052524306 0.038837772 0.09211682 0.09982992
000120 bd 9e 86 bd e5 32 d6 bc 52 b7 95 bc 25 dc 88 bd
       -0.06573246 -0.026147315 -0.01827589 -0.06682614
000130 bf 5e 25 bd 2c 73 56 3c ab a2 b4 bc 22 60 c3 bc
       -0.04037356 0.013088983 -0.022050222 -0.02384955
000140 1c 3d a2 bc ef 34 0a bc ff 2d 52 bc a6 16 fa 3a
       -0.01980453 -0.008435472 -0.012828349 0.0019080236
000150 74 13 41 3c cc 21 94 3b 02 b2 fc bb 1a 46 ef bc
       0.011784423 0.0045206305 -0.00771165 -0.029208232
000160 e8 62 b9 ba 28 58 77 3c 92 28 e9 3b 20 0d 1e bc
       -0.0014143856 0.015096702 0.007115432 -0.009646684
000170 94 bd 4f bc f2 3c 9b b8 51 2d ca bc 86 8b 16 3d
       -0.012679476 -7.402328e-05 -0.024679812 0.036754154
000180 d2 79 33 bb 79 46 67 3d e3 76 9e 3a 66 39 fd 3b
       -0.0027385843 0.056463692 0.0012089874 0.0077277897
000190 a6 d1 81 bb 34 51 7a bc 38 66 bf bc 96 fd 56 3c
       -0.0039617596 -0.015278149 -0.023364171 0.013121983
0001a0 30 c2 af bc 88 e5 37 bd c1 2a 7d bd 31 d6 6f bb
       -0.0214549 -0.044896632 -0.06180835 -0.0036596174
0001b0 3b b1 7e bc a2 bb dd 3c f4 e4 a8 3d 2c 4c 81 3d
       -0.015545185 0.02706701 0.08246794 0.06313357
0001c0 95 54 8d 3d 27 a1 92 3c 4a d1 1a ba 97 75 8a 3c
       0.06900898 0.017899109 -0.000590582 0.016901774
0001d0 e4 fd bf ba c3 23 90 3c 30 d9 da 3c 1c 5f 08 3d
       -0.0014647809 0.017595178 0.026714891 0.03329383
0001e0 5a d6 ca bc b7 64 f4 bb b0 a5 d8 3c ad 2a c4 3b
       -0.024760414 -0.007458295 0.026446193 0.0059865327
0001f0 51 97 dc 3c bb 51 25 bd 9a 46 2c bd 18 15 39 bd
       0.026927622 -0.040361147 -0.04205952 -0.045186132
000200 a9 5f 18 bd e5 52 51 bd b1 5f 3e bd 75 c7 98 bc
       -0.037200604 -0.051104445 -0.046477977 -0.018649796
000210 84 9e ce bc 08 7f 9f bc 2f c5 64 bc 6f 9d 8e ba
       -0.02522207 -0.019469753 -0.013963028 -0.0010880659
000220 bc e9 98 3c 9d 18 e9 3c 1e a5 b2 bc d3 b7 78 bc
       0.01866614 0.02845412 -0.02180725 -0.015180546
000230 6b 32 df bb bc 87 c4 bc 2f 54 66 bd 26 ce 96 bc
       -0.00681143 -0.023990504 -0.056232627 -0.018408846
000240 3e e2 7b 3d 14 9b 3f bd d2 c6 21 bc 1a ec 1b 3c
       0.06149506 -0.046778753 -0.009874063 0.00951674
000250 e5 81 76 3c 65 71 91 3c 69 a5 99 bb 66 0b 13 bc
       0.015045618 0.017754266 -0.004688908 -0.008974886
000260 dd 59 fc bc 18 43 03 bd 7c 58 2d bd 82 f0 22 bd
       -0.030804569 -0.032046407 -0.042320713 -0.039780147
000270 47 2d f0 bc 22 ca 8e bb df 66 ab bc 8e 3c 9f bb
       -0.029318465 -0.004357592 -0.020923076 -0.0048595136
000280 40 3b 2b bc 1f d1 ad bc a9 b8 46 3c 74 10 90 3c
       -0.010451138 -0.02121788 0.012128987 0.01758597
000290 58 17 ce 3a 36 ae a8 3a 63 fa e5 bc 8f 13 16 bd
       0.001572351 0.0012869302 -0.028073495 -0.036639746
0002a0 cd ca b3 ba bc d0 17 3c b5 bf ef bc 01 11 16 bd
       -0.0013717056 0.009266075 -0.029266218 -0.03663731
0002b0 47 53 2e bb b6 ff 0a bc dc f3 86 3c a7 4d 21 3d
       -0.002659993 -0.008483818 0.016473703 0.039380696
0002c0 2c de 25 3d 53 ee 86 3d 5d d7 72 3c cc aa 43 3d
       0.040495083 0.065884255 0.014821854 0.047770306
0002d0 02 7e 88 3d 86 b7 8d 3d c6 d7 0e 3d 1c dc 8b 3c
       0.06664659 0.0691977 0.034873746 0.01707273
0002e0 af ca 25 3d de 58 9b bc dd 11 93 3b ba 23 82 3d
       0.040476497 -0.018963274 0.0044882135 0.063544706
0002f0 40 b8 4d 3c 86 36 cd 3c 4c fa 00 3d 4a 94 79 3c
       0.012556136 0.025050413 0.0314887 0.015233109
000300 72 da 4f bc 34 a4 ec 3b ce fd 76 3c 53 2d c0 bb
       -0.012686359 0.007221723 0.01507516 -0.005864778
000310 3c 26 be bc e2 22 f2 bc 3a 10 43 3d 98 ea 65 b9
       -0.023211591 -0.029557649 0.047622897 -0.00021926535
000320 e2 f6 ad 3a 37 62 fb 3b 1e 13 6f bc b3 84 43 3c
       0.0013272429 0.00767162 -0.01459196 0.011933493
000330 8a ba 90 bc 82 a3 69 bd 34 25 33 bd ec 6e 49 bd
       -0.017667074 -0.0570407 -0.04373665 -0.04917805
000340 f3 55 68 bd 41 5b 0f bd b5 5c 49 3d 25 db 98 3d
       -0.056722593 -0.034999136 0.049160678 0.074636735
000350 fd c1 bb 3d 1e 96 dd 3d c6 a6 e0 3d 02 3f 39 bd
       0.0916786 0.10819648 0.109693095 -0.045226105
000360 d9 a6 65 bd 64 f3 b2 bc ef c5 0c bd d1 e0 0d bd
       -0.05606732 -0.021844573 -0.03436845 -0.03463823
000370 74 dc 73 bd 19 d6 ce bc 10 8a 0f 3c 35 15 9a 3a
       -0.059536412 -0.025248574 0.008760944 0.0011755588
000380 e6 54 94 bc 76 50 a9 bb 7d 39 32 bc 60 b0 0e 3c
       -0.018106889 -0.0051670624 -0.010877964 0.008709043
000390 b8 cd 3a 3c 38 9b 76 3c 82 55 8e 3c ed 1b a2 3c
       0.011401586 0.0150516555 0.017374758 0.019788707
0003a0 cf 74 c0 3c b8 dd f9 3c df 9b e1 3c e7 6d ee 3c
       0.023493199 0.030501232 0.027540145 0.02910514
0003b0 ba cf 20 3d dd 62 34 3d 10 e5 16 3d dd 17 1e 3d
       0.039260603 0.044039596 0.036839545 0.038596977
0003c0 9a 82 07 3c 97 4b 1b bd 3f 67 a3 bc b8 a2 25 bd
       0.008270884 -0.037913885 -0.019946693 -0.040438384
0003d0 46 95 40 39 06 dc 6d bc 34 e3 00 3d 14 e6 b3 bc
       0.00018366156 -0.01451779 0.031466678 -0.021960296
0003e0 4f 62 b0 bc 35 99 f9 3c 1f 75 e3 3d 8b 30 de bc
       -0.021531252 0.030468563 0.111063235 -0.027122756
0003f0 e9 fa 1d bd 16 24 1d 3d 74 8e 1c 3c 83 6b 96 bc
       -0.038569365 0.038364492 0.009555448 -0.018361812

fc.bias f4 [128]
000000 9a 91 8d bc 44 f1 d4 3c 6c b9 13 3d 4c 88 ed 3c
       -0.017281342 0.02599395 0.036065504 0.028995655
000010 a6 67 59 3c f9 d2 41 3d 3c 09 14 bb 6f 78 6a 3b
       0.013269341 0.04732034 -0.0022588512 0.003577735
000020 03 2d 11 3b 87 85 b5 3c 59 dc b4 3b d3 a4 14 bc
       0.0022152073 0.022158397 0.0055194316 -0.0090725
000030 b1 f3 94 3d 60 5b a0 3a 31 4b 26 3c 38 65 36 bc
       0.07273043 0.0012234263 0.010149763 -0.011132531
000040 86 9e 10 3d 52 c4 55 bc e0 c3 fe 3c 12 2b 03 bd
       0.03530743 -0.013047295 0.03109926 -0.032023497
000050 9e a2 2b 3d f5 ec dc 3c ea f9 3e 3d 1c 56 28 bc
       0.04190313 0.026968459 0.046625055 -0.010274436
000060 36 0a 63 bb 83 a2 c9 3a 0f 9e 1b 3c 44 ab 09 3d
       -0.0034643537 0.0015383515 0.009498133 0.033610597
000070 97 6f 1c 3b f5 54 c3 bc 35 1d 2d 3d 01 0a a5 bc
       0.0023870224 -0.023844222 0.042264182 -0.020146372
000080 02 9f 83 3c 47 f5 16 3c 00 99 92 bc c5 b6 46 3c
       0.016067032 0.009213752 -0.017895222 0.012128537
000090 28 cc c9 3c 11 35 c4 3c 04 79 83 bb bd b6 f6 3c
       0.024633482 0.023951085 -0.004012229 0.030116433
0000a0 20 2f 12 3d 29 7e 54 3b 7f 02 d9 bc 5f f5 c3 bc
       0.035689473 0.003242383 -0.026490448 -0.023920713
0000b0 c6 9f 29 bd 66 0f 10 bd ba 27 04 bd 64 a8 ef 3c
       -0.041412137 -0.035170935 -0.03226445 0.0292551
0000c0 70 38 6a bc 0f 33 85 bc 6d 85 9c 3c 32 d1 fa 3c
       -0.014295682 -0.016259698 0.019106591 0.03061733
0000d0 c0 c5 ad 3b c4 d6 df 3c af 6b ce 3b 2f 95 de bc
       0.0053031147 0.027324088 0.006299458 -0.027170746
0000e0 bf 36 d6 bc 7b a8 47 3c 6d da 42 3d cb 4d 27 3b
       -0.026149152 0.012186165 0.04757159 0.0025528546
0000f0 d0 c8 41 3d 77 04 03 bd b7 0f 47 3b 75 88 6f 3c
       0.04731065 -0.03198668 0.0030374357 0.014619936
000100 52 28 ca 3c aa 65 68 3b af da f1 3a 08 29 81 bc
       0.02467743 0.0035460987 0.0018452014 -0.015766636
000110 60 31 f9 3c f5 7f e4 b8 af ff a2 3b 71 a7 ed 3c
       0.030419052 -0.00010895721 0.0049743275 0.029010506
000120 2e 72 30 3d c5 0c 9c 3c f7 06 21 3d 7b 3b e2 3c
       0.04307764 0.019049058 0.039313283 0.027616253
000130 0f b8 6a bc 07 59 be 3c cf 84 f2 3c 18 06 fd bc
       -0.01432611 0.02323581 0.029604344 -0.030886695
000140 1d df 8c bb cb d4 cb bc 9a c5 73 3c 17 64 9b 3c
       -0.004299058 -0.024881741 0.014878655 0.018968625
000150 8e e5 90 bb 1e 7e fa 3c 14 b0 cc bc de e7 41 bd
       -0.0044218963 0.030577715 -0.024986304 -0.047340266
000160 6d 43 b9 bb 92 69 c6 3c 58 d7 52 3d 2f e1 d6 3c
       -0.0056537897 0.024220262 0.0514749 0.026230423
000170 98 aa 0b 3c 3f 3c 95 bc 26 d4 92 bb 2e ed 9a 39
       0.008524559 -0.018217204 -0.0044808565 0.00029549882
000180 32 ae 0f 3d 53 7c d4 bb 9b a4 00 3d 49 33 b9 3c
       0.035078235 -0.006484547 0.03140698 0.022607462
000190 27 39 6b 3b 49 31 33 3d db 99 7e 3c 61 cd 43 3d
       0.003589222 0.043748174 0.015539612 0.047803286
0001a0 b7 c1 87 3a 98 fe 21 bc 0a 4a a4 bb 88 be 48 3b
       0.0010357414 -0.00988736 -0.005013709 0.0030631144
0001b0 8d 83 d5 bc 97 68 e9 3c a2 26 11 bd c6 9a ed 3c
       -0.026063705 0.028492255 -0.035437234 0.029004466
0001c0 82 f2 01 bc d7 10 c8 3c 30 15 a7 bc b8 fb 2e bd
       -0.0079313535 0.024422092 -0.020395845 -0.042720526
0001d0 5b 51 c0 3c b7 57 4f 3c 8e 0a 87 bb 69 eb 6e 3b
       0.023476293 0.01265519 -0.0041211313 0.0036456233
0001e0 3d 80 89 3c d0 a5 dd bc e3 b1 ac bc 67 49 0d bd
       0.016784782 -0.027056605 -0.021080917 -0.03449383
0001f0 02 d0 d5 3c 66 1c 36 bc c7 db eb 3c 55 58 cd 3c
       0.026100162 -0.011115169 0.028791321 0.025066534
