Model exports/best_model_Oct22_protANDmRNA_weights_residual_2024_11191639.pth (torch, 183558 bytes, 28 tensors)

conv1.weight f4 [16, 3, 2, 2]
0	0x3de8c6b8	0.113660276
1	0x3d01ffd7	0.03173813
2	0x3e23a7cf	0.15981983
3	0xbdb3ae86	-0.08773522
4	0xbe83394a	-0.25629646
5	0xbe7ae591	-0.24501635
6	0x3e647a28	0.22312224
7	0x3e494eef	0.19659017
8	0xbe91a069	-0.28442696
9	0xbd97dda6	-0.07415323
10	0x3e88978b	0.26678118
11	0xbde6f1c4	-0.11276582
12	0xbe3a9ee7	-0.18224679
13	0xbb9ef766	-0.0048512695
14	0xbccd31ff	-0.025048254
15	0x3e2f1e03	0.17101292
16	0xbe7c7396	-0.24653468
17	0x3e907220	0.2821207
18	0xbe8bbff6	-0.27294892
19	0x3d557eef	0.052123006
20	0xbc9b76fe	-0.018977638
21	0x3e677153	0.22601824
22	0xbd5f3b92	-0.05450017
23	0x3e8bb671	0.2728763
24	0x3e8b7c18	0.27243114
25	0x3e4a1d38	0.19737709
26	0xbd25911f	-0.0404216
27	0xbe3d52a2	-0.18488553
28	0xbda62192	-0.08111872
29	0x3d8d5465	0.069008626
30	0x3da03241	0.07822085
31	0xbe63e144	-0.22253901
32	0x3e4f78e3	0.20260958
33	0xbd979e69	-0.07403261
34	0x3e24fafa	0.16111365
35	0x3da00f8a	0.07815464
36	0xbd53dae9	-0.05172244
37	0x3df9ef82	0.122038856
38	0x3dd3f701	0.10349847
39	0xbc86f955	-0.016476313
40	0xbe471009	-0.1943971
41	0xbe67eb33	-0.22648315
42	0xbe06c502	-0.1316109
43	0xbe704388	-0.23463261
44	0xbd5e08ad	-0.054207493
45	0x3dba6ccd	0.09102783
46	0x3e8aca6c	0.2710756
47	0xbe094bfc	-0.13407892
48	0x3d055f85	0.032561798
49	0xbe31f356	-0.17377982
50	0xbd9b07c7	-0.07569843
51	0xbe07b14a	-0.13251224
52	0x3e222c54	0.15837222
53	0x3e91fd1a	0.28513414
54	0xbe76d3bb	-0.24104206
55	0x3e82427f	0.25441357
56	0x3e8968cd	0.2683777
57	0x3e764958	0.24051416
58	0x3dad3d85	0.084589995
59	0x3da02e69	0.07821352
60	0x3e67c8a2	0.22635129
61	0xbdfac628	-0.122448266
62	0x3e11c4f9	0.14235295
63	0xbe34db10	-0.1766169
64	0x3db08976	0.086199686
65	0xbd34396e	-0.04400008
66	0x3e6cb233	0.23114853
67	0x3e284958	0.16434228
68	0x3e6ddd0f	0.23228858
69	0x3e4b7b16	0.19871172
70	0xbe354b28	-0.17704451
71	0x3c14f05b	0.009090508
72	0x3dd48b5d	0.10378144
73	0x3d20403c	0.03912376
74	0x3e2070be	0.15668008
75	0x3c833040	0.016014218
76	0xbe928c4c	-0.28622663
77	0x3d8847f6	0.066543505
78	0xbb861d4a	-0.004092847
79	0x3e90d9a4	0.28291047
80	0xbe7fcc67	-0.24980317
81	0x3e6144f9	0.21998967
82	0x3aacb7cb	0.0013177333
83	0xbe03044e	-0.12794611
84	0x3e8d6671	0.2761722
85	0x3dcd2e71	0.100186236
86	0xbe82bda6	-0.25535315
87	0x3e8035a4	0.25040925
88	0x3d0fb973	0.035088968
89	0xbcb4d6e7	-0.02207513
90	0xbe25e63d	-0.1620111
91	0xbcc8b593	-0.024500644
92	0xbe8f29a5	-0.2796146
93	0x3e3d7988	0.18503392
94	0xbcf9e45b	-0.030504396
95	0xbde045fc	-0.109508485
96	0xbe6d4877	-0.23172174
97	0xbe75933f	-0.23981951
98	0x3e818dd3	0.25303516
99	0x3d4a12c3	0.0493343
100	0xbd610cc6	-0.054943822
101	0x3e70c6e3	0.2351337
102	0xbe69ad0a	-0.22819915
103	0xbe1636b6	-0.14669308
104	0x397e9c89	0.00024281642
105	0x3dc9af30	0.098478675
106	0xbe852ecb	-0.26012263
107	0x3d643cad	0.055721927
108	0xbd9813bd	-0.0742564
109	0xbe73294d	-0.23746224
110	0xbe170550	-0.1474812
111	0x3e1ffb96	0.15623316
112	0x3e23733e	0.1596193
113	0x3dcce4b4	0.10004559
114	0xbe00cf94	-0.12579185
115	0xbe246887	-0.16055499
116	0x3e8fd67e	0.28093332
117	0x3e81ce9c	0.25352943
118	0xbba716ba	-0.0050991448
119	0x3db60897	0.08888357
120	0x3e497e9f	0.19677208
121	0xbe63bf0c	-0.22240847
122	0x3bdf3411	0.0068116267
123	0x3e87fb6d	0.2655901
124	0xbe8c0fac	-0.27355707
125	0x3e6e2a8d	0.2325842
126	0x3da7345f	0.08164286
127	0xbe5de85f	-0.21670674
128	0x3e812e07	0.2523043
129	0xbdcbb705	-0.099470176
130	0xbe807460	-0.25088787
131	0x3e8c51a7	0.27406046
132	0x3dca129f	0.09866833
133	0xbe4982d0	-0.19678807
134	0x3db64e1c	0.08901617
135	0xbe819075	-0.25305524
136	0x3e270fc3	0.16314606
137	0xbdd354c5	-0.10318903
138	0xbcbc502b	-0.022987446
139	0x3e6b6091	0.22986056
140	0xbe5f5a9f	-0.21811913
141	0x3d3c276e	0.04593604
142	0xbdc609f0	-0.09669864
143	0x3dc280be	0.09497212
144	0x3e25d14f	0.16193126
145	0xbdf8fc84	-0.121575385
146	0xbd47ad54	-0.048749283
147	0xbc18c99b	-0.00932541
148	0x3e7309d3	0.23734216
149	0xbd32665b	-0.043554645
150	0x3dcd1ffe	0.10015868
151	0xbd1396c6	-0.03603246
152	0xbcf5eac7	-0.030019177
153	0x3d6d64c1	0.057957415
154	0xbcfe7ba0	-0.031064808
155	0x3e903be2	0.28170687
156	0xbe6e8a1f	-0.23294877
157	0x3e599f45	0.21252163
158	0xbe8605bb	-0.26176247
159	0xbdc9bba3	-0.09850242
160	0x3e0b7abe	0.13621041
161	0x3da77efe	0.08178519
162	0x3e754bc6	0.23954687
163	0x3e54a45d	0.20765825
164	0xbca1064e	-0.019656327
165	0xbe23f85a	-0.16012707
166	0xbe5b4cfb	-0.21416084
167	0xbe317c01	-0.1733246
168	0x3e7be6c7	0.24599753
169	0xbda1096d	-0.07863126
170	0xbe0713f1	-0.13191201
171	0xbd0c6ebc	-0.034285292
172	0xbe18b6e3	-0.14913516
173	0x3c464aa8	0.01210276
174	0xbe68efa6	-0.22747669
175	0xbd2b2fea	-0.04179374
176	0xbddce8f0	-0.10786617
177	0x3e6379c0	0.22214413
178	0xbe5fbc32	-0.21849135
179	0x3e8f7aeb	0.28023466
180	0xbe235d7e	-0.15953633
181	0xbd3cb908	-0.046074897
182	0x3d694226	0.05694785
183	0xbe335c14	-0.17515594
184	0xbe7ce25e	-0.24695727
185	0xbe8288d0	-0.25495005
186	0x3d74fa46	0.05980899
187	0x3dfef717	0.124494724
188	0x3e0eb33e	0.13935563
189	0x3e395b25	0.18101175
190	0xbde69ad7	-0.11260002
191	0x3e446bda	0.19181767

conv1.bias f4 [16]
0	0xbe5c0fdd	-0.21490426
1	0x3e25c8cf	0.16189884
2	0x3daf62a3	0.08563735
3	0x3d902e2a	0.07040055
4	0x3e749511	0.2388499
5	0x3e55d511	0.2088206
6	0xbe877d6d	-0.2646288
7	0x3e8f2920	0.27961063
8	0xbe6764ae	-0.22597
9	0x3c63b85b	0.013898934
10	0x3d9a7aac	0.07542929
11	0xbdcbdb04	-0.09953883
12	0x3cde48f1	0.02713439
13	0x3e4fb5fc	0.20284265
14	0x3e8b0a89	0.27156475
15	0x3e352d0c	0.17692965

bn1.weight f4 [16]
0	0x3f800000	1.0
1	0x3f800000	1.0
2	0x3f800000	1.0
3	0x3f800000	1.0
4	0x3f800000	1.0
5	0x3f800000	1.0
6	0x3f800000	1.0
7	0x3f800000	1.0
8	0x3f800000	1.0
9	0x3f800000	1.0
10	0x3f800000	1.0
11	0x3f800000	1.0
12	0x3f800000	1.0
13	0x3f800000	1.0
14	0x3f800000	1.0
15	0x3f800000	1.0

bn1.bias f4 [16]
0	0x00000000	0.0
1	0x00000000	0.0
2	0x00000000	0.0
3	0x00000000	0.0
4	0x00000000	0.0
5	0x00000000	0.0
6	0x00000000	0.0
7	0x00000000	0.0
8	0x00000000	0.0
9	0x00000000	0.0
10	0x00000000	0.0
11	0x00000000	0.0
12	0x00000000	0.0
13	0x00000000	0.0
14	0x00000000	0.0
15	0x00000000	0.0

bn1.running_mean f4 [16]
0	0xc03e177c	-2.9701834
1	0x424eded2	51.717598
2	0x429a556a	77.166824
3	0x42299c49	42.402622
4	0x42392c76	46.29342
5	0x422ba7f1	42.914005
6	0x41803147	16.024061
7	0x4143454d	12.204419
8	0xc2048c2e	-33.136894
9	0x42391a4d	46.275684
10	0x4257ab92	53.91755
11	0xc268541a	-58.08213
12	0x42013e97	32.311123
13	0xc2ee903f	-119.28173
14	0x41a278e6	20.309032
15	0x415ea886	13.916143

bn1.running_var f4 [16]
0	0x42d785c9	107.7613
1	0x423b5b07	46.838894
2	0x418154a3	16.166327
3	0x4199393e	19.15295
4	0x4354393c	212.22357
5	0x42c44b78	98.1474
6	0x4349d3a6	201.82675
7	0x43833e74	262.4879
8	0x427c70bc	63.110092
9	0x437381e8	243.50745
10	0x41b06000	22.046875
11	0x43667cda	230.4877
12	0x42967f34	75.24844
13	0x42edf3b7	118.976006
14	0x436296a1	226.5884
15	0x430470e0	132.44092

conv2.weight f4 [32, 16, 2, 2]
0	0x3d6f4870	0.05841869
1	0x3ce78df0	0.028265923
2	0x3c2fe470	0.010735616
3	0xbdf297f0	-0.11845386
4	0x3d218554	0.039433792
5	0xbd926a46	-0.07149176
6	0x3d92ecae	0.07174049
7	0x3d8a4d32	0.06753005
8	0xbdf63188	-0.12021166
9	0xbd9685e0	-0.073497534
10	0xbda5a052	-0.08087219
11	0xbdba7e50	-0.091061234
12	0xbb15e8c0	-0.0022874326
13	0x3df5f788	0.120101035
14	0xbd91ad92	-0.07113184
15	0xbde7bdb6	-0.11315481
16	0x3dea3ba0	0.11437154
17	0xbd79e0f8	-0.061005563
18	0xbd207030	-0.03916949
19	0x3d6d9a84	0.058008686
20	0xbd349790	-0.044089854
21	0x3da45e8c	0.08025846
22	0x3d36039c	0.044437036
23	0x3db58578	0.08863348
24	0x3dc7478a	0.09730442
25	0x3d6a4554	0.057195023
26	0x3c9afa48	0.018918172
27	0x3df7fa68	0.12108308
28	0x3cbc2f98	0.022971913
29	0x3df3ca04	0.11903766
30	0x3c834a98	0.01602678
31	0x3dee90dc	0.116487235
32	0x3d95d508	0.07316023
33	0x3c113f80	0.008865237
34	0xbccc1490	-0.024912149
35	0xbd78b25c	-0.06071697
36	0x3ddb62d0	0.10712206
37	0xbd627e68	-0.05529633
38	0xbdd25d42	-0.10271694
39	0x3dc613a2	0.096717134
40	0x3cf6f170	0.030144423
41	0x3bfe5ca0	0.0077625066
42	0xbdfdbce0	-0.12389541
43	0x3d95f2e8	0.07321721
44	0x3dfc26a0	0.12312055
45	0xbcf16e78	-0.02947162
46	0x3de978d4	0.11399999
47	0xbdf1e156	-0.118105575
48	0xbd67d170	-0.05659622
49	0xbd66c7d8	-0.05634293
50	0xbd9b1eb4	-0.075742155
51	0x3d7a58b0	0.061119735
52	0x3d111948	0.0354245
53	0xbc119bd0	-0.008887246
54	0xbd2ce228	-0.042207867
55	0xbd71bb80	-0.059016705
56	0xbd04cbb0	-0.032420814
57	0xbd4d1eb4	-0.05007811
58	0xbd8b6844	-0.068069965
59	0x3d2c6ed4	0.04209788
60	0x3dff83d0	0.12476313
61	0xbc991518	-0.018686816
62	0xbcdc5708	-0.026896968
63	0xbcc47cb8	-0.023985252
64	0xbde802ba	-0.11328645
65	0xbccdc5b8	-0.025118694
66	0xbd2f561c	-0.04280673
67	0xbd007054	-0.031357124
68	0x3da4c8a4	0.08046082
69	0x3daddefc	0.084897965
70	0x3d1ae92c	0.037820026
71	0x3d8b4194	0.067996174
72	0x3d939782	0.07206632
73	0xbd7ebc20	-0.06219113
74	0x3d7911fc	0.060808167
75	0x3dbdda48	0.092701495
76	0x3c1e7da0	0.009673506
77	0xbd21e1d8	-0.039522022
78	0x3df3849c	0.118905276
79	0x3dcfcd88	0.10146624
80	0x3db36d20	0.08761048
81	0x3daf02b6	0.08545439
82	0xbd9ce7ba	-0.07661386
83	0xbd5f6824	-0.054542676
84	0xbd59b178	-0.053147763
85	0xbd92a276	-0.07159893
86	0x3c873968	0.016506866
87	0x3de9d274	0.11417094
88	0xbbd8fa40	-0.006621629
89	0xbce73998	-0.028225705
90	0x3d8db612	0.06919493
91	0x3de5de6e	0.11224066
92	0x3bffcba0	0.0078062564
93	0xbd98d472	-0.07462396
94	0x3dfd292c	0.123613685
95	0xbd21bac8	-0.03948477
96	0xbb24b600	-0.0025132895
97	0xbdee3cfa	-0.11632724
98	0xbd31f250	-0.043443978
99	0xbc91e630	-0.017809957
100	0x3dc913dc	0.09818241
101	0x3c1dfe10	0.009643093
102	0xbdbe5f04	-0.092954665
103	0x3da9b8b4	0.082871825
104	0x3d335884	0.043785587
105	0xbcb41000	-0.021980286
106	0xbc7a82e0	-0.015289992
107	0xbd8d8be6	-0.06911449
108	0x3d9501b6	0.07275717
109	0xbc856be0	-0.01628679
110	0xbda72718	-0.081617534
111	0x3d990d36	0.07473223
112	0x3d8818ee	0.0664538
113	0xbd9a9a70	-0.07548988
114	0x3ca2c710	0.019870311
115	0xbdc35d72	-0.09539308
116	0x3c601ff0	0.0136794895
117	0xbdb5cd3a	-0.088770345
118	0xbd98f3d8	-0.074683845
119	0x3dac2fbe	0.084075436
120	0x3d5ab460	0.053394675
121	0x3d9e7f42	0.07739116
122	0x3df8d9d6	0.12150924
123	0x3c2ec440	0.010666907
124	0x3ba302e0	0.004974708
125	0x3db45886	0.08805947
126	0xbdc43004	-0.09579471
127	0x3dd98bce	0.10622369
128	0x3c36faa0	0.011168152
129	0xbd387c20	-0.04504025
130	0x3dba85a2	0.0910752
131	0xbd7dbe20	-0.061948895
132	0x3df1f0b0	0.118134856
133	0x3cdb7aa0	0.02679187
134	0x3d938b76	0.072043344
135	0x3bfd4b00	0.007729888
136	0x3cb2bce0	0.021818578
137	0xbdeec312	-0.116583005
138	0x3d4a31d4	0.049363926
139	0x3dac26e8	0.08405858
140	0xbd276ee4	-0.040877238
141	0xbdf1b60c	-0.11802301
142	0x3d03d020	0.032180905
143	0x3dddac98	0.10823935
144	0x3cb5aaa8	0.022176102
145	0xbd2d6ae8	-0.042338282
146	0xbd1c0380	-0.038089275
147	0x3c94fb58	0.018186256
148	0x3cb9ec70	0.02269575
149	0xbd33bc94	-0.043881014
150	0x3deb2f44	0.114836246
151	0xbb866520	-0.0041014105
152	0x3d55afa4	0.052169457
153	0x3dc1297e	0.09431742
154	0xbd02aaec	-0.031901285
155	0x3d00ae4c	0.031416222
156	0xbd91ab30	-0.071127295
157	0x3c8eb910	0.017422229
158	0x3d7b6c70	0.06138271
159	0xbde85d7c	-0.11345956
160	0xbc340080	-0.010986447
161	0x3d998fd2	0.07498135
162	0x3ce3ceb8	0.027808532
163	0x3d352d6c	0.04423277
164	0xbdc80c68	-0.09767991
165	0x3debeb26	0.115194604
166	0x3d84cf22	0.0648482
167	0x3df133ca	0.11777456
168	0xbd3d7c6c	-0.046261236
169	0x3dfaac28	0.122398674
170	0xbd749b30	-0.05971831
171	0xbd1706c8	-0.0368717
172	0x3de51490	0.111855626
173	0x3d672324	0.056429997
174	0xbc6fc190	-0.014633551
175	0xbcfb5ae8	-0.030682996
176	0x3beb92a0	0.00718911
177	0x3def53c2	0.116858974
178	0xbdf22ec6	-0.118253276
179	0xbd4857c8	-0.04891184
180	0xbd627148	-0.055283815
181	0xbc20c8b0	-0.009813473
182	0x3dc9796e	0.09837614
183	0x3d86f2b6	0.06589262
184	0x3afa5480	0.0019098669
185	0x3b6a0840	0.0035710484
186	0x3dcecf1c	0.10098097
187	0xbd14df28	-0.03634563
188	0x3d0cd780	0.034385204
189	0xbde9dc10	-0.11418927
190	0xbd8a46ae	-0.06751762
191	0xbdd729cc	-0.10506019
192	0xbde1a34c	-0.110174745
193	0x3d7b3e9c	0.061339006
194	0xbdaa2322	-0.08307482
195	0xbdc3087c	-0.09523103
196	0xbdad3766	-0.08457832
197	0xbd4fdbbc	-0.050746664
198	0x3d8eadf6	0.06966774
199	0x3c9a9b18	0.018872783
200	0x3d4a40a0	0.049378037
201	0x3d312518	0.043248266
202	0xbdc5351e	-0.09629272
203	0xbdf59822	-0.11991908
204	0x3d9cbb64	0.076529294
205	0xbcd53798	-0.026027486
206	0xbde35676	-0.111004755
207	0xbdc75792	-0.097334996
208	0xbd7d3028	-0.061813504
209	0xbcc947c0	-0.024570346
210	0x3b95b320	0.0045684725
211	0x3befbe60	0.0073163956
212	0xbde08904	-0.10963634
213	0x3dc01916	0.09379785
214	0x3d60e624	0.05490698
215	0x3d0dd3e0	0.034625888
216	0xbd0392ec	-0.032122537
217	0xbd42cf9c	-0.047561273
218	0xbdfa668e	-0.12226592
219	0x3d343fcc	0.044006154
220	0xbd1282e8	-0.035769373
221	0xbdb2ec6e	-0.08736502
222	0xbdfae174	-0.12250033
223	0xbda84f1a	-0.082182124
224	0xbceb5180	-0.028725386
225	0x3de8425e	0.113407835
226	0xbc18f6c0	-0.009336174
227	0x3b9ba820	0.0047502667
228	0x3d20b1dc	0.03923212
229	0x3db15be4	0.08660105
230	0xbdea8dba	-0.114528134
231	0xbdfa9028	-0.12234527
232	0xbc9b5708	-0.018962398
233	0x3de25e28	0.11053115
234	0xbddfdd84	-0.109309226
235	0xbd28e2e0	-0.04123199
236	0x3df4f31a	0.119604304
237	0x3da5be00	0.0809288
238	0xbc54a200	-0.012978077
239	0x3dba3606	0.090923354
240	0x3c2f0910	0.010683313
241	0xbc5ed9b0	-0.013601705
242	0xbdb8f87a	-0.09031768
243	0xbc8f1fa0	-0.017471135
244	0xbdf3ea2a	-0.119098976
245	0xbdb76148	-0.08954102
246	0xbddee272	-0.10883035
247	0x3ce20488	0.027590051
248	0x3d6fd230	0.05855006
249	0xbcf9a0b0	-0.03047213
250	0xbda9462c	-0.08265337
251	0x3d66ac90	0.056316912
252	0x3db78214	0.08960357
253	0x3d4055bc	0.046956763
254	0x3dc52f22	0.096281305
255	0xbd7b2a4c	-0.061319634

conv2.bias f4 [32]
0	0x3d4277b4	0.04747744
1	0x3daa9a38	0.08330196
2	0xbdf1a5d6	-0.11799209
3	0xbde4d55a	-0.11173506
4	0xbdd23afc	-0.102651566
5	0x3c519d80	0.012793899
6	0xbd9e1040	-0.07717943
7	0x3d8ef36e	0.06980024
8	0x3cb43538	0.021998033
9	0xbd5ca168	-0.053864866
10	0xbdd75fa8	-0.10516292
11	0xbdb1dfd6	-0.086852714
12	0xbd3dabec	-0.046306536
13	0xbd0ecaac	-0.03486125
14	0x3ca90a70	0.02063486
15	0x3d052040	0.03250146
16	0xbd89c130	-0.06726301
17	0xbd5be404	-0.05368425
18	0x3d3a6e58	0.04551539
19	0x3d0c2d00	0.034222603
20	0x3b7330c0	0.0037107915
21	0xbc46c910	-0.012132898
22	0xbdb0fa64	-0.08641508
23	0x3d81d992	0.06340326
24	0xbd2b33e8	-0.04179755
25	0xbd990842	-0.07472278
26	0x3dcbfc54	0.09960237
27	0xbdb1f902	-0.086900726
28	0xbdb29056	-0.08718936
29	0x3c2c2980	0.010507941
30	0x3da183d4	0.07886472
31	0xbd1cbdd4	-0.03826697

bn2.weight f4 [32]
0	0x3f800000	1.0
1	0x3f800000	1.0
2	0x3f800000	1.0
3	0x3f800000	1.0
4	0x3f800000	1.0
5	0x3f800000	1.0
6	0x3f800000	1.0
7	0x3f800000	1.0
8	0x3f800000	1.0
9	0x3f800000	1.0
10	0x3f800000	1.0
11	0x3f800000	1.0
12	0x3f800000	1.0
13	0x3f800000	1.0
14	0x3f800000	1.0
15	0x3f800000	1.0
16	0x3f800000	1.0
17	0x3f800000	1.0
18	0x3f800000	1.0
19	0x3f800000	1.0
20	0x3f800000	1.0
21	0x3f800000	1.0
22	0x3f800000	1.0
23	0x3f800000	1.0
24	0x3f800000	1.0
25	0x3f800000	1.0
26	0x3f800000	1.0
27	0x3f800000	1.0
28	0x3f800000	1.0
29	0x3f800000	1.0
30	0x3f800000	1.0
31	0x3f800000	1.0

bn2.bias f4 [32]
0	0x00000000	0.0
1	0x00000000	0.0
2	0x00000000	0.0
3	0x00000000	0.0
4	0x00000000	0.0
5	0x00000000	0.0
6	0x00000000	0.0
7	0x00000000	0.0
8	0x00000000	0.0
9	0x00000000	0.0
10	0x00000000	0.0
11	0x00000000	0.0
12	0x00000000	0.0
13	0x00000000	0.0
14	0x00000000	0.0
15	0x00000000	0.0
16	0x00000000	0.0
17	0x00000000	0.0
18	0x00000000	0.0
19	0x00000000	0.0
20	0x00000000	0.0
21	0x00000000	0.0
22	0x00000000	0.0
23	0x00000000	0.0
24	0x00000000	0.0
25	0x00000000	0.0
26	0x00000000	0.0
27	0x00000000	0.0
28	0x00000000	0.0
29	0x00000000	0.0
30	0x00000000	0.0
31	0x00000000	0.0

bn2.running_mean f4 [32]
0	0x3e2a1466	0.16609344
1	0x3eb2e837	0.3494279
2	0xbb0adfa3	-0.0021190427
3	0xbed23798	-0.4105804
4	0xbdc14634	-0.09437218
5	0xbe3f5037	-0.18682943
6	0x3e29ccb8	0.16582
7	0xbe2ef20b	-0.1708452
8	0xbd8c0bd1	-0.06838191
9	0x3da0027b	0.07812973
10	0xbddc6e5d	-0.107632376
11	0x3d82824a	0.06372507
12	0xbde779eb	-0.11302551
13	0x3e2a739e	0.16645667
14	0xbed008e8	-0.40631795
15	0xbdb135f1	-0.08652867
16	0x3d0ad40c	0.03389363
17	0xbedad045	-0.42737022
18	0xbdc00ecf	-0.093778245
19	0x3ee6b28f	0.45058104
20	0xbd856471	-0.06513298
21	0xbe20e553	-0.1571248
22	0xbe026935	-0.12735446
23	0xbc959f19	-0.01826434
24	0xbdc70790	-0.09718239
25	0xbed0d848	-0.4079001
26	0x3ce9d406	0.028543483
27	0xbd7083d8	-0.058719486
28	0xbd8aa150	-0.06769049
29	0xbe8fd2e7	-0.28090593
30	0x3e689ac7	0.22715293
31	0x3decc66c	0.115612835

bn2.running_var f4 [32]
0	0x3dac7686	0.08421044
1	0x3e3c7c86	0.18406877
2	0x3dcf75df	0.10129904
3	0x3db18322	0.0866759
4	0x3d9b50c1	0.07583762
5	0x3d5f7e51	0.054563824
6	0x3da13a7f	0.07872485
7	0x3dcefbdd	0.10106633
8	0x3dff9142	0.124788776
9	0x3d78e48f	0.060764845
10	0x3d56887c	0.052376255
11	0x3d854403	0.06507113
12	0x3e051070	0.12994552
13	0x3e091486	0.13386735
14	0x3ea1bad5	0.31587854
15	0x3d8fa237	0.07013362
16	0x3d8d6b54	0.06905237
17	0x3dbaefb6	0.091277525
18	0x3d8de840	0.06929064
19	0x3e1a71c7	0.15082465
20	0x3d44732b	0.047961395
21	0x3d495664	0.049154654
22	0x3d2f01db	0.04272638
23	0x3d699c64	0.05703391
24	0x3df8200d	0.12115488
25	0x3ded574c	0.11588916
26	0x3d45321f	0.048143502
27	0x3e45471c	0.19265407
28	0x3dd5d83b	0.10441633
29	0x3dbf6192	0.09344782
30	0x3dc45898	0.095872104
31	0x3db0e9c6	0.08638339

conv3.weight f4 [16, 32, 2, 2]
0	0x3db2cde1	0.087306745
1	0x3d0bf544	0.03416945
2	0xbd586bf3	-0.052837323
3	0x3d685c46	0.056728624
4	0x3ca63ca0	0.02029258
5	0x3b75cd9c	0.0037506586
6	0xbd95b965	-0.07310752
7	0x3d3788ae	0.044808082
8	0xbc9c9c4a	-0.019117493
9	0xbda871bb	-0.08224817
10	0xbd94d193	-0.072665356
11	0x3d30871b	0.043097597
12	0xbd4de157	-0.05026373
13	0xbd2e6cc7	-0.042584207
14	0xbc9dfb97	-0.019285006
15	0x3ce3e2ac	0.027818047
16	0x3bb82b24	0.005620377
17	0xbbfcc1d6	-0.0077135367
18	0xbc947451	-0.01812187
19	0x3d004790	0.031318247
20	0xbd80487f	-0.062638275
21	0x3a97d38a	0.0011583429
22	0x3d927459	0.07151098
23	0x3c9e2002	0.019302372
24	0xbd908f7e	-0.07058619
25	0x3db386a6	0.087659165
26	0x3cedc8c4	0.029026397
27	0x3ba06392	0.004894682
28	0x3d588af0	0.052866876
29	0xbd789e70	-0.060697973
30	0xbd9a9864	-0.075485975
31	0xbc35d7cd	-0.011098814
32	0x3d7c4662	0.06159056
33	0xbd8f3919	-0.069933124
34	0x3d7d4797	0.06183585
35	0xbdb477f1	-0.088119395
36	0x3d4b7629	0.049673233
37	0x3cd61c77	0.02613662
38	0x3c52ee6e	0.012874229
39	0x3c0a1143	0.008426967
40	0xbc21c46a	-0.009873489
41	0xbda8b250	-0.082371354
42	0xbcfd406f	-0.030914513
43	0x3d480f7d	0.048842896
44	0xbce249a2	-0.027623001
45	0x3c4d1160	0.01251635
46	0x3d2ac102	0.041687973
47	0x3bc30bba	0.0059523256
48	0xbca8c2a2	-0.02060062
49	0x3d50fdbe	0.051023237
50	0x3cb6921a	0.022286464
51	0xbd8b011d	-0.06787322
52	0xbb6fc62c	-0.0036586626
53	0xbd752d65	-0.059857745
54	0xbce04424	-0.027376242
55	0xbd89daba	-0.06731172
56	0xbd23d719	-0.040000055
57	0x3d82228a	0.06354244
58	0x3c86cd60	0.016455352
59	0x3d3a934e	0.045550637
60	0xbcb3fd60	-0.021971405
61	0x3c86f50a	0.016474266
62	0x3c99c86a	0.018772323
63	0x3c6ba610	0.014382854
64	0x3d72386f	0.05913585
65	0xbda1141a	-0.07865162
66	0xbd9e12d5	-0.07718436
67	0xbda2c41d	-0.07947562
68	0xbd7dba82	-0.061945446
69	0x3d13168a	0.035910167
70	0xbd8d5294	-0.06900516
71	0x3d69e548	0.057103425
72	0xbd5c9d4b	-0.053860944
73	0x3d56a6f2	0.052405305
74	0x3da36918	0.079790294
75	0x3d5ee738	0.054419726
76	0xbd60dfb7	-0.05490085
77	0xbcdee719	-0.027209805
78	0x3d1c33d4	0.038135365
79	0x3d49d645	0.04927661
80	0x3ceef27b	0.029168358
81	0x3b57e94c	0.0032945452
82	0xbd9be3fb	-0.07611843
83	0xbdb0e01a	-0.08636494
84	0x3d8ce7eb	0.06880172
85	0xbc806d65	-0.015677163
86	0xbd19d091	-0.03755242
87	0xbb40c473	-0.0029413968
88	0x3d80a1ca	0.06280859
89	0xbdadc071	-0.08483971
90	0x3d2fdf47	0.042937543
91	0x3d41c11c	0.047303304
92	0xbda55ebe	-0.08074711
93	0xbc3a6418	-0.011376403
94	0xbc7ed19b	-0.0155529035
95	0x3cb9f1b3	0.022698259
96	0xbd3bca28	-0.045847088
97	0xbd4661ec	-0.04843323
98	0x3d4dfa7d	0.050287712
99	0xbd88dc7d	-0.0668268
100	0xbc583550	-0.013196304
101	0xbc9980ee	-0.018738236
102	0x3d98a2b0	0.07452905
103	0xbd95229d	-0.072819926
104	0x3d9c0091	0.076172955
105	0xbd98fe17	-0.07470339
106	0x3bf6ccc9	0.0075317365
107	0xbc93f02d	-0.01805886
108	0x3d419ff4	0.047271684
109	0xbdb1c879	-0.08680815
110	0xbdb2c61e	-0.08729194
111	0x3d9069bb	0.070514165
112	0xbd9e58db	-0.077317916
113	0xbd4e17c7	-0.050315645
114	0xbc33ef96	-0.010982415
115	0xbd2a8096	-0.041626535
116	0xbcae9367	-0.021310521
117	0x3cfbf60f	0.030756978
118	0xbc7c3d9c	-0.015395548
119	0xbd46c2c0	-0.04852557
120	0x3c67e8c6	0.014154619
121	0xbd97ca56	-0.074116394
122	0xbd67b37c	-0.056567654
123	0xbc43b78d	-0.011945617
124	0xbd32dacc	-0.043665692
125	0xbc635880	-0.0138760805
126	0x3d7e36dc	0.062064037
127	0xbd28e4ce	-0.04123383
128	0x3c3e61f4	0.0116200335
129	0xbc2c2077	-0.010505787
130	0x3d929c89	0.07158763
131	0x3d221cc0	0.0395782
132	0xbc31f7af	-0.010862275
133	0xbd227bcc	-0.039668843
134	0xbdb23910	-0.0870229
135	0xbccdfb6d	-0.025144303
136	0xbd4e438a	-0.05035738
137	0x3c53a455	0.012917598
138	0x3d0765a5	0.03305592
139	0xbba633f1	-0.00507211
140	0xbd0eeceb	-0.03489391
141	0xbc2d7eec	-0.010589343
142	0xbd639b03	-0.055567753
143	0xbdb1d079	-0.08682341
144	0xbda990b4	-0.08279553
145	0x3d15f537	0.03661081
146	0x3da2bb2c	0.079458565
147	0x3cb86421	0.022508683
148	0xbd54df6d	-0.051970888
149	0x3d1bce80	0.03803873
150	0xbcdddf53	-0.027084028
151	0x3d3f746f	0.0467419
152	0xbd7abc64	-0.06121482
153	0xbc939fa7	-0.018020464
154	0x3d99874b	0.07496508
155	0xbd20b9d3	-0.039239716
156	0x3d6eaf76	0.0582728
157	0x3d9a1162	0.07522847
158	0x3ca8ef0c	0.020621799
159	0xbda12b4f	-0.078695886
160	0xbd9b571c	-0.07584974
161	0x3d3206f7	0.043463673
162	0x3cc1c9af	0.02365574
163	0x3b061570	0.0020459555
164	0xbd7019f7	-0.058618512
165	0xbd97e989	-0.0741759
166	0x3d362088	0.044464618
167	0x3d9cb2cd	0.07651291
168	0xbd729b52	-0.059230156
169	0x3cab61cf	0.020920662
170	0x3d5b529c	0.05354558
171	0xbd568093	-0.05236871
172	0x3da286ae	0.07935844
173	0xbc439b2e	-0.011938853
174	0x3cf33219	0.029686974
175	0x3c12075d	0.008912888
176	0xbcbf0283	-0.023316627
177	0xbd9e1825	-0.07719449
178	0xbd629321	-0.055316094
179	0xbc9b0e6f	-0.01892778
180	0x3d31ba4f	0.04339057
181	0x3d3ead94	0.046552256
182	0x3cb072dd	0.021539146
183	0x3d70033a	0.058596827
184	0x3d784064	0.060608283
185	0xb97a9d36	-0.00023900424
186	0xbc2755ad	-0.010213298
187	0xbd2ee59a	-0.042699434
188	0xbd56736a	-0.05235616
189	0x3d3f124f	0.04664832
190	0x3d4f33d9	0.050586555
191	0x3dac52da	0.0841424
192	0x3d750afd	0.059824932
193	0xbcaff730	-0.021480173
194	0xbd5de0d9	-0.05416951
195	0x3d37ef1a	0.04490576
196	0x3d1248a4	0.035713807
197	0xbd507f9f	-0.05090296
198	0xbd0645eb	-0.032781523
199	0xbd7eb97c	-0.06218861
200	0x3c9618c7	0.018322362
201	0xbd8e488d	-0.06947432
202	0x3d86c5ca	0.06580694
203	0x3d25fa7a	0.040522076
204	0xbd568a66	-0.05237808
205	0x3d128461	0.035770778
206	0x3cc8782d	0.024471367
207	0x3d905b5a	0.07048674
208	0xbd17fb06	-0.03710463
209	0x3d805595	0.062663235
210	0xbbede9d9	-0.007260543
211	0xbd994862	-0.07484509
212	0x3c3e1ad8	0.01160308
213	0x3c8f7337	0.017510993
214	0xbcc82248	-0.02443041
215	0xbdad3a50	-0.08458388
216	0x3bd750d4	0.0065709148
217	0xbb109280	-0.0022059977
218	0x3d9b28f6	0.07576172
219	0x3d6f6efa	0.058455445
220	0xbd1de1a6	-0.038545273
221	0x3bc3e666	0.0059783934
222	0xbcd94d70	-0.026526183
223	0x3d127607	0.03575709
224	0x3c5de23e	0.01354271
225	0x3d89ba43	0.0672498
226	0x3d406805	0.0469742
227	0xbd8e0bfd	-0.0693588
228	0xbd22b091	-0.039719168
229	0x3d930acf	0.07179796
230	0x3d5cb539	0.053883765
231	0xbcbcc1fa	-0.023041714
232	0xbcbfaf5b	-0.023399046
233	0xbd6c195b	-0.05764137
234	0x3dac5e15	0.08416382
235	0xbccfc3c7	-0.025361909
236	0x3c9fe039	0.019516097
237	0xbcaee567	-0.021349622
238	0x3d724212	0.05914504
239	0xbd7a9c2c	-0.061184093
240	0x3d2e5d8d	0.042569686
241	0xbd606e72	-0.05479283
242	0xbd84029e	-0.06445812
243	0x3be5bac7	0.007010791
244	0x3da22c63	0.07918622
245	0x3d0a649d	0.03378736
246	0xbcf945f5	-0.030428866
247	0x3c0b24a3	0.008492622
248	0x3cdc97e9	0.026927905
249	0x3c2b374b	0.010450195
250	0x3ceba01e	0.028762873
251	0xbd159649	-0.036520276
252	0xbc5f8512	-0.013642566
253	0xbc0c466b	-0.008561711
254	0x3d93f257	0.07223957
255	0x3d3af2aa	0.04564158

conv3.bias f4 [16]
0	0xbdab1b33	-0.08354797
1	0x3bb985fa	0.005661723
2	0x3cb810fa	0.022469033
3	0xbda4e50b	-0.08051499
4	0xbd9d6a09	-0.0768624
5	0xbc67ad60	-0.014140457
6	0x3d0c13f8	0.03419873
7	0x3d842d95	0.064540066
8	0x3d4a880a	0.049446143
9	0x3d333ae9	0.043757353
10	0x3d430de4	0.04762067
11	0x3d4c767c	0.049917683
12	0x3c08c0c5	0.008346741
13	0xbc47b810	-0.01218988
14	0x3d7e9bcc	0.0621603
15	0xbd5ca082	-0.05386401

bn3.weight f4 [16]
0	0x3f800000	1.0
1	0x3f800000	1.0
2	0x3f800000	1.0
3	0x3f800000	1.0
4	0x3f800000	1.0
5	0x3f800000	1.0
6	0x3f800000	1.0
7	0x3f800000	1.0
8	0x3f800000	1.0
9	0x3f800000	1.0
10	0x3f800000	1.0
11	0x3f800000	1.0
12	0x3f800000	1.0
13	0x3f800000	1.0
14	0x3f800000	1.0
15	0x3f800000	1.0

bn3.bias f4 [16]
0	0x00000000	0.0
1	0x00000000	0.0
2	0x00000000	0.0
3	0x00000000	0.0
4	0x00000000	0.0
5	0x00000000	0.0
6	0x00000000	0.0
7	0x00000000	0.0
8	0x00000000	0.0
9	0x00000000	0.0
10	0x00000000	0.0
11	0x00000000	0.0
12	0x00000000	0.0
13	0x00000000	0.0
14	0x00000000	0.0
15	0x00000000	0.0

bn3.running_mean f4 [16]
0	0xbecbc690	-0.3979993
1	0x3df92cc5	0.12166742
2	0xbd6737d5	-0.05644973
3	0xbdd02064	-0.10162428
4	0xbea4dc00	-0.32199097
5	0x3c2f0f30	0.010684773
6	0x3eed24b7	0.46317074
7	0x3e2616a3	0.16219573
8	0xbcedb503	-0.029016977
9	0x3da92aa4	0.08260086
10	0xbcbb85f2	-0.022891019
11	0x3c75b2b9	0.014996224
12	0xbd12a1b0	-0.03579873
13	0xbd81244c	-0.06305751
14	0x3e908ae2	0.2823096
15	0x3d251f7f	0.04031324

bn3.running_var f4 [16]
0	0x3e0fa4b3	0.14027672
1	0x3dacba06	0.08433919
2	0x3db0715a	0.0861537
3	0x3d955a91	0.07292665
4	0x3d9f43e6	0.077766225
5	0x3da9e685	0.08295921
6	0x3e893ea2	0.26805598
7	0x3d6302f1	0.055422727
8	0x3db3e360	0.08783603
9	0x3dd6a3a2	0.10480429
10	0x3e031ee4	0.12804753
11	0x3d9986fc	0.07496449
12	0x3d928019	0.07153339
13	0x3e10d8e3	0.14145236
14	0x3e849b9e	0.25899976
15	0x3db1572e	0.08659206

conv4.weight f4 [8, 16, 2, 2]
0	0x3d842dde	0.06454061
1	0x3d4336e4	0.04765977
2	0xbd9b8ce2	-0.07595231
3	0x3d96d1ae	0.07364212
4	0xbc91ca10	-0.017796546
5	0xbd46c138	-0.04852411
6	0x3d598fb8	0.053115577
7	0x3d96ab9a	0.07356949
8	0xbde0d7b2	-0.109786406
9	0xbde3a55c	-0.11115524
10	0x3b977660	0.0046222657
11	0xbdc07b9a	-0.09398575
12	0xbb31ea00	-0.0027147532
13	0xbd94e4e8	-0.07270223
14	0x3dccc944	0.09999326
15	0x3d8c84fa	0.06861301
16	0x3d7c0518	0.061528295
17	0x3c01eee0	0.007930487
18	0xbdc229c2	-0.09480621
19	0x3c0bedd0	0.008540586
20	0x3ddd843a	0.10816236
21	0x3dd02ab2	0.101643935
22	0xbccd3688	-0.025050417
23	0xbdbb122c	-0.091343254
24	0xba21c300	-0.000617072
25	0xbd3110f4	-0.04322906
26	0x3d26ccb4	0.040722564
27	0x3d0981b4	0.03357096
28	0x3dffb000	0.12484741
29	0xbd0df94c	-0.034661576
30	0xbc40bb60	-0.011763424
31	0xbd97090e	-0.07374774
32	0xbd988f28	-0.0744918
33	0x3d83bf70	0.06432998
34	0xbd928e16	-0.07156007
35	0xbd1bf170	-0.03807205
36	0xbd894724	-0.06703022
37	0xbd0841b8	-0.0332658
38	0x3d3bbdf8	0.045835465
39	0x3ce11fa0	0.0274809
40	0x3bb8bc60	0.0056376904
41	0x3db82f4a	0.08993395
42	0xbdf0af1c	-0.117521495
43	0x3d8f171a	0.06986828
44	0xbd53f97c	-0.0517516
45	0x3d65fe48	0.056150705
46	0xbd271bd4	-0.040798023
47	0x3dc66780	0.0968771
48	0x3df177e4	0.117904454
49	0xbbcc8840	-0.006241828
50	0xbd07644c	-0.033054635
51	0x3dfa0146	0.12207274
52	0xbdfb4676	-0.12269299
53	0xbd3b24d4	-0.04568942
54	0x3de71582	0.11283399
55	0x3db100c2	0.08642723
56	0x3d5b74ec	0.053578302
57	0xbdd794ec	-0.105264515
58	0xbc8f93b0	-0.017526478
59	0xbd1ac7c0	-0.037788153
60	0xbc85a8b0	-0.016315788
61	0xbdb0b02e	-0.086273536
62	0x3dfaa5ee	0.1223868
63	0x3d2d689c	0.04233609
64	0xbdc70552	-0.09717812
65	0xbddd5680	-0.10807514
66	0xbde61e9e	-0.112363085
67	0x3d85949a	0.06522484
68	0xbd70a43c	-0.058750376
69	0xbd7efd40	-0.062253237
70	0xbdf58b4e	-0.11989461
71	0x3db0fee6	0.08642368
72	0xbdda8a12	-0.10670866
73	0x3db1dd46	0.08684783
74	0xbd66e758	-0.05637297
75	0x3d90d842	0.07072498
76	0x3ce82278	0.028336748
77	0xbde75732	-0.11295928
78	0x3dd763c6	0.10517077
79	0x3deb402a	0.11486848
80	0x3d461d98	0.048368067
81	0xbd226e6c	-0.039656088
82	0x3dacae34	0.08431664
83	0x3d10d68c	0.035360858
84	0xbd2b8d58	-0.041882843
85	0x3d06da6c	0.032923147
86	0x3d9696bc	0.07352969
87	0x3d93f3d8	0.07224244
88	0xbb2a08c0	-0.0025945157
89	0x3de08ef6	0.10964768
90	0xbcdf77a8	-0.027278736
91	0xbd95547a	-0.07291503
92	0x3de03a98	0.10948676
93	0x3d5d4d60	0.05402887
94	0x3d938d76	0.07204716
95	0xbcc519f0	-0.02406022
96	0xbdee4f96	-0.116362736
97	0xbb9acfa0	-0.004724458
98	0xbda53ca6	-0.080682084
99	0x3dc4651e	0.09589599
100	0xbccedcc8	-0.025251761
101	0xbcba43a8	-0.02273734
102	0x3da14df0	0.078761935
103	0xbd81038e	-0.06299506
104	0xbd85f66c	-0.06541142
105	0x3c5cac30	0.013468787
106	0x3d591dd8	0.053006977
107	0xbd6bf05c	-0.05760227
108	0x3da36138	0.079775274
109	0xbd2d64e0	-0.04233253
110	0xbdcbd9dc	-0.09953663
111	0xbcef6550	-0.029223114
112	0x3d7d4640	0.061834574
113	0xbc786aa0	-0.01516214
114	0x3c5830c0	0.013195217
115	0xbccda208	-0.025101677
116	0xbdde593a	-0.10856862
117	0x3de3d81a	0.111252025
118	0xbd688c44	-0.056774393
119	0x3d837d58	0.06420392
120	0xbdd9d348	-0.10636002
121	0xbbcedec0	-0.006313175
122	0x3d16f5b8	0.03685543
123	0xbdf85e76	-0.12127392
124	0x3df9d182	0.121981636
125	0xbdead60a	-0.11466606
126	0x3ddde37a	0.10834403
127	0xbbc82c40	-0.0061087906
128	0xbd80295a	-0.06257887
129	0x3d8ac068	0.0677498
130	0x3ca78480	0.020448923
131	0x3d75e884	0.060036197
132	0x3dbe53d6	0.09293334
133	0x3de05742	0.10954143
134	0x3d9d4250	0.07678664
135	0x3d24cde8	0.04023543
136	0xbde03bf8	-0.10948938
137	0x3dc46db2	0.09591235
138	0x3dba1a8c	0.09087095
139	0x3d97f83e	0.07420395
140	0x3db9a2d6	0.090642616
141	0xbdcd6cce	-0.100305185
142	0x3ddd1bbe	0.10796307
143	0x3cde8988	0.02716519
144	0xbdcaa61e	-0.098949656
145	0x3be37e40	0.0069425404
146	0xbce39888	-0.027782694
147	0x3de1995a	0.110155776
148	0x3dcd3fbc	0.10021922
149	0x3cb86f98	0.02251415
150	0xbdf81da6	-0.1211503
151	0xbd432d14	-0.04765041
152	0xbd203018	-0.039108366
153	0xbdc89aa0	-0.097951174
154	0x3d745404	0.059650436
155	0xbcd4a650	-0.02595821
156	0xbd231268	-0.039812475
157	0x3cae1718	0.021251246
158	0xbd374af8	-0.04474923
159	0x3da1363a	0.07871671
160	0x3da5f6ea	0.08103736
161	0xbdebbe7c	-0.115109414
162	0x3cdf4c88	0.027258173
163	0xbdb78012	-0.08959974
164	0x3ab3ef80	0.0013727993
165	0xbda2944a	-0.0793844
166	0x3dcfd058	0.1014716
167	0x3d168920	0.036751866
168	0x3bee6d40	0.007276207
169	0xbd48d578	-0.049031705
170	0xbd71e420	-0.059055448
171	0x3dd7f248	0.10544258
172	0x3be597e0	0.0070066303
173	0xbdc4560e	-0.09586726
174	0xbde5eaf8	-0.11226457
175	0x3d615804	0.05501558
176	0x3915dc00	0.00014291704
177	0x3db513a0	0.08841634
178	0xbb818c20	-0.003953472
179	0xbd947314	-0.07248512
180	0x3c8cb950	0.017178208
181	0xbc8be6a8	-0.017077759
182	0x3d23f4c4	0.04002835
183	0xbd43cbe4	-0.047801867
184	0x3c9413b8	0.018075809
185	0xbc94b418	-0.018152282
186	0x3d71cdec	0.059034273
187	0x3d232938	0.03983423
188	0xbde2d23e	-0.11075257
189	0x3d59c79c	0.053168878
190	0x3de0cb70	0.109763026
191	0x3dc6cebe	0.09707402
192	0x3d8cc400	0.068733215
193	0xbb2ace00	-0.0026062727
194	0x3d9e2922	0.07722689
195	0xbc5beea0	-0.013423592
196	0x3c753e80	0.014968514
197	0x3da7504e	0.08169614
198	0xbc4aaff0	-0.012371048
199	0xbbdfc4a0	-0.0068288594
200	0xbc2a7fb0	-0.01040642
201	0xbdae29ee	-0.08504091
202	0x3d8adf4e	0.06780873
203	0x3c97f490	0.018549234
204	0xbc510b80	-0.0127590895
205	0xbb9ba2e0	-0.004749641
206	0x3c1ee470	0.009698018
207	0xbde83b6a	-0.11339457
208	0x3de9c3f2	0.11414327
209	0x3df5a36e	0.11994062
210	0xbd07e5f8	-0.0331783
211	0x3ab23000	0.0013594627
212	0x3df68584	0.12037185
213	0x3d6c34d0	0.057667553
214	0xbd8a3fc0	-0.067504406
215	0xbcc1bd38	-0.023649797
216	0xbcea7cf8	-0.028624043
217	0x3de2eb58	0.110800445
218	0xbdabbec6	-0.083859965
219	0xbc78f770	-0.015195712
220	0x3dff368e	0.12461577
221	0x3de11de2	0.10992028
222	0x3df02318	0.117254436
223	0x3d30fc54	0.04320939
224	0x3ddaea2c	0.10689196
225	0x3de05b0a	0.10954864
226	0x3d493d9c	0.04913102
227	0xbdd2e228	-0.10297042
228	0x3d06e610	0.03293425
229	0xbdabf2b2	-0.083959
230	0x3d08ea80	0.03342676
231	0xbda1d412	-0.07901777
232	0x3c96b060	0.018394649
233	0xbda9c000	-0.08288574
234	0x3db63654	0.08897081
235	0xbd9c26b2	-0.07624568
236	0xbcff4fc8	-0.031165972
237	0xbcbfb280	-0.023400545
238	0xbcbabc00	-0.022794724
239	0xbd80f092	-0.06295885
240	0xbd42164c	-0.047384545
241	0x3da0e54e	0.078562364
242	0xbd38eae8	-0.0451459
243	0xbdf5f854	-0.120102555
244	0x3d844060	0.06457591
245	0xbd079e98	-0.03311023
246	0xbd966012	-0.07342543
247	0x3da430fe	0.08017157
248	0xbde3d3cc	-0.111243814
249	0x3c9cfc20	0.019163191
250	0x3d25664c	0.04038076
251	0x3c8737e8	0.01650615
252	0xbda237ec	-0.079208225
253	0xbd84f290	-0.064915776
254	0x3d9fc9f4	0.078021914
255	0x3d9a2f6a	0.07528575

conv4.bias f4 [8]
0	0xbde8666e	-0.11347662
1	0xbd4c19a8	-0.049829155
2	0xbbe96640	-0.007122785
3	0x3d8afc80	0.06786442
4	0xbd951c80	-0.072808266
5	0x3df85f74	0.12127581
6	0x3dbe37e6	0.092880055
7	0x3d773ba8	0.060359627

bn4.weight f4 [8]
0	0x3f800000	1.0
1	0x3f800000	1.0
2	0x3f800000	1.0
3	0x3f800000	1.0
4	0x3f800000	1.0
5	0x3f800000	1.0
6	0x3f800000	1.0
7	0x3f800000	1.0

bn4.bias f4 [8]
0	0x00000000	0.0
1	0x00000000	0.0
2	0x00000000	0.0
3	0x00000000	0.0
4	0x00000000	0.0
5	0x00000000	0.0
6	0x00000000	0.0
7	0x00000000	0.0

bn4.running_mean f4 [8]
0	0xbdccbf79	-0.09997458
1	0xbdc707a8	-0.09718257
2	0x3e1da250	0.15393949
3	0x3e6a0b87	0.2285596
4	0xbd8254f5	-0.063638605
5	0x3e215806	0.15756235
6	0x3ec95702	0.39324194
7	0x3e73d1b3	0.23810463

bn4.running_var f4 [8]
0	0x3dbe3076	0.09286587
1	0x3dc49909	0.09599502
2	0x3dd54c74	0.10414973
3	0x3da24697	0.0792362
4	0x3de6426c	0.11243138
5	0x3de1476c	0.10999951
6	0x3e420755	0.1894811
7	0x3e8182dc	0.2529515

fc.weight f4 [128, 288]
0	0xbc1a8d74	-0.009433139
1	0x3be40fb0	0.006959878
2	0x3d6e00bf	0.05810618
3	0x3d122c2a	0.03568665
4	0xbd4534bb	-0.04814599
5	0x3cd670f1	0.026176902
6	0x3d459e4b	0.048246663
7	0x3c257a35	0.010099937
8	0x3c573d08	0.01313711
9	0x3cf5cf3f	0.03000605
10	0x3ca2936c	0.019845687
11	0xbc902bcb	-0.017599007
12	0xbd6e009d	-0.058106054
13	0xbca16f36	-0.01970635
14	0xbd675f8f	-0.056487616
15	0xbb26f14c	-0.0025473414
16	0x3d0b5f46	0.034026407
17	0x3d09c755	0.033637363
18	0x3c1c7e76	0.009551635
19	0xbc89cfb2	-0.01682267
20	0xbc43da2c	-0.011953872
21	0xbd2dfe21	-0.042478684
22	0x3cfe063d	0.031008834
23	0x3cf5662a	0.029955942
24	0x3cf1c76e	0.02951404
25	0xbd69ed2b	-0.057110947
26	0xbd02e9f8	-0.03196141
27	0xbbf67103	-0.0075207963
28	0xbcd03e45	-0.025420317
29	0x3d3d273f	0.046180006
30	0xbd4425bd	-0.047887553
31	0xbc8ffdbe	-0.017577048
32	0x3cf3c9a4	0.029759236
33	0xbd19117b	-0.037370186
34	0xbd33cd36	-0.043896876
35	0xbcb96a1e	-0.022633608
36	0x3d60f64e	0.054922394
37	0x3b0ddb79	0.0021645708
38	0x3d6344f8	0.055485696
39	0x3b003ef8	0.0019568782
40	0x3ca7444f	0.020418314
41	0x3bb68461	0.00556998
42	0xbbf33dd4	-0.007423142
43	0xbd0744a2	-0.033024438
44	0x3d0f010c	0.034913108
45	0xbcd5f13c	-0.026116006
46	0xbc353300	-0.011059523
47	0xbd64dbd3	-0.055873703
48	0xbd1d1c0b	-0.038356822
49	0xbb2f5650	-0.0026754327
50	0xbcde555a	-0.027140308
51	0xbce419e9	-0.027844386
52	0xbc8042e7	-0.015656902
53	0xbcccd0f1	-0.025001975
54	0x3c400802	0.011720659
55	0xbcce40ea	-0.025177438
56	0xbcf3334f	-0.029687552
57	0xbd2a13a9	-0.041522656
58	0x3c4b673a	0.012414748
59	0xbd595623	-0.053060662
60	0xbd5b3f02	-0.053526886
61	0xbc86483b	-0.016391864
62	0x3b6240e2	0.0034523536
63	0x3d355e70	0.044279516
64	0xbd67923c	-0.056535944
65	0x3c555829	0.013021507
66	0x3ccaded4	0.024764456
67	0x3caa4b58	0.02078788
68	0x3d1f1e96	0.03884753
69	0x3ce81058	0.028328106
70	0x3a723d44	0.00092406967
71	0xbc95957c	-0.018259756
72	0x3d5abd5f	0.053403255
73	0x3ca062fb	0.019578448
74	0x3cd0ee35	0.025504211
75	0xbc828cfd	-0.01593637
76	0x3d144c7b	0.03620575
77	0x3cd8c244	0.02645982
78	0xbd68d056	-0.05683931
79	0x3d0eb088	0.034836322
80	0xbd1dff3d	-0.038573492
81	0xbd65e28e	-0.056124263
82	0x3d332b49	0.04374245
83	0x3c36fcad	0.011168641
84	0xbd40e7e7	-0.04709616
85	0xbd31d776	-0.04341837
86	0xbd384332	-0.044985957
87	0x3d2153be	0.039386503
88	0x3d6541a4	0.055970803
89	0xbc7fa0f7	-0.015602342
90	0xbd2390f5	-0.039933164
91	0x3c1569cb	0.009119461
92	0x3d1c62c4	0.038180128
93	0x3bb07d0f	0.005386002
94	0xbc9656b4	-0.01835189
95	0xbc7cda97	-0.015432975
96	0xbd1ac7d3	-0.037788223
97	0x3c87fe5c	0.01660078
98	0xbd01bf8a	-0.031676807
99	0x3cf5faac	0.030026756
100	0x3cd706ce	0.026248362
101	0x3c0978f8	0.008390658
102	0xbbf5c10f	-0.007499821
103	0xbd508ea1	-0.05091727
104	0x3c7ab393	0.015301603
105	0x3cdd27fa	0.026996601
106	0xbcfc010d	-0.03076222
107	0xbd554ec2	-0.052077062
108	0x3d2c740f	0.04210287
109	0x3d4850db	0.048905235
110	0x3d40ad3e	0.047040217
111	0x3cd521af	0.026017038
112	0xbcb85c81	-0.022505047
113	0xbd3d8c6e	-0.046276502
114	0xbbe68603	-0.0070350184
115	0x3c0d0876	0.008607974
116	0x3d1791cd	0.03700428
117	0xbc2f065a	-0.010682667
118	0xbd47dad1	-0.048792664
119	0xbd28e413	-0.041233134
120	0x3cdf9e2c	0.027297102
121	0xbd036e07	-0.032087352
122	0xbb49062c	-0.0030673845
123	0xbd18c46b	-0.037296694
124	0x3d512d76	0.051068746
125	0x3d27510a	0.04084877
126	0xbd4ef99a	-0.050531007
127	0x3ceff39b	0.029290965
128	0x3d068730	0.03284377
129	0x3d338cfa	0.043835618
130	0x3c8aa413	0.01692394
131	0x3d2f3f57	0.042785015
132	0xbd1d482d	-0.03839891
133	0x3cff5b5c	0.031171493
134	0x3d264341	0.040591482
135	0x3bf70ddf	0.0075394954
136	0xbd5483d7	-0.051883545
137	0xbd2c8752	-0.04212124
138	0x3ce17e5b	0.027526071
139	0xbbd28470	-0.006424479
140	0x3c765ae2	0.015036317
141	0xbcde9e91	-0.02717522
142	0x3d268fdc	0.04066454
143	0xbce932e0	-0.028466642
144	0xbcf14220	-0.029450476
145	0x3c265ded	0.01015423
146	0xbd124d2a	-0.03571812
147	0xbd5796f5	-0.0526342
148	0x3c1f6e96	0.009730956
149	0xbd2aca9f	-0.04169714
150	0x3d5c7cf8	0.053830117
151	0x3cc8c50f	0.024508027
152	0x3d36c54f	0.044621762
153	0xbca8eb8f	-0.020620136
154	0xbcd27159	-0.025688814
155	0xbc007b84	-0.007841948
156	0x3d4eee4c	0.050520226
157	0xbc4a5ea6	-0.0123516675
158	0xbbd9877d	-0.006638466
159	0x3c89427a	0.016755331
160	0xbd0ce584	-0.03439857
161	0x3d5285e7	0.05139723
162	0xbd38d226	-0.04512229
163	0xbc80d81e	-0.015728053
164	0x3d624c69	0.05524865
165	0x3c0b6368	0.008507587
166	0xbcad0dab	-0.021124681
167	0x3ce5c1e9	0.028046565
168	0x3bed453d	0.00724092
169	0xbc396473	-0.011315453
170	0xbd5363ce	-0.051608853
171	0x3b612391	0.0034353475
172	0x3cc2977f	0.02375388
173	0xbbb077b2	-0.0053853625
174	0xbd578ffa	-0.05262754
175	0xbc04fa02	-0.008116247
176	0xbcbf4a5f	-0.023350893
177	0x3c208446	0.009797161
178	0x3c9c43ef	0.019075362
179	0xbd4bc6aa	-0.049750008
180	0x3d47c2cd	0.04876976
181	0x3d1ade96	0.03780993
182	0xbc3eea40	-0.011652529
183	0xbd6737c5	-0.05644967
184	0x3d6c86f8	0.057745904
185	0x3cb38d32	0.021917913
186	0x3a7463de	0.00093227427
187	0x3d70caa0	0.05878699
188	0x3cc3ed75	0.02391694
189	0xbc8589c9	-0.016301053
190	0x3d305e98	0.04305896
191	0x3d3c6aaf	0.04600018
192	0x3d570c29	0.05250183
193	0x3cb14913	0.02164129
194	0x3d082127	0.03323474
195	0xbd6b4b88	-0.05744508
196	0xbcfaf2dc	-0.030633382
197	0xbd414832	-0.04718799
198	0x3c8b3200	0.016991615
199	0x3cad4d44	0.021155007
200	0x3ceb7bf6	0.028745633
201	0x3c8ee520	0.01744324
202	0xbd4f487a	-0.05060623
203	0x3ce95646	0.028483521
204	0xbcb2b273	-0.021813607
205	0xbd37e5ef	-0.044897016
206	0x3c397719	0.011319899
207	0x3d64d34e	0.05586558
208	0x3d03db5f	0.03219163
209	0xbcbb9c90	-0.022901803
210	0x3c02621f	0.007957964
211	0xbd4bf0fb	-0.049790364
212	0x3d419af3	0.04726691
213	0xbbaa014e	-0.005188144
214	0xbcd431f6	-0.02590273
215	0xbce0287c	-0.027363054
216	0x3cd384c7	0.02582015
217	0xbc59005f	-0.013244717
218	0xbd3ceff0	-0.04612726
219	0xbba106ad	-0.004914126
220	0x3c8159a6	0.015789818
221	0xbd2af472	-0.041737027
222	0x3aa23113	0.0012374244
223	0xbd6bbcba	-0.05755303
224	0x3d22275e	0.039588325
225	0x3d1954de	0.03743445
226	0xbd365dc8	-0.04452303
227	0xbcbef0a8	-0.023308113
228	0xbcff53f3	-0.03116796
229	0x3d215285	0.039385337
230	0x3d14ef75	0.036361177
231	0xbd4f015a	-0.0505384
232	0xbc69c528	-0.014268197
233	0xbd30ed9d	-0.043195356
234	0xbd0c53a7	-0.034259465
235	0xbc65a33d	-0.01401597
236	0x3cda8431	0.026674362
237	0x3c8f4bcd	0.0174922
238	0x3a1b83ff	0.000593245
239	0xbcc86586	-0.024462473
240	0x3c9da37f	0.019243
241	0x3d16eb5a	0.036845542
242	0x3ca33eda	0.01992743
243	0x3c3c14d1	0.011479572
244	0x3c6af555	0.014340718
245	0x3d5227de	0.05130755
246	0xbc145fe4	-0.009056065
247	0x3c1a33ae	0.009411735
248	0x3af2d32c	0.0018526069
249	0x3c465c7e	0.012107013
250	0xbd028963	-0.031869303
251	0x3d345a46	0.044031404
252	0x3c3b2b53	0.0114239035
253	0xbd30d0c9	-0.043167863
254	0xbb64140c	-0.0034801988
255	0x3cb62088	0.022232309

fc.bias f4 [128]
0	0x3d031f88	0.032012492
1	0x3d2d344b	0.0422862
2	0xbc13c362	-0.009018751
3	0x3cd8b0d2	0.026451502
4	0xbcd6249e	-0.026140507
5	0x38f2b31e	0.000115728224
6	0xbc81fdef	-0.015868155
7	0x3cd3a625	0.02583606
8	0x3d702ba4	0.05863537
9	0xbaeaaf54	-0.0017905035
10	0xbd692aec	-0.0569257
11	0xbd250cb2	-0.04029531
12	0xbc995456	-0.018716972
13	0x3d2f5855	0.04280885
14	0x3c52cd63	0.012866351
15	0x3d3b1923	0.04567827
16	0x3c333964	0.010938976
17	0xbcc12d6a	-0.023581225
18	0x3cf35076	0.029701453
19	0xbcffc0f2	-0.031219933
20	0x3b224558	0.002476057
21	0x3d07a056	0.033111893
22	0xbc9c037f	-0.019044636
23	0x3caa81ec	0.020813905
24	0xbbbf5686	-0.005839172
25	0xbc6ef002	-0.0145835895
26	0xbcee2135	-0.029068569
27	0xbc70fd09	-0.014708766
28	0x3d705cd1	0.058682267
29	0xbc9d4a94	-0.0192006
30	0xbd2fce80	-0.042921543
31	0x3d1310ee	0.035904817
32	0x3d008802	0.031379707
33	0x3c61c687	0.013780243
34	0xbc4483d9	-0.011994326
35	0xbd70ce63	-0.058790576
36	0x3d259107	0.040421512
37	0xbcfe0be9	-0.031011539
38	0xb977b556	-0.00023623309
39	0x3cb112bf	0.021615384
40	0x3b8b406f	0.0042496244
41	0xbcac97f0	-0.021068543
42	0x3c717a1a	0.014738584
43	0xbd389703	-0.04506589
44	0x3ca65ad9	0.020306991
45	0x3d2e9ee8	0.042632014
46	0x3d2f6427	0.042820122
47	0xbd47a283	-0.048738968
48	0xbce242cd	-0.027619744
49	0xbd1fa7b5	-0.038978297
50	0xbd16972b	-0.03676526
51	0xbd310287	-0.0432153
52	0xbd045ef0	-0.032317102
53	0xbbaeaf9d	-0.0053309933
54	0xbd511d35	-0.051053245
55	0x3ce9b3fb	0.028528204
56	0xbd1d86c0	-0.038458586
57	0xbd69985e	-0.057030074
58	0xbcda56a4	-0.026652642
59	0xbcd7050d	-0.026247526
60	0x3d45b994	0.048272684
61	0xbd5e7a1c	-0.05431567
62	0xbd595404	-0.05305864
63	0xbd522214	-0.05130203
64	0xbcd6c469	-0.026216703
65	0xbc15faf5	-0.009154071
66	0x3cf0971c	0.02936893
67	0x3c3b7884	0.011442307
68	0xbcae0ae3	-0.021245426
69	0x3cf36941	0.029713275
70	0x3d378352	0.04480297
71	0xbd690e88	-0.056898624
72	0x3caa881c	0.020816855
73	0xbc5b74e7	-0.013394571
74	0x3c8eaaa4	0.017415352
75	0xbd467386	-0.048450015
76	0xba1ace82	-0.0005905406
77	0xbd439be2	-0.047756083
78	0x3cb088af	0.02154955
79	0xbc43fde9	-0.011962392
80	0x3d0e0812	0.034675665
81	0x3d61006b	0.05493204
82	0xbd5cfece	-0.05395394
83	0xbcd04b29	-0.025426464
84	0xbd5d1a82	-0.053980358
85	0x3d5c0b3c	0.05372165
86	0xbc50e4a9	-0.012749829
87	0xbd291df8	-0.041288346
88	0x3c4a53b1	0.012349055
89	0xbd4a5520	-0.049397588
90	0xbd5b2a7c	-0.053507313
91	0xbb23c8b9	-0.0024991466
92	0xbc4bebd6	-0.012446364
93	0x3ab97490	0.0014149118
94	0x3ca992bb	0.02069985
95	0xbaf0adfc	-0.0018362398
96	0x3c90ecff	0.017691134
97	0x3d3a0cce	0.045422368
98	0x3d6444d6	0.05572971
99	0xbce4cb9d	-0.027929122
100	0x3c49691b	0.0122931255
101	0xbbae9446	-0.005327734
102	0x3bf1c94d	0.0073787333
103	0xbd6664e4	-0.05624856
104	0x3d5c798b	0.05382685
105	0xbd30a0d0	-0.043122113
106	0x3cfc5b57	0.030805273
107	0x3d4ff181	0.050767425
108	0xbc258deb	-0.010104637
109	0x3d1a60f9	0.037690137
110	0xbd3ee198	-0.04660186
111	0x3cbed9c4	0.023297198
112	0x3d5c97e4	0.05385579
113	0x3d6bde02	0.05758477
114	0x3d1d0a49	0.038339887
115	0xbd1e8498	-0.03870067
116	0x3cf70cde	0.030157503
117	0x3d3f8497	0.046757307
118	0x3d0aaf66	0.03385868
119	0x3c060176	0.008179059
120	0xbd556968	-0.052102476
121	0x3d4aa6ee	0.049475603
122	0xbd53b508	-0.051686317
123	0x3bac8f70	0.0052661225
124	0xbd639808	-0.05556491
125	0xbcdec1d2	-0.02719203
126	0x39d5c73d	0.0004077497
127	0x3c00d7ac	0.00786392
