Model exports/last_model_Nov21_Protein_2024_11211449.pth (torch, 540770 bytes, 68 tensors)

conv1.weight f4 [16, 3, 2, 2]
-0.046757165 0.050532587 -0.04209059 0.075457215 -4.935e-42 -5.028e-42 -5.033e-42 5.05e-42
-0.059984673 -0.22926539 -0.13912067 -0.15979856 0.2338477 0.20275918 0.05866098 -0.22813648
-6.031e-42 -4.933e-42 4.963e-42 5.01e-42 0.1094349 -0.05969472 0.10530526 -0.08918724
0.121117584 0.045741513 0.1431777 0.22031748 4.91e-42 4.937e-42 4.959e-42 -4.907e-42
0.16116866 -0.104674846 -0.07138161 0.119620115 0.120299265 0.032959297 0.10800408 0.13616996
4.913e-42 4.927e-42 4.926e-42 4.96e-42 -0.24050158 0.15106204 -0.09216464 0.061979126
-0.23998196 -0.15186906 -0.25373656 0.22723356 -4.91e-42 -5.02e-42 -4.906e-42 -4.944e-42
0.14675406 0.027037937 -0.23367925 -0.08334892 -0.1928849 0.1772108 0.19664277 0.07578468
-4.912e-42 -4.942e-42 5.012e-42 -5.036e-42 -0.14208288 0.019617379 0.05293609 -0.08306953
-0.09303753 -0.18057317 -0.015131951 -0.030298281 -5.05e-42 -4.921e-42 4.962e-42 -6.183e-42
-0.119787276 -0.2120045 0.09083956 0.13025989 0.23144929 -0.19665073 -0.1559761 -0.044355184
4.954e-42 -5.796e-42 6.09e-42 -4.935e-42 -0.21526872 -0.14248167 -0.052393068 0.15758426
-0.06585783 0.06264896 -0.18666416 -0.22098413 -4.986e-42 -4.977e-42 -4.948e-42 4.977e-42
-0.264888 0.015051411 -0.14227651 0.11645665 0.16120686 0.24059913 0.05750286 0.030183008
4.993e-42 4.945e-42 -4.912e-42 -4.951e-42 -0.1721748 0.018051447 0.19968598 -0.06740919
-0.059536077 0.22879218 0.10045383 0.15550561 -4.933e-42 4.966e-42 -4.941e-42 -4.916e-42
0.15391499 -0.08665462 -0.03489457 -0.1518573 -0.16845936 -0.22780918 -0.042466115 0.265281
5e-42 -4.913e-42 5.423e-42 -4.969e-42 0.13126625 -0.27509564 -0.1786455 0.05798961
0.009988242 0.15000716 -0.114023186 -0.049750134 5.118e-42 4.944e-42 4.913e-42 4.99e-42
-0.10768275 0.27938643 0.13664685 0.045848016 -0.14061956 -0.21624383 0.13089372 0.17465883
4.93e-42 5.042e-42 -4.95e-42 -5.008e-42 0.03309705 -0.07542934 0.06138157 0.076489225
0.20002083 0.15100601 0.099977955 0.07273749 -4.942e-42 4.947e-42 -4.97e-42 -4.935e-42
-0.082190506 -0.0035746687 0.20028788 -0.17246775 0.101692915 -0.17631923 -0.13156073 -0.09867326
4.912e-42 4.906e-42 4.927e-42 5.112e-42 0.05970847 -0.022201432 -0.07147809 0.14464588
00000000: 7184 3fbd 42fb 4e3d 2f67 2cbd 5089 9a3d
00000010: c20d 0080 040e 0080 080e 0080 140e 0000
00000020: 7db2 75bd 8cc4 6abe a675 0ebe 3ca2 23be
00000030: c575 6f3e 1aa0 4f3e 7f46 703d 9c9c 69be
00000040: d010 0080 c00d 0080 d60d 0000 f70d 0000
00000050: 681f e03d 7382 74bd 49aa d73d cda7 b6bd
00000060: 7f0c f83d 745b 3b3d 2d9d 123e e89a 613e
00000070: b00d 0000 c30d 0000 d30d 0000 ae0d 0080
00000080: 6609 253e c45f d6bd 8630 92bd 64fb f43d
00000090: 765f f63d 5400 073d 3e31 dd3d 2370 0b3e
000000a0: b20d 0000 bc0d 0000 bb0d 0000 d40d 0000
000000b0: 0c46 76be 02b0 1a3e d1c0 bcbd d3dd 7d3d
000000c0: d5bd 75be 9083 1bbe c2e9 81be eaaf 683e
000000d0: b00d 0080 fe0d 0080 ad0d 0080 c80d 0080
000000e0: b246 163e aa7e dd3c 9d49 6fbe d7b2 aabd
000000f0: 9f83 45be bf76 353e b95c 493e 0035 9b3d
00000100: b10d 0080 c70d 0080 f90d 0000 0a0e 0080
00000110: 2d7e 11be a0b4 a03c 83d3 583d 5c20 aabd
00000120: 768a bebd 2ce8 38be 01ec 77bc 1a34 f8bc
00000130: 140e 0080 b80d 0080 d50d 0000 3c11 0080
00000140: 0853 f5bd b517 59be 170a ba3d d962 053e
00000150: 0b01 6d3e cf5e 49be 33b8 1fbe c8ad 35bd
00000160: cf0d 0000 2810 0080 fa10 0000 c20d 0080
00000170: 676f 5cbe b7e6 11be 1d9a 56bd c55d 213e
00000180: 78e0 86bd 194e 803d e424 3fbe aa49 62be
00000190: e60d 0080 e00d 0080 cb0d 0080 e00d 0000
000001a0: 669f 87be 329a 763c efb0 11be d380 ee3d
000001b0: 6913 253e 9e5f 763e 1e88 6b3d 5b42 f73c
000001c0: eb0d 0000 c90d 0000 b10d 0080 cd0d 0080
000001d0: 974e 30be a1e0 933c 7b7a 4c3e d40d 8abd
000001e0: 1adc 73bd 7f48 6a3e bdba cd3d dd3c 1f3e
000001f0: c00d 0080 d80d 0000 c60d 0080 b40d 0080
00000200: e49b 1d3e fa77 b1bd 9ced 0ebd 7b80 1bbe
00000210: 9c80 2cbe cf46 69be f3f0 2dbd e9d2 873e
00000220: f00d 0000 b20d 0080 1e0f 0000 da0d 0080
00000230: a96a 063e 56d9 8cbe d9ee 36be 8386 6d3d
00000240: b9a5 233c 7a9b 193e fd84 e9bd ccc6 4bbd
00000250: 440e 0000 c80d 0000 b20d 0000 e90d 0000
00000260: c688 dcbd bd0b 8f3e 27ed 0b3e 21cb 3b3d
00000270: 93fe 0fbe 066f 5dbe 0109 063e c4d9 323e
00000280: be0d 0000 0e0e 0000 cc0d 0080 f60d 0080
00000290: c690 073d b37a 9abd 3e6b 7b3d 62a6 9c3d
000002a0: 43d2 4c3e 52a1 1a3e 3ec1 cc3d 65f7 943d
000002b0: c70d 0080 ca0d 0000 db0d 0080 c20d 0080
000002c0: 7f53 a8bd fd44 6abb 4418 4d3e 639b 30be
000002d0: 6044 d03d 078d 34be dbb7 06be 3515 cabd
000002e0: b10d 0000 ad0d 0000 bc0d 0000 400e 0000
000002f0: de90 743d c7df b5bc 1b63 92bd 0d1e 143e

conv1.bias f4 [16]
1.5508077e-06 8.510147e-07 9.44116e-07 -3.146459e-06 4.3229666e-06 3.2209816e-06 -7.1745403e-06 -6.5595373e-06
1.0286377e-05 -2.7396534e-06 4.4595304e-06 1.3239176e-05 6.3428492e-06 -5.353768e-06 3.8406847e-06 2.608585e-07
00000000: 5925 d035 4971 6435 286f 7d35 c127 53b6
00000010: 000e 9136 0b28 5836 d5bc f0b6 ff19 dcb6
00000020: a793 2c37 e3da 37b6 13a3 9536 d41d 5e37
00000030: a9d4 d436 84a4 b3b6 3bdf 8036 1f0c 8c34

bn1.weight f4 [16]
0.95910615 0.91354865 0.9449628 0.93600225 0.9759446 0.9244403 0.9482692 0.88517696
0.87216884 0.91541666 0.9568611 0.9624112 0.9403708 0.9457159 0.92979556 0.9517005
00000000: fb87 753f 53de 693f 15e9 713f d89d 6f3f
00000010: 81d7 793f 1fa8 6c3f c5c1 723f f59a 623f
00000020: 7546 5f3f bf58 6a3f d9f4 743f 9560 763f
00000030: 24bc 703f 701a 723f 1507 6e3f a5a2 733f

bn1.bias f4 [16]
-0.033562947 0.028882144 -0.019170005 -0.0050909943 0.04363018 -0.009389699 0.020237185 0.04214753
0.016842663 0.006278156 0.00021312758 -0.04643301 0.030899972 -0.03637661 0.020803817 0.025456768
00000000: 4d79 09bd 3f9a ec3c 6a0a 9dbc 5bd2 a6bb
00000010: 8fb5 323d 41d7 19bc 74c8 a53c e3a2 2c3d
00000020: a0f9 893c fdb8 cd3b 007b 5f39 8a30 3ebd
00000030: f021 fd3c a4ff 14bd c46c aa3c b68a d03c

bn1.running_mean f4 [16]
-78.80018 37.471806 75.19451 27.748695 -64.33682 8.010091 -52.65849 -56.840733
-87.44673 50.01822 32.255844 -54.840317 48.54974 9.370251 49.820805 -19.382093
00000000: b199 9dc2 21e3 1542 9763 9642 54fd dd41
00000010: 74ac 80c2 5529 0041 4ba2 52c2 e95c 63c2
00000020: bae4 aec2 a812 4842 fc05 0142 7c5c 5bc2
00000030: ef32 4242 8cec 1541 8148 4742 870e 9bc1

bn1.running_var f4 [16]
219.7324 27.459297 101.35036 152.89615 55.788944 94.43499 26.517492 14.194438
18.428307 154.70778 168.28865 11.226667 72.549126 15.9685955 195.12741 98.406494
00000000: 7fbb 5b43 a4ac db41 62b3 ca42 6ae5 1843
00000010: e127 5f42 b7de bc42 d323 d441 6b1c 6341
00000020: 2c6d 9341 31b5 1a43 e549 2843 6ea0 3341
00000030: 2719 9142 5e7f 7f41 9e20 4343 20d0 c442

conv2.weight f4 [32, 16, 2, 2]
0.05875327 0.056334656 0.049296863 0.008630274 0.024994355 -0.053608283 0.072210684 0.031682055
0.030606732 0.07465603 0.06665389 0.09595281 -0.042106472 -0.08126312 0.14255343 0.094014026
-0.027709417 -0.08993221 -0.078407064 0.077849634 -0.088088326 0.012830513 0.06232822 -0.06801471
0.081370175 -0.10183311 -0.08236255 0.049567565 0.03398637 0.07497777 -0.047072 -0.063498616
0.07325199 -0.082199804 -0.05543856 -0.064584374 -0.09005769 0.037871618 0.03446335 -0.038399324
-0.028297579 -0.0575927 0.120857306 -0.061198328 0.03450628 -0.07976946 0.0008592433 0.03380305
0.093587175 0.06704157 -0.06906679 -0.07598176 0.005787962 -0.014564127 -0.05550354 -0.12879369
0.014805166 0.071227595 0.109887555 -0.07000223 0.08266068 -0.052754868 -0.013907534 -0.10406122
0.0308802 -0.032124676 -0.0058328053 0.1310199 -0.11429744 0.042802025 -0.044520684 -0.009738793
-0.013908309 0.1046106 0.10244531 -0.06792042 -0.08521236 -0.043542553 0.09637004 0.11885693
-0.11431156 -0.07216026 -0.033880044 0.11972447 0.051197987 -0.005018029 0.10514445 -0.01347328
0.0122621115 0.006093069 0.032235123 -0.12681834 -0.0073198634 -0.0081821 0.03263133 0.04728578
0.05483142 0.06437964 -0.008603458 -0.0004081261 -0.082511425 -0.004191761 0.058824264 0.12288102
-0.08345144 -0.099595815 0.104569055 -0.054404046 0.06410104 -0.04678508 -0.120447256 0.059230033
0.041139267 -0.042697936 -0.06068687 -0.090337366 0.05222665 -0.02584619 0.09295831 0.08506794
0.036939066 -0.042375397 -0.032430857 -0.06472277 -0.024558883 -0.06038497 -0.09834963 0.018152274
0.09476944 -0.054071285 0.02164097 0.022046318 0.07774486 -0.098648176 0.065545164 -0.03000688
0.006814183 0.057584137 -0.059448123 -0.03778355 0.051241904 -0.058304977 -0.094248146 -0.0059168097
-0.021198178 0.0782392 0.12432252 0.02481876 0.0808656 -0.056165647 -0.074185155 -0.007964896
0.08309374 -0.075268306 0.0049255663 0.05654985 0.058866274 -0.061461672 0.054745346 0.0886932
-0.05491902 0.070364624 -0.091687605 -0.04406548 0.04355695 0.035671853 0.090154834 0.06569175
0.093901895 -0.06586946 0.10233527 0.063802116 -0.058772743 -0.051389307 0.032058768 0.05429083
0.015517202 -0.069686666 -0.09768809 -0.051539104 -0.046546068 -0.007957938 0.0027445136 -0.06611305
-0.025682392 -0.07288135 0.117935635 0.10681661 -0.11850659 -0.068634614 0.04759538 0.034433544
0.020704353 -0.089275345 0.09579872 0.1288585 -0.11508812 -0.04315455 -0.07390388 -0.0061605875
-0.07086654 0.013783676 0.017567113 0.090211414 -0.043427337 -0.07382544 0.08291176 -0.014144363
0.02747436 0.0173663 -0.020939887 0.07959562 0.019275771 -0.081490554 -0.04750355 -0.030990846
0.11012292 -0.025093503 0.029622022 0.03395802 -0.13513744 0.015475638 -0.06822984 0.007852138
0.043333642 -0.014647872 -0.022090772 0.0018837545 -0.001790749 -0.027765868 -0.0015783657 -0.044207692
0.07513655 0.06542603 -0.04010422 0.0065849293 -0.06350908 -0.08062964 -0.098146215 0.027770106
-0.011018694 -0.08489443 -0.04322983 0.013288758 -0.120915234 -0.084515564 -0.056517385 0.04075047
-0.079210475 -0.11725662 0.056162897 -0.076530166 0.07217494 0.13168359 -0.049698133 -0.08618149
00000000: 45a7 703d 2bbf 663d 82eb 493d fe65 0d3c
00000010: f6c0 cc3c 5c94 5bbd 32e3 933d 0bc5 013d
00000020: f8ba fa3c 43e5 983d d681 883d e882 c43d
00000030: d677 2cbd 476d a6bd 87f9 113e 6d8a c03d
00000040: dcfe e2bc 612e b8bd e293 a0bd a16f 9f3d
00000050: a767 b4bd 1237 523c e04b 7f3d 4c4b 8bbd
00000060: 68a5 a63d e18d d0bd b2ad a8bd 5c07 4b3d
00000070: 4b35 0b3d f28d 993d 92ce 40bd 900b 82bd
00000080: 2405 963d 5f58 a8bd 8b13 63bd d044 84bd
00000090: 2b70 b8bd 451f 1b3d 7129 0d3d 9c48 1dbd
000000a0: 53d0 e7bc 53e6 6bbd 0984 f73d 19ab 7abd
000000b0: 7556 0d3d 2c5e a3bd d73e 613a 1175 0a3d
000000c0: a2aa bf3d 174d 893d e472 8dbd 539c 9bbd
000000d0: f2a8 bd3b 609e 6ebc ae57 63bd 7ee2 03be
000000e0: 5e91 723c c6df 913d ba0c e13d 545d 8fbd
000000f0: 014a a93d 7d15 58bd 6ddc 63bc 0d1e d5bd
00000100: 79f8 fc3c 2a95 03bd 1e21 bfbb 152a 063e
00000110: c714 eabd 2d51 2f3d 525b 36bd 758f 1fbc
00000120: addf 63bc 153e d63d d9ce d13d dc19 8bbd
00000130: d183 aebd ad59 32bd a85d c53d 436b f33d
00000140: 2e1c eabd c2c8 93bd cdc5 0abd 1a32 f53d
00000150: fbb4 513d 476e a4bb f955 d73d 08bf 5cbc
00000160: 06e7 483c 5ea8 c73b fa08 043d abdc 01be
00000170: 77db efbb 370e 06bc 6ea8 053d bcae 413d
00000180: e996 603d 79d9 833d 85f5 0cbc c2f9 d5b9
00000190: c0fb a8bd 0a5b 89bb b6f1 703d 0ba9 fb3d
000001a0: 97e8 aabd e4f8 cbbd 4d28 d63d c7d6 5ebd
000001b0: 6847 833d b6a1 3fbd 0dad f6bd 319b 723d
000001c0: a681 283d 08e4 2ebd cc92 78bd cc02 b9bd
000001d0: 9deb 553d 64bb d3bc ed60 be3d 1a38 ae3d
000001e0: 6b4d 173d d391 2dbd 38d6 04bd 5f8d 84bd
000001f0: b62f c9bc 3b56 77bd 886b c9bd 14b4 943c
00000200: 7b16 c23d da79 5dbd 6748 b13c 7b9a b43c
00000210: b238 9f3d 0e08 cabd 8b3c 863d fdd0 f5bc
00000220: 8349 df3b 58dd 6b3d e07f 73bd ecc2 1abd
00000230: 08e3 513d 33d1 6ebd 2c05 c1bd cce1 c1bb
00000240: cda7 adbc e03b a03d ce9c fe3d b650 cb3c
00000250: dd9c a53d f30d 66bd 63ee 97bd 327f 02bc
00000260: 0d2d aa3d 4526 9abd a566 a13b d1a0 673d
00000270: c31d 713d 3cbf 7bbd a83c 603d c8a4 b53d
00000280: c4f2 60bd 541b 903d b6c6 bbbd 017e 34bd
00000290: c668 323d a61c 123d 19a3 b83d 6589 863d
000002a0: a34f c03d 91e6 86bd 2795 d13d afaa 823d
000002b0: b0bb 70bd 987d 52bd 0e50 033d 1060 5e3d
000002c0: dd3b 7e3c e2b7 8ebd b110 c8bd ab1a 53bd
000002d0: 17a7 3ebd 0362 02bc 4cdd 333b 4766 87bd
000002e0: e163 d2bc d142 95bd 3d88 f13d abc2 da3d
000002f0: 95b3 f2bd 4e90 8cbd 60f3 423d 300a 0d3d
00000300: 2d9c a93c fed5 b6bd 1f32 c43d 7cf3 033e
00000310: 52b3 ebbd d3c2 30bd eb5a 97bd c1de c9bb
00000320: 7a22 91bd edd4 613c e8e8 8f3c c3c0 b83d
00000330: dde0 31bd cb31 97bd a4cd a93d c2bd 67bc
00000340: e911 e13c c543 8e3c 208a abbc 0703 a33d
00000350: 39e8 9d3c 85e4 a6bd 1593 42bd 84e0 fdbc
00000360: 2088 e13d e490 cdbc e2a9 f23c 9117 0b3d
00000370: 7861 0abe 888d 7d3c 16bc 8bbd 41a6 003c
00000380: 9e7e 313d a1fd 6fbc b5f7 b4bc 50e8 f63a
00000390: 91b7 eaba 3f75 e3bc 2ae1 ceba 2013 35bd
000003a0: 31e1 993d 15fe 853d 5344 24bd 64c6 d73b
000003b0: 0c11 82bd 2721 a5bd e200 c9bd 227e e33c
000003c0: c187 34bc 22dd adbd c311 31bd 17b9 593c
000003d0: 68a2 f7bd 7f16 adbd c67e 67bd f7e9 263d
000003e0: 1a39 a2bd 3d24 f0bd 110b 663d d9bb 9cbd
000003f0: 74d0 933d 10d8 063e 4590 4bbd ec7f b0bd

conv2.bias f4 [32]
-7.4469126e-06 -4.578804e-06 2.5645842e-05 -1.8632039e-06 -6.3042785e-07 -1.4437372e-05 1.6867841e-06 6.0407738e-06
1.889865e-06 -3.5358054e-05 4.0040186e-06 6.528921e-07 2.2653094e-05 2.5719013e-05 1.4099745e-05 1.12027365e-05
7.007539e-06 3.8818303e-05 -2.928052e-05 -7.7976e-06 -2.4275703e-05 8.578306e-06 9.974389e-06 -2.6318045e-05
-7.5272183e-06 -3.275794e-05 5.9916915e-06 -2.1551741e-05 2.3144305e-06 -3.0633928e-05 1.7296612e-05 2.1588368e-05
00000000: 7ee0 f9b6 a0a3 99b6 0722 d737 3313 fab5
00000010: ac3a 29b5 0a38 72b7 7665 e235 dab1 ca36
00000020: 44a7 fd35 6c4d 14b8 425a 8636 6742 2f35
00000030: 2607 be37 29bf d737 f28d 6c37 63f3 3b37
00000040: 4d22 eb36 d6d0 2238 709f f5b7 70d2 02b7
00000050: ada3 cbb7 8beb 0f37 ad57 2737 92c5 dcb7
00000060: 5092 fcb6 9265 09b8 3d0c c936 03ca b4b7
00000070: 9d51 1b36 ee7c 00b8 3118 9137 ab18 b537

bn2.weight f4 [32]
0.92067736 0.8183435 0.9289205 0.9074625 0.90257037 0.89835805 0.8689404 0.83541226
0.82330906 0.9106897 0.91006804 0.8331499 0.8539921 0.9363375 0.9284477 0.91915387
0.85981756 0.87694114 0.9168281 0.88041687 0.9332314 0.8598814 0.801638 0.93701714
0.90787804 0.84342444 0.9225292 0.91606706 0.850525 0.8977979 0.87425685 0.9097323
00000000: 83b1 6b3f f67e 513f bccd 6d3f 764f 683f
00000010: da0e 673f cbfa 653f e172 5e3f 94dd 553f
00000020: 62c4 523f f622 693f 38fa 683f 5049 553f
00000030: 3a9f 5a3f d0b3 6f3f c0ae 6d3f ab4d 6b3f
00000040: 011d 5c3f 377f 603f 3fb5 6a3f 0063 613f
00000050: 41e8 6e3f 3021 5c3f 2638 4d3f 5be0 6f3f
00000060: b26a 683f aaea 573f e02a 6c3f 5f83 6a3f
00000070: 02bc 593f 15d6 653f 4ccf 5f3f 37e4 683f

bn2.bias f4 [32]
-0.011745497 -0.008003654 0.00041479946 0.061440166 0.004823877 -0.020840162 -0.013313625 0.019387834
0.012645655 -0.0014001312 -0.011882195 0.07092401 0.013241188 -0.023678126 -0.013875335 0.05014953
0.009420641 -0.03199338 -0.04922568 0.0037914368 -0.066550255 0.004102119 -0.024694351 -0.025897415
0.018940805 -0.011635691 -0.015268532 -0.0021481777 -0.0069518075 -0.008555443 -0.01489105 0.009500125
00000000: 2f70 40bc c221 03bc 7179 d939 afa8 7b3d
00000010: 9d11 9e3b fdb8 aabc 6421 5abc 3cd3 9e3c
00000020: b92f 4f3c 9b84 b7ba 8aad 42bc 9b40 913d
00000030: 91f1 583c a1f8 c1bc 6055 63bc 9869 4d3d
00000040: 0859 1a3c 7e0b 03bd dea0 49bd c179 783b
00000050: 804b 88bd 116b 863b cf4b cabc d126 d4bc
00000060: bf29 9b3c a0a3 3ebc dd28 7abc 71c8 0cbb
00000070: fdcb e3bb 212c 0cbc 97f9 73bc 6aa6 1b3c

bn2.running_mean f4 [32]
0.13871305 0.04919754 0.12036052 -0.15854016 -0.108096436 -0.46476284 -0.047829855 -0.1222591
-0.17178877 -0.09969808 -0.0062393905 -0.2456006 -0.17179902 0.24879941 0.26640543 -0.29713827
0.060644165 -0.06330931 0.08845451 -0.08776112 0.11374716 -0.25434306 -0.23536305 0.24573345
-0.26304236 0.073021635 0.026642706 0.07152611 -0.05035683 0.115127064 -0.3947288 -0.27895093
00000000: cb0a 0e3e 5c83 493d 947f f63d 5a58 22be
00000010: aa61 ddbd 65f5 edbe 3de9 43bd fb62 fabd
00000020: 65e9 2fbe 822e ccbd cd73 ccbb b97e 7bbe
00000030: 15ec 2fbe 46c5 7e3e 4b66 883e 8222 98be
00000040: 0466 783d 50a8 81bd a327 b53d 1abc b3bd
00000050: 45f4 e83d 4139 82be 0303 71be 8da1 7b3e
00000060: 7dad 86be 5e8c 953d ce41 da3c 487c 923d
00000070: f742 4ebd bdc7 eb3d e519 cabe a8d2 8ebe

bn2.running_var f4 [32]
0.19743988 0.086074024 0.13213152 0.03713989 0.16933718 0.108267486 0.049312 0.05116845
0.12012147 0.031891905 0.0318853 0.13519095 0.037320904 0.04685468 0.07102199 0.101737216
0.028963802 0.026593193 0.015809566 0.0922856 0.022929216 0.13839884 0.18642381 0.023455882
0.10481002 0.056169145 0.13496043 0.12384308 0.10100777 0.028209595 0.12546623 0.16750614
00000000: ae2d 4a3e 9447 b03d 7c4d 073e ff1f 183d
00000010: ba66 2d3e 58bb dd3d 61fb 493d 0296 513d
00000020: 3f02 f63d 16a1 023d 299a 023d 7f6f 0a3e
00000030: cedd 183d b1ea 3f3d fa73 913d 9a5b d03d
00000040: 7f45 ed3c f8d9 d93c 1083 813c 3c00 bd3d
00000050: 0dd6 bb3c 6db8 0d3e e2e5 3e3e 8d26 c03c
00000060: a3a6 d63d 9e11 663d 1133 0a3e 71a1 fd3d
00000070: 29dd ce3d cf17 e73c 387a 003e bb86 2b3e

conv3.weight f4 [16, 32, 2, 2]
0.04936009 0.07861528 0.023380063 0.08828369 0.010835327 -0.031175764 0.038446914 -0.036443062
0.034927882 -0.04754585 0.07840462 0.021459904 0.10924666 0.0534917 0.08312434 -0.027633898
0.06129718 0.06087366 0.04669537 -0.018478636 -0.015475964 -0.008415129 0.02733491 -0.015113348
-0.001355874 -0.01764061 0.04934735 0.029468317 0.0019754258 -0.015438979 0.035285562 -0.060089085
0.012662066 -0.044934765 -0.0074216602 0.031639583 0.078509934 0.08859168 -0.00057276577 -0.04763511
-0.0200528 0.035638273 -0.025234431 0.03797504 -0.0986101 -0.01008765 -0.009723168 -0.018024255
0.057925742 -0.017241457 0.051661454 -0.002539367 -0.036086977 -0.048084002 -0.0585982 -0.04953516
0.06161382 0.04019398 -0.0152935395 0.036667854 0.03571 -0.059197 0.06054671 0.049065277
-0.021815373 -0.034267697 -0.0029016898 0.03446253 0.031808626 -0.0379471 -0.015141186 0.009825605
0.0028118414 0.0083885165 0.07888822 -0.019151576 -0.024003036 0.05849282 0.052828673 0.07225781
0.04458052 0.07288289 -0.004537497 -0.010061935 0.038534574 0.06738288 -0.04618994 0.037962843
-0.019690314 0.014238397 0.034449395 0.007991284 0.10102104 0.024026915 -0.002401363 0.051393267
-0.04842457 -0.013930909 -0.026611414 -0.06291836 0.09157076 0.033967946 0.010867747 0.009217305
0.011930609 0.0027025745 -0.037075754 0.045739617 -0.027954884 -0.029173385 -0.05067907 0.06956991
0.07776837 -0.062062953 0.044802103 -0.08568906 -0.058980238 0.026724271 -0.04630531 0.022650395
-0.094285704 -0.010589462 0.040669434 0.038356412 -0.029711168 -0.078150034 -0.036441434 -0.0272139
-0.0005725261 -0.014725913 -0.015055221 0.022504551 0.025758255 0.006879477 0.04867425 0.06565409
0.022641486 0.030158382 -0.08985247 -0.0052401894 -0.015998214 0.080219105 -0.0021002886 0.006107437
0.026350822 -0.02399555 0.06811914 -0.08185616 0.05817102 -0.07086017 -0.09387019 -0.13398625
0.064508565 -0.013298283 0.026086057 -0.022685885 -0.00039827498 -0.043667696 -0.0013246529 -0.018083395
-0.012787564 0.0784789 -0.08147971 -0.03948593 -0.0123940995 0.031460837 0.0331985 -0.08777263
0.067091055 -0.0010989676 -0.03701456 0.09944794 -0.012773599 -0.118844785 0.05916993 -0.04119342
-0.007448718 -0.042983517 0.022794316 0.019963225 -0.042291664 0.0045761424 -0.045702122 -0.03664086
0.085409515 0.007384079 0.051677607 0.045936037 0.0010337285 0.09802458 0.03843672 -0.05706104
-0.053033285 0.06534987 -0.04052149 -0.021460516 -0.062485285 0.07278674 -0.015555697 -0.0039543337
0.0009038346 -0.027670223 -0.039276168 -0.07651719 -0.008647792 -0.019451812 0.034320213 -0.031944986
-0.017099775 0.011536432 0.038218644 -0.051055804 -0.035079796 -0.051749937 0.067553215 -0.0793515
0.03398571 -0.07180864 -0.06727011 0.07422714 -0.021788629 0.060303435 -0.054635424 0.07489225
0.046050917 -0.029130647 0.05576139 0.08873138 0.082626544 -0.059909277 0.035904747 0.04121764
-0.022233788 0.08304316 0.019680511 0.0622703 -0.010657372 0.047747858 0.06924165 0.009095379
-0.039751183 0.045924637 0.0476103 0.027436573 0.037059996 0.061157968 -0.027503684 0.035026398
0.01577562 -0.10905505 -0.006581778 0.04626298 -0.03417755 -0.033530492 0.006541856 0.07722874
00000000: ce2d 4a3d 0c01 a13d 8c87 bf3c 14ce b43d
00000010: a886 313c 5164 ffbc 837a 1d3d 5245 15bd
00000020: 8a10 0f3d 70bf 42bd 9a92 a03d aecc af3c
00000030: b6bc df3d 1d1a 5b3d 183d aa3d 7c60 e2bc
00000040: c012 7b3d a956 793d a543 3f3d 8260 97bc
00000050: e68e 7dbc 9cdf 09bc 76ed df3c fa9d 77bc
00000060: 95b7 b1ba 0a83 90bc 7220 4a3d 8a67 f13c
00000070: 2576 013b c5f3 7cbc 9887 103d f91f 76bd
00000080: 8e74 4f3c 840d 38bd 6631 f3bb 8298 013d
00000090: d1c9 a03d 8e6f b53d a925 16ba 081d 43bd
000000a0: c545 a4bc 70f9 113d 70b8 cebc b78b 1b3d
000000b0: 18f4 c9bd ac46 25bc ec4d 1fbc 9aa7 93bc
000000c0: 8b43 6d3d f53d 8dbc f69a 533d 826b 26bb
000000d0: f0cf 13bd bbf3 44bd ab04 70bd 61e5 4abd
000000e0: c65e 7c3d 71a2 243d c191 7abc 0831 163d
000000f0: a644 123d 8e78 72bd d4ff 773d acf8 483d
00000100: 27b6 b2bc 495c 0cbd 472a 3ebb 9528 0d3d
00000110: c349 023d 6b6e 1bbd bd12 78bc 93fb 203c
00000120: df46 383b fd6f 093c 2690 a13d c4e3 9cbc
00000130: 04a2 c4bc 2b96 6f3d e162 583d e7fb 933d
00000140: 109a 363d a043 953d 49af 94bb d0da 24bc
00000150: 6ed6 1d3d 0900 8a3d aa31 3dbd ed7e 1b3d
00000160: 954d a1bc 2a48 693c cf1a 0d3d e0ed 023c
00000170: 1ee4 ce3d 18d4 c43c 3060 1dbb bf81 523d
00000180: d858 46bd 783e 64bc 2e00 dabc 57db 80bd
00000190: 7389 bb3d f921 0b3d a20e 323c 2e04 173c
000001a0: 9a78 433c ad1d 313b bfdc 17bd 7759 3b3d
000001b0: a401 e5bc 06fd eebc db94 4fbd ab7a 8e3d
000001c0: 0645 9f3d b935 7ebd 6982 373d bf7d afbd
000001d0: 4395 71bd dcec da3c a3aa 3dbd 528d b93c
000001e0: dd18 c1bd 6c7f 2dbc fe94 263d 9d1b 1d3d
000001f0: d664 f3bc 200d a0bd 9d43 15bd afef debc
00000200: 9415 16ba f544 71bc 2caa 76bc 775b b83c
00000210: fa02 d33c 3c6d e13b a65e 473d a775 863d
00000220: a37a b93c b60e f73c 9204 b8bd e5b5 abbb
00000230: b00e 83bc ea49 a43d ffa4 09bb e520 c83b
00000240: aedd d73c 5192 c4bc 0c82 8b3d 34a4 a7bd
00000250: bc44 6e3d 231f 91bd 043f c0bd b133 09be
00000260: 111d 843d 0be1 59bc 6db2 d53c c0d7 b9bc
00000270: 90cf d0b9 e6dc 32bd fa9f adba a123 94bc
00000280: ee82 51bc 8cb9 a03d d6de a6bd 00bc 21bd
00000290: 9f10 4bbc 14dd 003d 26fb 073d 23c2 b3bd
000002a0: 0967 893d 3c0b 90ba 949c 17bd 5dab cb3d
000002b0: 5b48 51bc e564 f3bd 2b5c 723d 6eba 28bd
000002c0: 6014 f4bb 7c0f 30bd 25bb ba3c eb89 a33c
000002d0: 063a 2dbd 77f3 953b 2632 3bbd ba14 16bd
000002e0: 2feb ae3d 25f6 f13b e6ab 533d 6d27 3c3d
000002f0: 2c7e 873a 1cc1 c83d d26f 1d3d d6b8 69bd
00000300: 6e39 59bd 27d6 853d ddf9 25bd f7cd afbc
00000310: 92f0 7fbd 3711 953d 52dd 7ebc 5b93 81bb
00000320: 50ef 6c3a aaac e2bc 0ce0 20bd 0bb5 9cbd
00000330: 78af 0dbc 6859 9fbc 5a93 0c3d bfd8 02bd
00000340: d414 8cbc 4e03 3d3c 278b 1c3d e41f 51bd
00000350: d5af 0fbd bef7 53bd 5759 8a3d 0a83 a2bd
00000360: 9a34 0b3d 6910 93bd e9c4 89bd 6604 983d
00000370: 117e b2bc bc00 773d 65c9 5fbd 1c61 993d
00000380: e39f 3c3d 65a3 eebc 0e66 643d ccb8 b53d
00000390: 1b38 a93d 6e63 75bd db10 133d d4d3 283d
000003a0: a223 b6bc 8812 aa3d 0639 a13c 240f 7f3d
000003b0: 429c 2ebc 4293 433d 91ce 8d3d c904 153c
000003c0: 23d2 22bd 791b 3c3d 0503 433d aac2 e03c
000003d0: 39cc 173d c780 7a3d 684f e1bc d777 0f3d
000003e0: df3b 813c 4158 dfbd f5ab d7bb 407e 3d3d
000003f0: c2fd 0bbd 4557 09bd 115d d63b 1a2a 9e3d

conv3.bias f4 [16]
-4.058245e-06 1.8566807e-05 2.047796e-05 -8.567606e-06 1.0286247e-05 -8.639172e-06 2.6770607e-05 1.7631315e-05
1.534839e-05 -2.9301043e-06 3.949258e-06 -1.5162723e-07 1.0918396e-05 -1.2827654e-05 -1.6553882e-05 2.9734774e-06
00000000: 0f2c 88b6 eabf 9b37 16c8 ab37 96bd 0fb7
00000010: 1893 2c37 f6f0 10b7 7191 e037 f6e6 9337
00000020: 6bc0 8037 cfa2 44b6 de83 8436 face 22b4
00000030: 272e 3737 5b36 57b7 31dd 8ab7 f48b 4736

bn3.weight f4 [16]
0.930309 0.9178834 0.9194359 0.92709374 0.808243 0.9128921 0.920438 0.88985693
0.92879444 0.90478104 0.89406073 0.93560266 0.8671527 0.9417088 0.9435972 0.90654904
00000000: bb28 6e3f 68fa 6a3f 2760 6b3f 0456 6d3f
00000010: 03e9 4e3f 4cb3 693f d3a1 6b3f aacd 633f
00000020: 79c5 6d3f bb9f 673f 2ae1 643f a883 6f3f
00000030: b8fd 5d3f d413 713f 968f 713f 9913 683f

bn3.bias f4 [16]
-0.026616815 0.015053849 0.02089298 -0.0076994295 -0.015044453 -0.01654942 -0.0008776632 -0.03721555
-0.05013093 -0.015124392 -0.028840857 -0.015218658 0.020460501 0.029762428 0.018639551 -0.02126981
00000000: 820b dabc 6ba4 763c c127 ab3c 7f4b fcbb
00000010: 027d 76bc a692 87bc fb12 66ba 556f 18bd
00000020: 1756 4dbd 4ccc 77bc a943 ecbc ae57 79bc
00000030: c89c a73c 56d0 f33c f9b1 983c 063e aebc

bn3.running_mean f4 [16]
0.34273154 0.08415158 -0.36277497 0.4146033 -0.15549132 -0.022736706 -0.110000856 -0.13219869
0.4716971 0.1258904 0.42632994 0.3757572 0.031954616 -0.08223417 -0.44850624 0.10566703
00000000: 827a af3e aa57 ac3d a4bd b9be e246 d43e
00000010: 1e39 1fbe 5442 babc 2148 e1bd 185f 07be
00000020: 4882 f13e 6ae9 003e eb47 da3e 3f63 c03e
00000030: d8e2 023d 636a a8bd 9ca2 e5be f567 d83d

bn3.running_var f4 [16]
0.10868914 0.06948168 0.055384964 0.05496447 0.03783317 0.04490153 0.1311822 0.10235406
0.04322035 0.11132646 0.050803803 0.045828987 0.114507206 0.1874317 0.06273253 0.046262354
00000000: 6998 de3d 694c 8e3d 58db 623d 6d22 613d
00000010: f4f6 1a3d abea 373d a054 063e 019f d13d
00000020: d207 313d 21ff e33d a617 503d 2db7 3b3d
00000030: c182 ea3d 18ee 3f3e ea79 803d 987d 3d3d

conv4.weight f4 [8, 16, 2, 2]
-0.07894241 0.066758774 -0.025762364 0.023511441 0.06708738 -0.09670111 -0.068810835 -0.07216306
0.09064721 0.0025823272 -0.024683842 -0.04925247 -0.10545648 0.05831484 -0.071211204 -0.0681087
0.013527833 0.02261735 -0.087937064 -0.036449417 0.11571252 0.017845077 -0.09427455 0.00559728
-0.050316278 -0.12906925 0.06992801 0.09084746 0.027222093 -0.06582983 0.10864692 -0.020859407
0.09752495 -0.007749668 0.07538791 -0.090911485 -0.025698429 -0.03565384 0.014463186 0.08692116
0.06850676 -0.020318568 0.10277443 0.10559538 -0.006517687 0.049760677 0.0002635872 -0.14636873
-0.050718095 -0.04674824 -0.008067324 0.056826882 -0.08964193 -0.11793325 0.08153733 -0.037608713
-0.09219622 -0.06938868 0.06957759 -0.056761112 -0.076847136 -0.06311134 0.05371543 0.102750905
-0.07325384 -0.07900297 0.10594611 0.033151954 0.030380767 0.01485758 -0.0733162 0.06257838
-0.0649158 0.001237468 -0.078688465 -0.036851753 0.07303656 -0.05586496 0.004984821 -0.08068049
0.024415817 0.08529032 0.019102033 -0.0983555 -0.064920105 0.07501143 -0.05378249 -0.09796577
0.099849 -0.089835376 0.010797812 -0.04725122 0.040228073 -0.105251275 0.10989718 -0.108435534
-0.089967646 0.038312122 -0.061313707 -0.1314348 -0.12694809 0.06936084 -0.03568338 -0.1134185
0.08719848 -0.018906498 -0.021908594 0.020918181 0.09387913 -0.018734671 0.03657305 -0.076103725
0.15144253 -0.05792951 0.013218774 -0.07395515 0.04529241 -0.05538491 -0.044706948 0.10084027
0.016944487 0.057366125 0.09326283 0.13742368 -0.101097666 0.08175104 0.00462119 0.06915183
-0.0010540844 -0.109433144 -0.10604915 0.03486119 0.098611996 0.09395837 0.06351701 -0.057390567
-0.0590401 -0.08287952 -0.1217964 0.10666694 -0.07718008 -0.098984316 0.05802938 0.11105585
-0.08246533 0.0158115 0.062495425 0.08466202 0.07924755 0.099810995 -0.007982687 0.10503012
-0.033313524 0.0032082382 -0.045776647 -0.08610946 -0.0646339 0.055454567 -0.06758159 -0.07297076
0.10693135 0.015978992 -0.038649645 0.11622929 0.081103005 0.029259559 -0.015583292 -0.03225283
0.1319202 -0.013304718 -0.065526 -0.08867718 0.028859561 -0.009975605 0.0409857 -0.08820655
0.022765117 -0.13586664 -0.101813555 -0.09831233 0.12073059 0.116850756 0.022043262 0.0016535645
-0.057949554 0.08732072 -0.029325176 -0.11592611 -0.0377057 -0.05170403 0.025055518 0.107485265
0.031939127 0.032460183 0.016684199 -0.052672893 -0.040005222 0.08999512 -0.001412094 0.050521117
-0.030168321 -0.113508575 -0.04433621 0.10315414 0.107370876 -0.08447662 -0.034920927 0.059921607
0.0059054964 0.048042644 -0.0744857 0.017224694 0.04233039 -0.059835903 0.039905284 0.009523885
0.09959012 -0.07722693 -0.10316445 0.10536154 0.09202497 0.06467526 -0.07759844 0.10561399
0.07277657 0.0055143894 -0.0630027 0.018075276 0.025442144 -0.012315564 -0.042069938 0.08312298
-0.005077872 -0.05298466 0.0639969 -0.08827177 -0.1209833 0.090578206 0.001690533 -0.03585026
0.04235053 0.0382526 -0.020885615 -0.07268371 0.0559737 -0.014910117 0.03470126 -0.05409068
0.014130985 -0.042273596 0.12150349 0.08588039 -0.06387893 0.035544664 0.027462265 0.11713399
00000000: 8fac a1bd d3b8 883d 980b d3bc 119b c03c
00000010: 1c65 893d 3b0b c6bd b2ec 8cbd 3aca 93bd
00000020: 3fa5 b93d 433c 293b c535 cabc f5bc 49bd
00000030: 91f9 d7bd 8bdb 6e3d 2ed7 91bd 937c 8bbd
00000040: d8a3 5d3c 0548 b93c 5918 b4bd fc4b 15bd
00000050: b0fa ec3d d72f 923c 0413 c1bd 6369 b73b
00000060: 7118 4ebd bb2a 04be 6b36 8f3d 3c0e ba3d
00000070: de00 df3c cad1 86bd 4782 de3d 59e1 aabc
00000080: 29bb c73d edf0 fdbb fa64 9a3d cd2f babd
00000090: 8385 d2bc c309 12bd 00f7 6c3c b903 b23d
000000a0: 464d 8c3d 2073 a6bc 667b d23d 6442 d83d
000000b0: 5292 d5bb dad1 4b3d 1332 8a39 afe1 15be
000000c0: c7bd 4fbd 157b 3fbd cf2c 04bc 4ec3 683d
000000d0: 3096 b7bd fd86 f1bd 0bfd a63d 980b 1abd
000000e0: 5fd1 bcbd a71b 8ebd b27e 8e3d 577e 68bd
000000f0: 0862 9dbd 8540 81bd b604 5c3d 116f d23d
00000100: 1c06 96bd 4fcc a1bd 46fa d83d 58ca 073d
00000110: 16e1 f83c 356d 733c ce26 96bd 1829 803d
00000120: 93f2 84bd 8932 a23a 6b27 a1bd ddf1 16bd
00000130: 3194 953d a8d2 64bd b657 a33b d03b a5bd
00000140: ae03 c83c b1ac ae3d de7b 9c3c 9c6e c9bd
00000150: d5f4 84bd 989f 993d 074b 5cbd 47a2 c8bd
00000160: a27d cc3d 9cfb b7bd 4ee9 303c 7f8a 41bd
00000170: 31c6 243d fb8d d7bd c611 e13d 7313 debd
00000180: f540 b8bd 2ced 1c3d 1524 7bbd d896 06be
00000190: aefe 01be 0e0d 8e3d bc28 12bd f547 e8bd
000001a0: 1e95 b23d cde1 9abc a779 b3bc 9b5c ab3c
000001b0: b443 c03d 7479 99bc 9fcd 153d 45dc 9bbd
000001c0: c013 1b3e 7e47 6dbd 8f93 583c cc75 97bd
000001d0: 8984 393d 4adb 62bd a21e 37bd 5885 ce3d
000001e0: 2acf 8a3c bef8 6a3d 9500 bf3d cbb8 0c3e
000001f0: 4b0c cfbd 176d a73d 5a6d 973b 7a9f 8d3d
00000200: 3429 8aba 7c1e e0bd 4c30 d9bd 9bca 0e3d
00000210: 16f5 c93d 3f6d c03d 3515 823d 5f12 6bbd
00000220: 08d4 71bd bdbc a9bd 6470 f9bd 3274 da3d
00000230: 9710 9ebd 4ab8 cabd 37b0 6d3d 4071 e33d
00000240: 95e3 a8bd 1e87 813c 34fb 7f3d 4863 ad3d
00000250: 8a4c a23d b569 cc3d d1c9 02bc 081a d73d
00000260: c373 08bd 4e41 523b 4b80 3bbd 285a b0bd
00000270: c75e 84bd 5424 633d 3768 8abd b271 95bd
00000280: d3fe da3d 60e6 823c 174f 1ebd 9f09 ee3d
00000290: 5519 a63d beb1 ef3c 1051 7fbc 8b1b 04bd
000002a0: 1716 073e 08fc 59bc 7f32 86bd 629c b5bd
000002b0: e36a ec3c b870 23bc 9fe0 273d a3a5 b4bd
000002c0: e97d ba3c a020 0bbe a083 d0bd fa57 c9bd
000002d0: 9941 f73d 734f ef3d 1294 b43c 6bbc d83a
000002e0: 835c 6dbd 35d5 b23d 5a3b f0bc ab6a edbd
000002f0: 4b71 1abd 9bc7 53bd 3b41 cd3c 3c21 dc3d
00000300: 9ad2 023d f8f4 043d 4dad 883c 88bf 57bd
00000310: 84dc 23bd 5d4f b83d 0316 b9ba 3bef 4e3d
00000320: 8e23 f7bc 2f77 e8bd e399 35bd 7a42 d33d
00000330: 43e5 db3d 1402 adbd 3f09 0fbd 5c70 753d
00000340: e582 c13b 5dc8 443d f58b 98bd cd1a 8d3c
00000350: a262 2d3d 7e16 75bd b973 233d 120a 1c3c
00000360: e8f5 cb3d 2729 9ebd e247 d3bd cbc7 d73d
00000370: 9677 bc3d 7674 843d eeeb 9ebd 264c d83d
00000380: e20b 953d 0db2 b43b 8f07 81bd 9a12 943c
00000390: 0b6c d03c 38c7 49bc 8751 2cbd 623c aa3d
000003a0: 4764 a6bb 7106 59bd cf10 833d d4c7 b4bd
000003b0: 18c6 f7bd 1181 b93d e094 dd3a b9d7 12bd
000003c0: c077 2d3d c2ae 1c3d 4f18 abbc 32db 94bd
000003d0: ae44 653d 9049 74bc e922 0e3d 308e 5dbd
000003e0: a685 673c 1427 2dbd d2d6 f83d 0fe2 af3d
000003f0: f5d2 82bd 4897 113d 8bf8 e03c f2e3 ef3d

conv4.bias f4 [8]
-2.3495182e-05 -1.379628e-07 -1.2129714e-06 -5.3468176e-07 1.0790981e-06 2.8702805e-05 3.044468e-05 2.797481e-06
00000000: 8517 c5b7 ed22 14b4 61cd a2b5 0d87 0fb5
00000010: 87d5 9035 cec6 f037 7463 ff37 5cbc 3b36

bn4.weight f4 [8]
1.3104829 1.2920855 1.3976755 1.3007741 1.4058752 1.3352665 1.3597195 1.3798083
00000000: e7bd a73f 0f63 a53f 08e7 b23f c47f a63f
00000010: b8f3 b33f 03ea aa3f 4a0b ae3f 8f9d b03f

bn4.bias f4 [8]
0.21162213 0.24401896 0.2772005 0.21760276 0.23347881 0.19382149 0.2384514 0.2079406
00000000: 79b3 583e 1be0 793e 39ed 8d3e 42d3 5e3e
00000010: 1215 6f3e 2479 463e 9b2c 743e 61ee 543e

bn4.running_mean f4 [8]
-0.24151014 -0.122586004 0.07279556 0.17372885 -0.4180675 0.2125175 0.23969106 0.007561713
00000000: 6f4e 77be 5f0e fbbd d715 953d fae5 313e
00000010: f20c d6be 309e 593e 9371 753e 3fc8 f73b

bn4.running_var f4 [8]
0.0165671 0.02432023 0.01819297 0.015102516 0.017690415 0.014533565 0.020509753 0.011494652
00000000: bab7 873c 383b c73c 6c09 953c 8b70 773c
00000010: 7deb 903c 311e 6e3c 1204 a83c 1154 3c3c

fc.weight f4 [128, 288]
-0.080712445 -0.010463676 0.034333527 -0.040254157 -0.030923564 -0.03461479 -0.029445445 -0.033440564
-0.026985602 -0.0075765303 -0.018469281 -0.01797905 -0.0034553802 -0.0013287215 -0.004129887 0.007647394
-0.018561728 -0.017786257 -0.033240646 -0.010945029 0.024884904 -0.014751113 0.03199672 0.032905288
0.019211685 0.005623051 0.00017574393 -0.01624718 0.00830677 -0.01312396 0.036545236 0.02123922
0.008169691 0.011521615 -0.047817636 0.008946978 -0.032722495 -0.051619146 -0.044794906 0.01671092
0.031310983 0.023366403 0.015607024 0.00038147366 -0.0019706576 0.012757376 0.0031414733 0.011947285
0.02802832 0.021635313 0.015186215 0.016841631 0.022211922 0.013948953 0.0028748799 0.0008224523
0.0005296265 -0.020819275 0.0012550142 -0.025399387 -0.0123188505 -0.02682795 -0.024198102 0.03217873
-0.0074775303 0.009978019 0.04023994 0.0032069704 0.05288417 0.03933367 0.09377183 0.10294507
-0.087632015 -0.023553533 -0.022650557 -0.07214939 -0.043403763 0.008591633 -0.03196672 -0.031476893
-0.025786236 -0.019685088 -0.01864451 -0.003904733 0.009834813 0.0073774788 0.0011751623 -0.009747209
0.014249255 0.028261667 0.0027978097 -0.011579998 -0.012666464 -0.0018198573 -0.02258781 0.033132184
-0.0003009142 0.050928332 -0.0009075225 0.0050513046 -0.0056054383 -0.016657954 -0.015365003 0.01159397
-0.025698794 -0.035152525 -0.059248947 -0.009777044 -0.0019441309 0.030031333 0.0873994 0.06743016
0.07101521 0.02095973 -0.0009927081 0.01455842 0.002075224 0.017861325 0.02811545 0.03464906
-0.025981082 -0.01302496 0.019792724 0.0019166425 0.022608131 -0.036906738 -0.030858174 -0.034595247
-0.030344699 -0.045082074 -0.045007408 -0.02528967 -0.028815163 -0.022270266 -0.017442148 -0.0019618392
0.012783148 0.020159466 -0.019241663 -0.014900555 -0.00893254 -0.03256765 -0.0756394 -0.030063383
0.060595073 -0.06424354 -0.013075009 -0.005945617 0.0023900846 0.015195034 0.0017414575 -0.004015157
-0.026687084 -0.031086273 -0.043539084 -0.04762622 -0.0142004145 0.009376335 -0.006395456 0.007258879
0.00056420505 -0.009259362 0.016841765 0.023620442 0.009401309 0.008418133 -0.019398421 -0.026850216
0.0035881612 0.012995251 -0.020971118 -0.030710177 0.00020271393 -0.0063973092 0.025169505 0.04740228
0.045534875 0.060963143 0.008270323 0.045655288 0.07665928 0.06858334 0.043316983 0.026238555
0.04278247 -0.013770297 -0.00011955065 0.052323315 0.004788559 0.016863383 0.023200631 0.0105659105
-0.018479532 0.0048571066 0.015775938 0.0027475988 -0.009859504 -0.019654095 0.038673952 -0.0037020014
-0.0027860445 0.00063363253 -0.018156907 0.0038113792 -0.031755503 -0.05808329 -0.052052625 -0.055240504
-0.054248236 -0.03551253 0.035679612 0.062028706 0.09448523 0.1277404 0.114522055 -0.03932201
-0.07226234 -0.030097542 -0.03350126 -0.050446793 -0.06384916 -0.029593298 0.010722555 -0.0022678038
-0.020467892 -0.012215782 -0.017756017 -0.005792652 0.00438882 0.013650501 0.018701289 0.023174439
0.027590076 0.032254256 0.032947965 0.03216783 0.04075783 0.042871516 0.03849335 0.03711826
0.00065585994 -0.042301755 -0.024241367 -0.04327801 -0.008736069 -0.02276422 0.024483941 -0.021754762
-0.018017871 0.033111025 0.118582755 -0.0459023 -0.035368156 0.035778422 0.005880348 -0.018649723
00000000: 914c a5bd d76f 2bbc 50a1 0c3d 8be1 24bd
00000010: 6a53 fdbc 3dc8 0dbd 9337 f1bc f9f8 08bd
00000020: e910 ddbc 8b44 f8bb e44c 97bc cd48 93bc
00000030: a973 62bb 7f28 aeba 0154 87bb fe96 fa3b
00000040: c40e 98bc 7cb4 91bc 5827 08bd c752 33bc
00000050: 6ddb cb3c a7ae 71bc fe0e 033d b2c7 063d
00000060: d361 9d3c 9241 b83b e747 3839 ce18 85bc
00000070: 1e19 083c e105 57bc 75b0 153d dffd ad3c
00000080: 2bda 053c 28c5 3c3c 6ddc 43bd 5896 123c
00000090: 0608 06bd 996e 53bd dd7a 37bd 57e5 883c
000000a0: f23f 003d e66a bf3c 9ab4 7f3c 8700 c839
000000b0: 2626 01bb 5004 513c 2de1 4d3b 8cbe 433c
000000c0: a69b e53c 8a3c b13c 9acf 783c 76f7 893c
000000d0: c7f5 b53c 268a 643c 7b68 3c3b d799 573a
000000e0: a2d6 0a3a 2f8d aabc 4a7f a43a 6012 d0bc
000000f0: 01d5 49bc 4ac6 dbbc 193b c6bc d8cd 033d
00000100: 1206 f5bb d87a 233c a3d2 243d 092c 523b
00000110: 129d 583d 581c 213d 720b c03d ddd4 d23d
00000120: 6a78 b3bd 57f3 c0bc a98d b9bc 0fc3 93bd
00000130: 25c8 31bd ecc3 0c3c 89ef 02bd eaed 00bd
00000140: a83d d3bc 9f42 a1bc 5fbc 98bc 8de6 7fbb
00000150: 3222 213c c7be f13b e707 9a3a c2b2 1fbc
00000160: b575 693c 0385 e73c 755b 373b 08ba 3dbc
00000170: 0087 4fbc 4788 eeba 120a b9bc 9db5 073d
00000180: 05c4 9db9 3a9a 503d cee6 6dba 6a85 a53b
00000190: d3ad b7bb 4376 88bc 7ebd 7bbc a2f4 3d3c
000001a0: 4786 d2bc 18fc 0fbd 06af 72bd e52f 20bc
000001b0: 35d2 feba 4504 f63c 75fe b23d d318 8a3d
000001c0: 6c70 913d bdb3 ab3c c21d 82ba 7086 6e3c
000001d0: 7b00 083b ea51 923c 5f52 e63c 2cec 0d3d
000001e0: 47d6 d4bc a466 55bc 5a24 a23c da37 fb3a
000001f0: b034 b93c 852b 17bd 48ca fcbc bfb3 0dbd
00000200: 7295 f8bc fba7 38bd b059 38bd 482c cfbc
00000210: c70d ecbc 2270 b6bc d6e2 8ebc 3392 00bb
00000220: 6970 513c 7725 a53c b1a0 9dbc 7521 74bc
00000230: ca59 12bc a865 05bd d4e8 9abd 7c47 f6bc
00000240: 8a32 783d 1e92 83bd 9038 56bc 73d3 c2bb
00000250: f7a2 1c3b 98f4 783c 9e41 e43a 9491 83bb
00000260: df9e dabc a4a8 febc 0a56 32bd b613 43bd
00000270: dba8 68bc 339f 193c f990 d1bb e4db ed3b
00000280: 29e7 133a 94b4 17bc bef7 893c a87f c13c
00000290: f307 1a3c 35ec 093c 70e9 9ebc fcf4 dbbc
000002a0: 5b27 6b3b 09ea 543c 9fcb abbc e993 fbbc
000002b0: 9b8f 5439 85a0 d1bb 4730 ce3c e528 423d
000002c0: c782 3a3d 7db4 793d 4080 073c 0a01 3b3d
000002d0: 8aff 9c3d 6c75 8c3d 266d 313d 3df2 d63c
000002e0: ac3c 2f3d d09c 61bc 44b7 fab8 f950 563d
000002f0: 58e9 9c3b 1425 8a3c 400f be3c a41c 2d3c
00000300: 6362 97bc 5d28 9f3b 8a3c 813c 0f11 343b
00000310: c289 21bc a001 a1bc 9468 1e3d 479d 72bb
00000320: 1296 36bb 5c1a 263a cbbd 94bc 55c8 793b
00000330: 0f12 02bd bee8 6dbd 2235 55bd de43 62bd
00000340: 6633 5ebd 9675 11bd c924 123d d011 7e3d
00000350: 7981 c13d 61ce 023e 8a8a ea3d 1e10 21bd
00000360: 47fe 93bd 1f8f f6bc 9e38 09bd 4ca1 4ebd
00000370: 59c3 82bd a56d f2bc a8ad 2f3c 6f9f 14bb
00000380: 48ac a7bc b424 48bc 1175 91bc 49d0 bdbb
00000390: 17d0 8f3b 5aa6 5f3c 7233 993c 52d8 bd3c
000003a0: 9504 e23c 0a1d 043d 72f4 063d 6ac2 033d
000003b0: aff1 263d 0b9a 2f3d 34ab 1d3d 5109 183d
000003c0: 04ee 2b3a 9b44 2dbd d595 c6bc 4844 31bd
000003d0: bb21 0fbc 087c babc 8c92 c83c 0b37 b2bc
000003e0: 379a 93bc 6d9f 073d 84db f23d 0d04 3cbd
000003f0: 33de 10bd 658c 123d efaf c03b 4ec7 98bc

fc.bias f4 [128]
-0.013912186 0.025106193 0.036184013 0.032229118 0.015365233 0.040375344 0.0030804193 0.00282939
0.0014259274 0.0214689 0.0012038599 -0.004073923 0.079257295 -0.001661176 0.010774292 -0.0068003754
0.027930953 -0.014238331 0.024042316 -0.03452295 0.03386753 0.02794004 0.042189587 -0.009284684
0.0013942628 0.005321671 0.007100174 0.024013024 0.0068704416 -0.023305232 0.04699866 -0.015739832
0.015425404 0.011550134 -0.013934801 0.011720935 0.024436995 0.020966068 -0.0022575452 0.030064577
0.03245019 -0.0006470364 -0.025107512 -0.020363726 -0.041229445 -0.027999286 -0.031562906 0.031251904
-0.014200688 -0.010807494 0.020770567 0.030456388 0.007491218 0.022974785 0.0037723468 -0.029431008
-0.025435643 0.009791921 0.05088478 -0.0026016945 0.049762484 -0.03019326 0.0015884292 0.0117817465
0.024347506 0.004572129 0.0007684316 -0.013635263 0.024184383 0.0055316235 -0.00013675015 0.039122652
0.049625617 0.0126427645 0.032263335 0.026787775 -0.01641963 0.021531103 0.023838809 -0.026165
-0.0014991405 -0.023113402 0.015789814 0.018148739 -0.004665173 0.027459342 -0.018564243 -0.046644025
-0.0060193394 0.020379439 0.051637076 0.021782268 0.0052530123 -0.012735013 -0.0032883422 0.0007313028
0.033614647 -0.0024610893 0.027329104 0.01439152 0.00036041488 0.033339538 0.0050433185 0.04281878
0.00011125837 -0.008067942 0.00065790943 0.0031787073 -0.018787364 0.020841649 -0.03874293 0.03064129
-0.009734248 0.02178173 -0.017865129 -0.04380135 0.020654306 0.013255525 0.00034896072 0.0011861857
0.013252672 -0.017945688 -0.020292833 -0.035893865 0.020111626 -0.010929519 0.023771422 0.0301423
00000000: f0ef 63bc 81ab cd3c b035 143d ae02 043d
00000010: 75be 7b3c 9e60 253d dce0 493b 4a6d 393b
00000020: 2fe6 ba3a 8cdf af3c d6ca 9d3a 8b7e 85bb
00000030: a651 a23d d1bb d9ba a886 303c afd5 debb
00000040: 74cf e43c e347 69bc 64f4 c43c f067 0dbd
00000050: aeb8 0a3d 83e2 e43c fdce 2c3d ca1e 18bc
00000060: b2bf b63a 6961 ae3b 94a8 e83b f6b6 c43c
00000070: 7121 e13b 9dea bebc ab81 403d d2f0 80bc
00000080: d5ba 7c3c c63c 3d3c cb4e 64bc 2a09 403c
00000090: 1830 c83c 08c1 ab3c 53f3 13bb fd49 f63c
000000a0: 7eea 043d e19d 29ba 45ae cdbc d4d1 a6bc
000000b0: 35e0 28bd c25e e5bc 1b48 01bd ff01 003d
000000c0: 01aa 68bc ea11 31bc 0927 aa3c ad7f f93c
000000d0: e478 f53b 9e35 bc3c 7a39 773b 4c19 f1bc
000000e0: 695e d0bc 4b6e 203c 8f6c 503d 3181 2abb
000000f0: bfd3 4b3d db57 f7bc d732 d03a 3a08 413c
00000100: 6c74 c73c ccd1 953b 9270 493a 7066 5fbc
00000110: 541e c63c 9f42 b53b 9764 0fb9 133f 203d
00000120: 3b44 4b3d 9923 4f3c 8f26 043d 0972 db3c
00000130: 7682 86bc ff61 b03c 9b49 c33c fb57 d6bc
00000140: cf7e c4ba 5158 bdbc a459 813c aaac 943c
00000150: 4fde 98bb 6af2 e03c 0a14 98bc ce0d 3fbd
00000160: e13d c5bb c8f2 a63c 6681 533d ba70 b23c
00000170: 7621 ac3b 84a6 50bc 3a81 57bb e6b4 3f3a
00000180: 83af 093d 3a4a 21bb 49e1 df3c 69ca 6b3c
00000190: 11f6 bc39 0a8f 083d 6c42 a53b bf62 2f3d
000001a0: 6253 e938 672f 04bc 8e77 2c3a dc51 503b
000001b0: f5e7 99bc 1bbc aa3c e8b0 1ebd 7103 fb3c
000001c0: 657c 1fbc 996f b23c e459 92bc 0b69 33bd
000001d0: 3833 a93c b42d 593c b7f4 b639 ca79 9b3a
000001e0: bc21 593c d602 93bc 283d a6bc 7205 13bd
000001f0: 23c1 a43c ba11 33bc 49bc c23c fcec f63c

out.weight f4 [4, 128]
-0.07073612 0.083515644 -0.0002348081 -0.2487888 -0.20944203 0.05166931 0.09769462 0.0113548925
0.110861756 -0.015647609 0.1152404 0.12473708 0.047304176 -0.11955281 0.061416842 -0.029558444
-0.045718152 0.013736694 -0.01686073 0.1308276 -0.0390131 -0.12058011 0.12867309 0.12053263
-0.14038095 -0.108154625 -0.11791831 0.08372783 -0.085736685 0.06799327 -0.22176461 -0.0476588
0.07287686 -0.17237927 0.06874614 0.057046402 0.029907692 -0.038642805 -0.017927539 -0.13519426
-0.08583546 0.140794 -0.0031739327 -0.01564746 0.09210417 -0.0790019 0.15701675 -0.113421686
-0.06356951 0.30027688 -0.07229801 0.082664154 -0.06870656 0.05506803 0.10233257 0.19814101
0.25209218 0.033727106 -0.053183854 0.18154027 -0.21335675 -0.016932605 -0.13214491 -0.11143944
0.00769516 0.03173352 -0.24772358 0.19311757 -0.08435447 -0.030313045 0.11538476 -0.08387273
-0.05427609 0.19577514 -0.031842332 0.16304207 0.08140697 -0.06029889 0.030796574 0.06880035
-0.23969533 -0.019361999 -0.13616455 -0.00974081 -0.026630748 0.090732016 -0.12157588 0.08562548
0.049239796 0.034993205 -0.19967067 0.0017082497 0.007928501 -0.06326576 -0.09592565 0.0053457827
-0.1728521 -0.097352654 -0.015400221 0.00601974 0.19210099 0.059421092 0.069230795 0.06262261
0.2410843 0.050575122 -0.054417558 -0.35424656 -0.0702488 0.109337956 0.15503018 -0.0501302
0.046323083 -0.070242 0.25121 0.0805337 -0.08532101 -0.0359459 -0.10350838 -0.025586164
-0.049426418 -0.08874516 0.0850363 -0.2090167 -0.24235778 0.060781304 0.11521914 -0.028670171
-0.22626933 -0.06993404 0.2766959 -0.06827242 0.15536942 -0.20748496 -0.19346212 -0.13266131
-0.21561308 0.07047509 0.055065986 -0.29290882 0.24978645 -0.1763137 0.14663547 0.12133701
0.19197729 0.25733382 -0.16067499 -0.30608493 -0.2307236 0.12285835 -0.18393432 -0.14813209
0.18896948 0.012032562 -0.1017524 0.027540322 0.19943897 -0.24330166 0.34255764 -0.023899425
-0.20879611 -0.011470485 -0.010977151 0.08797831 0.09320131 -0.16028002 -0.23300186 -0.12700635
0.0627846 -0.16523442 -0.43456697 -0.05122031 -0.1285803 0.131118 -0.22951393 0.029365068
-0.2872916 -0.31008416 0.22049697 -0.3270153 0.26214975 -0.31089014 0.02944002 -0.4864483
-0.2629881 -0.33368057 0.304482 -0.17922537 0.344139 -0.25117776 0.15520899 0.09914557
-0.38250414 -0.23159909 0.0012009597 -0.14286958 0.06204832 0.2667913 -0.085693344 0.23659515
0.21399978 -0.20449251 0.08114287 -0.24532826 -0.3287824 0.057916556 -0.16128173 -0.14327872
0.36224756 0.15539864 -0.0739958 -0.16853891 0.06972455 0.087610416 -0.11016719 0.21086971
-0.25873107 0.059403673 0.12823522 -0.13088493 -0.2543733 0.2251667 0.05165155 0.21619223
-0.101346515 0.12133907 0.053916167 -0.17113495 -0.15008566 -0.3399934 0.011132228 0.113346465
0.0018260792 0.17926584 0.26481408 0.084144 0.042357914 -0.17384739 -0.33722746 0.15615462
-0.4683593 0.058710154 -0.18407144 0.14300506 0.0237024 -0.03887881 -0.03534991 0.03259889
0.25547844 0.053544197 -0.10466941 0.18042286 0.10263458 -0.41159466 -0.042734206 0.19478513
00000000: 19de 90bd 400a ab3d d236 76b9 7ec2 7ebe
00000010: f977 56be 33a3 533d 1e14 c83d df09 3a3c
00000020: 7d0b e33d 6a2f 80bc 2903 ec3d 2776 ff3d
00000030: 06c2 413d 1bd8 f4bd 3a90 7b3d 8d24 f2bc
00000040: f542 3bbd df0f 613c 831f 8abc acf7 053e
00000050: 33cc 1fbd b4f2 f6bd e1c2 033e d0d9 f63d
00000060: 06c0 0fbe 2c80 ddbd 287f f1bd 7f79 ab3d
00000070: b796 afbd 0e40 8b3d 4316 63be e035 43bd
00000080: 7740 953d 3184 30be c7ca 8c3d 7da9 693d
00000090: fa00 f53c eb47 1ebd c6dc 92bc 5d70 0abe
000000a0: 80ca afbd 4d2c 103e c101 50bb 1a2f 80bc
000000b0: 1ca1 bc3d c0cb a1bd 00c9 203e a149 e8bd
000000c0: bb30 82bd e4bd 993e fb10 94bd d34b a93d
000000d0: 06b6 8cbd 048f 613d bd93 d13d 7ae5 4a3e
000000e0: 3a12 813e 6f25 0a3d 50d7 59bd b1e5 393e
000000f0: 317a 5abe 3fb6 8abc ff50 07be 5c3a e4bd
00000100: ae27 fc3b 02fb 013d 40ab 7dbe 9dc0 453e
00000110: 09c2 acbd 1053 f8bc d84e ec3d 77c5 abbd
00000120: 9b50 5ebd 4779 483e 1b6d 02bd 80f4 263e
00000130: b3b8 a63d f8fb 76bd 1949 fc3c 33e7 8c3d
00000140: b172 75be 0e9d 9ebc b86e 0bbe eb97 1fbc
00000150: ba28 dabc b5d1 b93d c6fc f8bd 695c af3d
00000160: abaf 493d 0955 0f3d 7876 4cbe 59e7 df3a
00000170: 8be6 013c 7b91 81bd ab74 c4bd ad2b af3b
00000180: 2400 31be d460 c7bd 3551 7cbc 3d41 c53b
00000190: 1fb6 443e 8863 733d e0c8 8d3d 4840 803d
000001a0: cede 763e dc27 4f3d f2e4 5ebd ce5f b5be
000001b0: 9ade 8fbd 94ec df3d 3bc0 1e3e 5355 4dbd
000001c0: 46bd 3d3d 0adb 8fbd 999e 803e daee a43d
000001d0: c8bc aebd 023c 13bd 34fc d3bd 139a d1bc
000001e0: 5b73 4abd 06c0 b5bd 8327 ae3d 7908 56be
000001f0: a32c 78be d1f5 783d 03f8 eb3d b5dd eabc
00000200: 26b3 67be 9439 8fbd 16ab 8d3e 69d2 8bbd
00000210: 2919 1f3e f076 54be ef1a 46be 5ed8 07be
00000220: adc9 5cbe 3e55 903d df8c 613d 25f8 95be
00000230: 05c8 7f3e 948b 34be 9c27 163e 8a7f f83d
00000240: b295 443e 42c1 833e fc87 24be 2ab7 9cbe
00000250: cf42 6cbe 299d fb3d 4759 3cbe f0af 17be
00000260: 3781 413e 3924 453c 9063 d0bd 3e9c e13c
00000270: bb39 4c3e 1224 79be b763 af3e bac8 c3bc
00000280: a6ce 55be b3ee 3bbc 82d9 33bc f92d b43d
00000290: 54e0 be3d 7220 24be 0a98 6ebe f40d 02be
000002a0: 3695 803d 3633 29be 907f debe 63cc 51bd
000002b0: 8eaa 03be cc43 063e b305 6bbe 038f f03c
000002c0: e217 93be 5ac3 9ebe f5c9 613e 8d6e a7be
000002d0: 7e38 863e fe2c 9fbe 322c f13c c00f f9be
000002e0: 60a6 86be 2ed8 aabe 11e5 9b3e db86 37be
000002f0: fd32 b03e 5f9a 80be 1bef 1e3e d50c cb3d
00000300: 95d7 c3be 5028 6dbe 8569 9d3a 674c 12be
00000310: 6126 7e3d df98 883e fe7f afbd 0046 723e
00000320: c222 5b3e 7c66 51be 3c2e a63d 5537 7bbe
00000330: 2b56 a8be e939 6d3d 0a27 25be a8b7 12be
00000340: 8378 b93e d220 1f3e 1c8b 97bd 7795 2cbe
00000350: bfcb 8e3d 176d b33d 569f e1bd 3bee 573e
00000360: 6678 84be 4451 733d 1850 033e b306 06be
00000370: 383d 82be 1992 663e 9390 533d 7f61 5d3e
00000380: c38e cfbd 9e80 f83d 33d7 5c3d 003e 2fbe
00000390: 0eb0 19be 9d13 aebe f363 363c 3122 e83d
000003a0: 0d59 ef3a 7791 373e b695 873e b153 ac3d
000003b0: 7e7f 2d3d 0d05 32be 14a9 acbe ffe6 1f3e
000003c0: cacc efbe 0f7a 703d 397d 3cbe eb6f 123e
000003d0: 892b c23c 633f 1fbd 11cb 10bd 6a86 053d
000003e0: 12ce 823e 2951 5b3d ea5c d6bd c5c0 383e
000003f0: 1432 d23d 89bc d2be 100a 2fbd c175 473e

out.bias f4 [4]
-0.025564479 0.0140625 0.00045216567 0.034039564
00000000: 996c d1bc 6666 663c a610 ed39 126d 0b3d
