Model exports/last_model_Oct22_protANDmRNA_weights_residual_2024_11201950.pth (torch, 543746 bytes, 68 tensors)

conv1.weight f4 [16, 3, 2, 2]
000000 47 f1 96 3d 80 2e 15 be 35 e2 17 3c 29 51 a7 bd
       0.07370239 -0.1456852 0.009270241 -0.08169777
000010 cd 0d 00 80 e3 0d 00 00 a1 0e 00 00 b5 0d 00 00
       -4.951e-42 4.982e-42 5.248e-42 4.917e-42
000020 c1 cc ed bd 6d 49 3f 3e 0b a4 92 3e 1e cd 4f bc
       -0.11611319 0.18680353 0.2864078 -0.012683181
000030 98 5e 65 be 96 f4 dd 3d a4 17 88 3d 61 91 29 3e
       -0.22399366 0.10837667 0.06645134 0.16559364
000040 d8 0d 00 00 b7 0d 00 80 bb 0d 00 80 b8 0d 00 80
       4.966e-42 -4.92e-42 -4.926e-42 -4.921e-42
000050 fe db 48 be 04 c0 25 be d9 1f 2d be fe c7 43 bd
       -0.1961517 -0.1618653 -0.1690668 -0.04779815
000060 31 20 96 3b 05 22 4b be d0 99 2e bd 66 4c c7 bd
       0.0045814742 -0.19837196 -0.042627156 -0.09731369
000070 e4 0d 00 00 f3 0d 00 80 b0 0d 00 00 bc 0d 00 80
       4.983e-42 -5.004e-42 4.91e-42 -4.927e-42
000080 79 1e 41 3d f6 fd 63 bc 9e 73 69 3d 7b cb 21 3d
       0.0471482 -0.0139155295 0.056995027 0.039500695
000090 4d 20 92 3d 9f 3e 1e bc 82 18 9e bd 08 1d fd 3c
       0.07135067 -0.009658485 -0.07719518 0.030897632
0000a0 af 0d 00 00 ac 0d 00 00 ae 0d 00 80 d8 0d 00 00
       4.909e-42 4.905e-42 -4.907e-42 4.966e-42
0000b0 92 ed d2 bd 9e 23 0e be 97 a5 4f be 4f d2 08 be
       -0.10299219 -0.13880774 -0.20278011 -0.13361476
0000c0 de 63 3d be 31 10 73 bc 97 d5 c1 bd 83 df 1e 3e
       -0.18495128 -0.014835403 -0.09464567 0.1551495
0000d0 ba 0d 00 00 ad 0d 00 80 11 0e 00 80 e0 0f 00 00
       4.924e-42 -4.906e-42 -5.046e-42 5.695e-42
0000e0 08 0d 41 3e 4e ed a7 bd 13 f9 2a 3e 3e d4 1d 3e
       0.18852627 -0.08199559 0.16696577 0.15412995
0000f0 ea 40 c5 3d 20 89 43 3e 90 21 1c bc d4 0c a5 3d
       0.09631522 0.19095278 -0.009529486 0.080590874
000100 f9 0d 00 80 b0 0d 00 00 c2 0d 00 00 bb 0d 00 80
       -5.012e-42 4.91e-42 4.935e-42 -4.926e-42
000110 87 86 af 3d d0 67 22 3e b2 75 00 be 4d fe 54 bd
       0.08570581 0.15859914 -0.12544897 -0.052000333
000120 95 aa 31 be fc d3 c1 3d 06 25 71 bc 61 3e 19 3e
       -0.17350228 0.09464261 -0.0147183 0.14965202
000130 f7 0d 00 80 b6 0d 00 00 f1 0d 00 80 f0 0d 00 00
       -5.01e-42 4.919e-42 -5.001e-42 5e-42
000140 5a 09 4f bd e9 5c 06 be 43 92 25 be 4d 85 e0 bd
       -0.050546028 -0.1312138 -0.16169076 -0.10962925
000150 cd 1d e7 3c e0 92 12 3e cd e6 04 3d f0 9a 59 be
       0.028212452 0.14313841 0.03244667 -0.2125051
000160 b4 0d 00 80 da 0d 00 80 f6 0d 00 00 bc 0d 00 80
       -4.916e-42 -4.969e-42 5.008e-42 -4.927e-42
000170 dc 39 4e 3e 2b ef 24 3e 79 9e 93 bd bc ee 5c 3e
       0.20139259 0.1610686 -0.07207961 0.21575445
000180 5e 89 c3 bd fa 93 34 be 42 6b 0e 3e ef 22 16 3d
       -0.09547685 -0.17634574 0.13908103 0.03665441
000190 cc 0d 00 00 b6 0d 00 80 bc 0d 00 00 b0 0d 00 80
       4.95e-42 -4.919e-42 4.927e-42 -4.91e-42
0001a0 8b 98 80 be 6b 10 0a be 06 42 47 bd 04 37 93 bd
       -0.2511638 -0.13482825 -0.04864695 -0.07188228
0001b0 71 3a fc bd 4b 26 75 3e 3b 89 46 be 1d fa 3f 3e
       -0.12315834 0.23940389 -0.19388287 0.18747754
0001c0 d2 0d 00 80 b4 0d 00 00 c7 0d 00 80 d6 0d 00 00
       -4.958e-42 4.916e-42 -4.942e-42 4.963e-42
0001d0 0c 01 0b be c1 64 49 be a0 b2 6e bd a4 d1 a8 bd
       -0.13574618 -0.19667341 -0.05827582 -0.08243111
0001e0 4c 6f 7b 3a 4d 9a 15 3d 12 ba 14 3e c0 0e 30 be
       0.00095914747 0.036524106 0.14524105 -0.17193127
0001f0 c1 0d 00 80 d8 0d 00 00 56 0e 00 80 fd 0d 00 80
       -4.934e-42 4.966e-42 -5.143e-42 -5.018e-42
000200 d5 fa 7f 3e e6 3a 19 be 2f 3c 24 be 25 dc 9f bd
       0.24998029 -0.14963874 -0.16038583 -0.07805661
000210 52 a4 dd 3d 19 97 36 3d 3e ab 4b 3c 2c 77 e7 bd
       0.10822357 0.04457769 0.012430964 -0.11302027
000220 bb 0d 00 00 f8 0d 00 80 bf 0d 00 00 12 0e 00 00
       4.926e-42 -5.011e-42 4.931e-42 5.047e-42
000230 c9 d1 ff 3b 0a 83 30 bd 32 ac f3 bc 8d 7e 2b be
       0.0078069908 -0.04309372 -0.029745195 -0.16747494
000240 5f 98 f6 bd ee 15 79 be bc 58 5d 3e 77 da 08 3e
       -0.12040781 -0.24324772 0.2161588 0.13364588
000250 d0 0d 00 80 b0 0d 00 80 b1 0d 00 80 d1 0d 00 80
       -4.955e-42 -4.91e-42 -4.912e-42 -4.956e-42
000260 a4 79 06 3c 94 7e 2a be f9 19 99 3c e3 29 2c 3e
       0.008207712 -0.16649848 0.018689143 0.16812854
000270 31 b3 01 be 39 c8 cd 3d 51 51 48 be 20 13 90 3e
       -0.12666012 0.10047955 -0.1956227 0.2813959
000280 22 0e 00 80 ac 0d 00 00 d5 0d 00 80 c0 0d 00 00
       -5.07e-42 4.905e-42 -4.962e-42 4.933e-42
000290 a0 cd 31 bd 97 a9 7c 3e 98 bd 90 bd c1 bf 2e be
       -0.04340899 0.24674068 -0.07067412 -0.17065336
0002a0 fc 95 92 3e 8d 9d 36 be 56 3b 6a bd 92 7e cc bd
       0.28630054 -0.17833538 -0.057185493 -0.09985079
0002b0 ae 0d 00 80 46 0e 00 00 b8 0d 00 00 c6 0d 00 00
       -4.907e-42 5.12e-42 4.921e-42 4.941e-42
0002c0 4d 3a 42 bd 7b b2 8c be a7 28 85 bd 7e 82 66 3e
       -0.04741888 -0.2747992 -0.065018944 0.22510716
0002d0 6b 16 06 be 2c 5c 0d 3e 52 47 1d be 73 65 53 bd
       -0.1309449 0.13804692 -0.15359238 -0.05161042
0002e0 d4 0d 00 00 c2 0d 00 00 35 0e 00 80 b0 0d 00 80
       4.96e-42 4.935e-42 -5.097e-42 -4.91e-42
0002f0 75 5f 33 3e 5b e4 c7 3d 24 40 29 be 5e bb 2f 3d
       0.17516883 0.09760352 -0.16528374 0.042903297

conv1.bias f4 [16]
000000 2d f4 75 36 cf 47 92 35 9a 64 a0 b5 c2 99 6e 35
       3.6649974e-06 1.0898747e-06 -1.1950208e-06 8.8885656e-07
000010 fb 05 90 35 46 f1 42 36 e6 57 91 35 15 f1 55 35
       1.0730577e-06 2.9048692e-06 1.0828924e-06 7.9699504e-07
000020 66 4e 47 b6 82 8c 1a 35 18 64 51 36 18 09 04 35
       -2.9698945e-06 5.7573936e-07 3.120169e-06 4.9187065e-07
000030 02 af 14 b7 1d 92 97 b4 86 10 d4 b5 68 0a 25 b5
       -8.862235e-06 -2.8232253e-07 -1.580004e-06 -6.1482433e-07

bn1.weight f4 [16]
000000 ae 6d 6f 3f 38 b7 6e 3f eb 82 77 3f a9 f5 71 3f
       0.9352673 0.9324832 0.9668414 0.9451547
000010 ea f3 74 3f 37 dd 69 3f 18 5d 6d 3f cd 58 6a 3f
       0.95684683 0.9135317 0.92720175 0.9154175
000020 d2 96 66 3f 05 9e 70 3f 08 fd 69 3f 8b e9 69 3f
       0.90073884 0.9399112 0.9140172 0.91371983
000030 0e 3e 6d 3f d3 cf 77 3f 49 5c 4b 3f d6 f1 6e 3f
       0.9267281 0.9680149 0.7943769 0.9333776

bn1.bias f4 [16]
000000 05 b7 38 3b 97 7e f5 3c 46 f6 17 3d 79 bc 2e 3c
       0.002818526 0.02996759 0.0371001 0.010665053
000010 71 b9 e8 3c f2 9d 12 bd 8d cd f0 bb 26 d7 83 bb
       0.028408738 -0.03579516 -0.0073487223 -0.0040234504
000020 47 63 3d bc e3 05 34 3d 74 b0 4c 3c cf 43 07 3d
       -0.011559314 0.043950927 0.012493242 0.03302365
000030 c3 33 a3 bd fd 35 ba bd 60 57 90 3c d3 f9 90 bb
       -0.07968857 -0.09092329 0.017619789 -0.0044243126

bn1.running_mean f4 [16]
000000 31 04 fd 41 eb a9 86 c2 48 fe 9a c1 34 f9 9f c2
       31.627047 -67.33187 -19.37416 -79.986725
000010 1f 25 34 42 e1 22 4a 42 53 3c 62 c2 96 ef 8b 42
       45.03625 50.53406 -56.55891 69.96794
000020 7a b3 a3 c2 db 20 5d c2 7c 11 8b c1 f8 17 da c1
       -81.85054 -55.282085 -17.383537 -27.261703
000030 a1 f9 68 40 22 ea 55 40 9b 86 f8 c1 16 30 da be
       3.6402361 3.3424153 -31.065725 -0.42614812

bn1.running_var f4 [16]
000000 88 c8 fe 42 21 d3 81 43 2a a2 e9 42 b7 11 41 43
       127.39166 259.64944 116.81673 193.0692
000010 b2 ba 30 43 e3 d1 3c 42 c2 af 0e 43 06 77 16 43
       176.72928 47.204967 142.68655 150.46494
000020 a9 1f ba 42 0b a2 3a 43 46 10 40 41 f6 cc 31 42
       93.06184 186.63298 12.003973 44.450157
000030 11 c5 42 40 ed 6d 50 41 87 78 8d 41 33 bf 89 42
       3.043278 13.026837 17.683851 68.873436

conv2.weight f4 [32, 16, 2, 2]
000000 6a 59 2b 3d 35 18 2b bd 8f fe 92 bd 81 49 75 3d
       0.04183332 -0.041771132 -0.071774594 0.059884552
000010 8b d5 c1 bd 19 11 d9 bc 7f 42 a0 3d b9 7d 35 bd
       -0.09464558 -0.02649741 0.07825183 -0.04430935
000020 16 86 ce bd f5 2f ef bd 64 0b 9b bd 42 c9 02 3b
       -0.100841686 -0.11679069 -0.07570532 0.0019956385
000030 99 e9 29 bd ba ff 3c bd e5 55 04 bd c0 0a cb 3d
       -0.04148254 -0.046142317 -0.032308478 0.0991416
000040 e4 46 c7 3d e3 9c 41 bd f0 3e 47 bd ab c1 7c bd
       0.09730318 -0.04726876 -0.048644006 -0.061708134
000050 32 cd 53 bd 47 4c ab 3d 2f 9e 42 bc ba 34 8c 3c
       -0.05170936 0.08364158 -0.011878534 0.017114986
000060 ce f9 cb 3c bf b1 4b bd 2c 75 a3 3d b2 e7 8a bd
       0.02489939 -0.04973006 0.07981333 -0.067824736
000070 e9 97 3b bd bb c2 ea bc 9d 37 e4 3c 39 e4 5e bd
       -0.04579917 -0.028657308 0.02785855 -0.05441687
000080 42 b9 96 3c 10 7a 8e 3d 56 99 d3 bc 18 7c 08 3d
       0.018398885 0.06956875 -0.025829952 0.03332147
000090 16 43 c7 3d 56 19 3f 3c 08 9e aa 3c 8a e3 54 bd
       0.097295925 0.011663755 0.020827308 -0.05197481
0000a0 5c aa a1 3d 73 d7 33 bc f8 35 a9 3d 3c a9 c7 bd
       0.078938216 -0.01097666 0.08262247 -0.09749076
0000b0 ac bd dc bd 1d af 57 3d 77 37 d8 bd e4 21 db 3d
       -0.107783645 0.052657235 -0.10557454 0.106998235
0000c0 6f 46 f7 3d dc b7 c1 bc b6 44 a8 bd 8d a9 93 bb
       0.12073981 -0.023647241 -0.082162306 -0.004506296
0000d0 2a fb 71 3d 5a b3 e5 3c 3c f3 bf 3d 29 a4 85 3d
       0.05907742 0.028039623 0.09372565 0.06525452
0000e0 e8 a6 66 bd 88 8d 16 bb bf af 25 3d 5e 7c b3 3d
       -0.056311518 -0.0022972543 0.040450808 0.087639555
0000f0 70 e7 fc 3d 8d fc a0 bb 1d bd da bd 90 47 b9 3d
       0.12348831 -0.004912919 -0.10680602 0.090468526
000100 9d fb 80 bc 32 4d 18 bd 97 2e b0 3d 6d aa 07 bc
       -0.015744979 -0.037182994 0.08602636 -0.008280379
000110 78 1f a0 bd 4a a5 96 3c 5e f1 ab bd cd 16 ad 3c
       -0.07818502 0.018389363 -0.083956465 0.021129036
000120 1b 67 2e 3d 36 9b 53 bd 7e a6 17 bd a4 82 ca 3d
       0.042578798 -0.051661693 -0.037024014 0.09888199
000130 5e 62 73 bd 88 62 f7 bb 71 47 16 bd 4a e6 e6 bd
       -0.059419982 -0.0075495876 -0.036689226 -0.11274393
000140 36 06 35 3d ca 38 7a 3d ec ab b9 bc 96 64 cb bd
       0.044195376 0.061089315 -0.022664987 -0.099312946
000150 3a a4 86 bd 23 5e 87 3d 8f 8d 6e 3d 1f 0f 88 bc
       -0.065742925 0.06609752 0.05824047 -0.016608773
000160 e6 84 8c bc 30 9e d3 3c 7d ef c1 3c 4f 46 4c bd
       -0.017153215 0.025832266 0.023673767 -0.04987174
000170 9d 7d 88 bd 2e 18 00 3d 75 17 1c b9 01 84 90 bd
       -0.06664584 0.03127306 -0.00014886058 -0.07056428
000180 33 c3 37 3c 5a 5b 81 3c 26 26 88 bd f2 7d 15 bd
       0.011215973 0.01579063 -0.06647901 -0.036497064
000190 5f 59 13 bd eb ac 59 3d a5 42 c3 bd 61 a2 f1 bd
       -0.035973903 0.053143423 -0.09534196 -0.117985494
0001a0 3e 22 43 3d f3 39 5b bd f7 a1 be bc 92 65 e3 3c
       0.047640078 -0.05352206 -0.02327059 0.027758393
0001b0 c8 6c 52 3d eb 77 5c 3d f8 7d 26 bd 26 66 db bd
       0.051373273 0.0538253 -0.040647477 -0.10712843
0001c0 01 92 95 3d 91 92 72 3d e6 7a da bd 15 05 89 3c
       0.07303239 0.059221808 -0.10667972 0.016726056
0001d0 51 c9 19 3c 62 5b 66 3d 81 e9 75 bc 74 b5 8b bd
       0.0093863765 0.056239493 -0.015009285 -0.06821719
0001e0 5e 3b ef 3c 74 31 87 bb 3e 27 18 3c 73 b9 10 bd
       0.029203113 -0.0041257683 0.0092867 -0.03533311
0001f0 8a b0 99 bd 3c d0 bf 3d cc 32 75 3c ed e0 39 3c
       -0.07504375 0.093658894 0.014965724 0.01134513
000200 0f 39 f5 bc f6 6e a7 b9 3e 84 2f 3d 41 6c 68 3d
       -0.029934434 -0.00031935395 0.042850725 0.056743864
000210 30 35 40 bc 55 d8 a9 bd f2 cb 0f 3c 39 10 05 3d
       -0.011731431 -0.08293215 0.008776652 0.032486174
000220 2f e0 d2 3d f6 cd c8 3d 29 a1 ba 3c 3a b0 9d 3c
       0.10296666 0.09804909 0.022781925 0.01924907
000230 26 10 c8 bc 07 48 f2 bc b3 65 ad bd 56 9d 5d 3c
       -0.024421763 -0.029575361 -0.08466663 0.013526281
000240 1d 0a f1 3c 44 2e cb 3d 8b 2e 81 bd 50 80 0e bd
       0.029423768 0.09920934 -0.063077055 -0.034790337
000250 84 48 b3 bc a1 12 b7 3d c2 36 83 bd 02 3e 93 bb
       -0.021885164 0.089391 -0.064069286 -0.004493476
000260 eb 66 d7 3c 82 26 59 3d b6 f9 21 bd 39 de 97 3d
       0.026294192 0.05301524 -0.039544784 0.074154325
000270 9e c7 58 3d 0e 44 f3 3d 1c 26 70 3d cc 6e fe bd
       0.052924745 0.11878215 0.058630094 -0.124234766
000280 5e 31 8d bd 3e 0a 9a 3d f4 0f 7d bc 47 3e ac bd
       -0.06894182 0.07521485 -0.015445698 -0.08410316
000290 d8 6b 8b bd 2e 13 d4 bd 0c 63 e7 3d 07 7c 3b bd
       -0.06807679 -0.10355221 0.112981886 -0.04577258
0002a0 a9 d6 8b bc cb a0 53 3d 2a 84 ba 3d 84 91 32 3d
       -0.017070131 0.051667016 0.091072395 0.043595806
0002b0 ef 95 a2 bd cc d0 58 3d 2d 3d af 3d 32 97 eb 3c
       -0.07938754 0.0529335 0.0855659 0.028758619
0002c0 be 3c d0 bd 4e dc 8c 3d 99 a1 ca 3d 1d 72 c5 3d
       -0.10167836 0.06877957 0.098941036 0.09640906
0002d0 03 2c df bc 39 9c 20 bd 22 66 20 3d 64 ee 23 3d
       -0.027242666 -0.039211486 0.0391599 0.04002227
0002e0 6e 54 83 3d f0 f2 16 bd a1 c5 3b ba 06 bd 1b bd
       0.06412588 -0.036852777 -0.0007162933 -0.038022064
0002f0 87 98 a3 3d 74 e5 42 3d fe 64 2b 3d c9 1b a6 bd
       0.07988077 0.047582105 0.04184436 -0.08110768
000300 9e d3 7d 3d f6 6a 76 bd ae 99 85 bc be 04 86 3d
       0.061969392 -0.0601606 -0.016308632 0.06543873
000310 9e 8d 31 3c 29 9d 6b 3d 0b ee af 3d 4b 7a 4d 3c
       0.010836987 0.057522926 0.08590325 0.012541364
000320 65 6d 8d 3d 0c 9d 8e 3d 04 bf 61 bd 1a ba 44 3d
       0.06905631 0.06963548 -0.055113807 0.048029043
000330 a1 d8 a8 3d 28 f6 61 bd e2 23 a1 bd 01 68 8f 3d
       0.08244444 -0.055166394 -0.07868172 0.07002259
000340 48 15 05 3d 48 f4 c7 3d 18 4d a4 3c f5 bd e7 3d
       0.032491 0.0976339 0.020056292 0.11315528
000350 56 01 d6 3d 72 76 0b bd 06 cd e1 3d ce a9 ec bd
       0.104494736 -0.034048505 0.11025433 -0.11555825
000360 e8 45 5c bd 4d 37 c5 3a 9f 5c 84 3d ff 82 63 3b
       -0.053777605 0.0015046388 0.064629786 0.003471553
000370 d0 a1 ee bd 0c 57 54 3d 1e ec ba bd c6 ba 1d 3d
       -0.11651957 0.051840827 -0.09127067 0.0385082
000380 2b 8d 54 bd 82 c6 e5 3c c1 c9 56 3d 85 19 28 bd
       -0.05189244 0.028048757 0.0524385 -0.041039962
000390 5f 69 10 3d 6e 01 30 bd 1e de a5 3d 18 37 c3 3d
       0.03525674 -0.042970113 0.08099006 0.09531993
0003a0 3e df e6 bd 9f 7a ac 3d 50 95 f7 3b e7 80 6d bc
       -0.11273049 0.084218256 0.0075556412 -0.014496065
0003b0 b1 6c e9 3d 47 c3 a0 bc d3 f2 79 bd 47 65 48 bd
       0.11397684 -0.019624365 -0.06102259 -0.04892471
0003c0 fa 9e 84 3d 94 97 06 3d 3f 59 14 3d a6 f3 63 bd
       0.06475635 0.0328594 0.036217924 -0.055652283
0003d0 d1 76 90 3d 23 7d 92 3c be a2 05 be 84 65 be bd
       0.070539124 0.017881935 -0.13050362 -0.09296706
0003e0 04 62 af 3d 2d 58 f3 3c 3e 60 90 3d ac 94 38 3d
       0.08563617 0.029705131 0.07049607 0.04506366
0003f0 7d fe 41 bc 36 92 a6 3d ca 3c b4 3d 47 13 20 3d
       -0.01184046 0.08133356 0.08800657 0.039080884

conv2.bias f4 [32]
000000 8e f3 c0 36 ef 33 ee 37 88 c9 2e b7 6a 35 3f b6
       5.7503994e-06 2.8395994e-05 -1.0418131e-05 -2.849231e-06
000010 28 8e e0 b6 d7 5c fe 37 5d 02 95 b5 2d 9d 7f b7
       -6.6922694e-06 3.0322391e-05 -1.1102053e-06 -1.523578e-05
000020 da 93 e5 b6 b2 e4 fa b7 c8 f3 b6 b6 51 99 08 37
       -6.841944e-06 -2.9908817e-05 -5.4524025e-06 8.141928e-06
000030 89 c2 05 36 09 77 5c 36 65 a6 40 37 80 f1 7c b7
       1.9931779e-06 3.2851842e-06 1.14828335e-05 -1.5076599e-05
000040 a4 e3 89 35 f8 30 f8 b4 87 95 99 36 71 28 23 38
       1.0273548e-06 -4.622923e-07 4.5771626e-06 3.8899892e-05
000050 7a d5 e6 35 ae a6 59 b6 f5 b5 f4 37 92 b2 75 b6
       1.7198465e-06 -3.243254e-06 2.9171797e-05 -3.6611787e-06
000060 f5 03 55 37 0d 6b ce b7 31 fc 91 b7 cc 2b bb b7
       1.2696711e-05 -2.4606963e-05 -1.7402783e-05 -2.2312532e-05
000070 4a 9e 85 37 d7 15 09 36 ed 8c c4 b7 3d 1b 2c b7
       1.5928545e-05 2.0427303e-06 -2.3430644e-05 -1.0258341e-05

bn2.weight f4 [32]
000000 03 b8 5d 3f 14 fb 59 3f b4 db 69 3f bf 6a 68 3f
       0.86608905 0.8514874 0.91350865 0.9078788
000010 c4 f0 57 3f ed 31 63 3f ff 1a 69 3f ac 71 5e 3f
       0.84351754 0.88748056 0.9105682 0.868922
000020 63 e7 5f 3f 09 a9 5e 3f 61 c8 45 3f 81 b8 5b 3f
       0.87462443 0.8697668 0.7725888 0.85828406
000030 ec db 5c 3f 07 57 63 3f 09 4d 4f 3f e3 2c 5a 3f
       0.86273074 0.8880467 0.8097692 0.8522474
000040 5b 32 67 3f a6 50 70 3f ea 3e 62 3f aa 65 63 3f
       0.9031121 0.9387306 0.8837725 0.88827
000050 80 54 69 3f 37 53 75 3f 2a 41 5e 3f 96 b9 69 3f
       0.9114456 0.958301 0.8681818 0.91298807
000060 36 b6 58 3f c6 23 67 3f a1 2b 56 3f 51 16 5f 3f
       0.8465303 0.9028896 0.8366032 0.8714343
000070 02 dd 62 3f ac 28 5b 3f 5b 2a 70 3f a1 56 6a 3f
       0.8861848 0.85608935 0.9381463 0.91538435

bn2.bias f4 [32]
000000 0a 38 1b bd 55 51 1b bd 8e 12 0b bc 91 0f 50 bd
       -0.03789524 -0.03791936 -0.0084883105 -0.050796095
000010 f6 34 32 3c bf a0 94 bc eb 65 dd ba 4d a6 66 bc
       0.010876885 -0.018143056 -0.0016891336 -0.014077735
000020 9f 83 e5 ba b3 6e e2 3c ea 72 bc bb 04 cd 34 3d
       -0.001751054 0.027640676 -0.0057510035 0.04414083
000030 ec 64 8d bc 49 be b1 3d c0 35 d2 3b 0d 4a 0e 3c
       -0.017260037 0.08678872 0.006415099 0.008684647
000040 14 bf 91 bc d1 02 01 be 81 19 67 bd e3 5c ee bc
       -0.017791308 -0.1259873 -0.056420807 -0.029097026
000050 19 48 42 3d 27 7f a7 bb 5f ac eb 3b a0 bb 68 3d
       0.04743204 -0.0051115933 0.007192179 0.05681956
000060 4d e5 a3 bb 40 dc 95 bc 16 b7 87 bc 9e 91 da bb
       -0.0050017 -0.0182935 -0.016566794 -0.006670191
000070 05 ca 8e 3c d7 69 09 3b 79 a8 36 bb 63 ab 43 bc
       0.017430315 0.0020967626 -0.0027871414 -0.011942717

bn2.running_mean f4 [32]
000000 24 f3 3f 3c 79 5c 84 be 35 a4 8f 3e 21 b6 ac 3e
       0.011715684 -0.258518 0.28054968 0.33732703
000010 35 d6 91 3d da 36 2f 3d d8 0f 77 3d 6f f6 c3 be
       0.07120935 0.04277692 0.060317844 -0.3827395
000020 b7 ba 6b 3e 9d 6d 9f 3e 9d db 81 be 9d cc f4 bd
       0.23020445 0.31138316 -0.25362864 -0.119530894
000030 5a 20 a0 be 91 28 40 3b ab 74 3f be c4 98 b7 be
       -0.31274682 0.0029321054 -0.18696849 -0.35858738
000040 1a ea 69 3e f3 2b 0f 3e ce b9 c1 be b2 34 bf bd
       0.22843209 0.13981609 -0.3783707 -0.09336223
000050 e4 90 8b be 86 02 96 3d 59 2f e1 3d 20 39 30 be
       -0.2725898 0.073247 0.10995359 -0.17209291
000060 9a 90 02 be 82 83 18 be 9c 2a 78 be bc 5c c1 bc
       -0.12750474 -0.14893916 -0.24235004 -0.02360379
000070 03 5d a5 bd c3 85 08 bc cb 6f 5f 3e 7d 31 ad 3d
       -0.08074381 -0.0083326725 0.2181999 0.08456705

bn2.running_var f4 [32]
000000 d5 c1 51 3d c8 53 35 3e 37 b0 00 3e b9 8f a3 3d
       0.051210243 0.17707741 0.1256722 0.07986397
000010 9f ef 5a 3e 0f 42 9d 3c a1 22 99 3d 5d c3 ac 3d
       0.2138047 0.019196538 0.07477308 0.084357
000020 1f b7 2a 3e ff c8 9e 3d 44 f3 c9 3d 54 52 cb 3c
       0.16671418 0.07753181 0.09860852 0.02481953
000030 3a a2 8e 3d a2 35 c2 3c fe fe 37 3e c9 0c db 3d
       0.06964536 0.023707215 0.17968366 0.10695798
000040 ee ad 61 3e fe 0e 2d 3d 80 c7 9b 3d c3 d8 56 3d
       0.22039005 0.042250626 0.07606411 0.052452814
000050 e4 18 68 3d 68 21 10 3d ea 33 4d 3d 2f d7 5f 3d
       0.056664363 0.03518811 0.050098337 0.054648574
000060 97 30 11 3e 45 e0 4f 3d e2 48 79 3d 62 5d a1 3c
       0.14178692 0.05075099 0.060860522 0.019697849
000070 d5 2e 80 3d b2 00 4e 3e 08 b0 a8 3d f2 bd bd 3c
       0.062589325 0.20117453 0.082367 0.023161862

conv3.weight f4 [16, 32, 2, 2]
000000 10 00 94 3d 61 ed 59 ba e8 c6 0a bc d4 1b 0a 3d
       0.072265744 -0.0008313265 -0.0084702745 0.033717945
000010 ee e8 63 bd 82 9e 1d bd 06 89 3a 3c 60 de f2 bc
       -0.05564206 -0.038481243 0.011385208 -0.029647052
000020 9c 74 87 bd cb fb a1 3d 68 40 27 3d 36 ee 01 3d
       -0.06614038 0.07909354 0.040832907 0.031721316
000030 05 3d 7d 3d 2e 5f 5d bd f5 f6 27 bd a9 63 23 bd
       0.06182577 -0.05404585 -0.041007 -0.039889965
000040 a1 a5 fc 3c 30 96 ee 3c f3 6d 51 bd 18 7f cc 3b
       0.030840697 0.02912435 -0.051130246 0.0062407367
000050 f1 27 07 bd 46 c6 05 3c e0 87 7f bd 4e fd fa 3c
       -0.032997075 0.008164948 -0.06238544 0.030638363
000060 83 ad 95 3d d4 81 99 3d a6 de 0b bd ba 5d 9c bc
       0.07308485 0.07495466 -0.03414788 -0.019087661
000070 74 d6 3d bd 15 f1 33 3d eb 1c 49 3d 9a aa 04 bd
       -0.046347097 0.043931086 0.049099844 -0.03238926
000080 1b 32 6d bd b8 a5 0c 3c e5 aa 60 3d 00 f0 0b 3c
       -0.057909112 0.008584432 0.054850478 0.008541107
000090 97 83 e5 bd e8 3a 15 3d 95 b9 5f 3d 3e 8b 7c bd
       -0.112067394 0.03643313 0.054620344 -0.06165623
0000a0 6d 6f e7 bd e0 7b 24 3d 0e 10 e4 bc c8 d3 9b 3c
       -0.1130055 0.0401572 -0.027839687 0.019021884
0000b0 39 f1 9b 3d ad 66 47 3d b3 ee 32 3d cf 97 5f 3d
       0.07614369 0.048681904 0.043684673 0.054588135
0000c0 f4 d9 09 bd bd df 9a bd 22 89 c7 3c 1b 46 b5 3d
       -0.033655122 -0.07562206 0.024357382 0.08851262
0000d0 49 96 d6 3c 7f 2b 1f bd 3f 27 b7 bd 59 d9 33 bc
       0.026194708 -0.03885984 -0.089430325 -0.010977113
0000e0 b2 3e 5f bd 13 8b a7 bd 29 97 8c 3d 1f a8 89 3d
       -0.05450315 -0.08180823 0.06864769 0.0672152
0000f0 58 45 34 3d 18 bb 5a 3d d4 e8 6a 3c 28 f7 b2 3c
       0.044011444 0.053401083 0.014337737 0.021846369
000100 a1 68 e3 3b 7d 39 45 bc 25 de 3f bd 4e 35 4c bd
       0.006939963 -0.012037632 -0.046842713 -0.049855523
000110 4d 5c a5 bb 7a a1 2a be a2 69 3c 3d 0b b0 3f 3d
       -0.0050464035 -0.16663161 0.045999177 0.046798747
000120 56 15 9d 3d 5b 1d 5a bd 19 d9 fe 3c 0f 3f 92 3d
       0.07670085 -0.05325065 0.03110938 0.07140934
000130 b3 27 3f bd f0 84 e3 3c 9e 15 89 bd e1 b9 8a 3c
       -0.04666872 0.02777335 -0.06693576 0.016934337
000140 6a f9 68 3d 19 3f 39 bd e1 26 88 3d 1b 29 b6 3d
       0.056878485 -0.04522619 0.066480406 0.08894559
000150 4d 7f d5 3d 45 6f bb 3d b4 86 46 bb 3c 77 33 3d
       0.10424671 0.09152082 -0.0030292692 0.043814883
000160 a4 07 69 bc d8 6b 5a bd 02 2a 12 3d 78 63 83 bd
       -0.014223013 -0.053325504 0.035684593 -0.064154565
000170 be a0 9b bd 43 cc 2a 3d 3b 9d 2b 3d de e2 9d 3a
       -0.075990185 0.041698705 0.041897994 0.0012045761
000180 89 ce b1 bd b8 9f f2 3b b1 30 80 bd 42 9b 9e 3c
       -0.086819716 0.007404294 -0.06259287 0.019361142
000190 ce 7a 47 3d 72 73 34 3d 1d 85 64 bd 7a 05 c6 3d
       0.0487011 0.04405541 -0.05579101 0.09669013
0001a0 b3 45 a3 3c 83 1c 87 3c 91 33 94 3c f4 ed d5 bc
       0.019930696 0.016493088 0.018090995 -0.026114441
0001b0 ae f7 4d 3c 21 d2 c8 bd 1c d5 b3 bb eb 9c fa bc
       0.0125712585 -0.09805704 -0.005488051 -0.030592402
0001c0 3d 7b 67 bd 68 58 72 bd ef 9a a0 bd fc dd cd 3c
       -0.056514014 -0.059166342 -0.07842051 0.025130264
0001d0 b9 ad 93 3d 37 63 85 bd 63 0e 8e bd db 1f 25 3d
       0.07210869 -0.06513064 -0.06936338 0.040313583
0001e0 b0 5a 5c bd 57 bc 21 3d 70 8f aa bd b1 e8 94 3c
       -0.053797424 0.039486255 -0.0832814 0.018177362
0001f0 51 6c 39 bd ae 7e 4e bd 1b ae 5a bd 62 e8 de 3b
       -0.045269314 -0.05041378 -0.053388696 0.0068026045
000200 8a 43 9a bd d3 05 84 bc 14 3a 2f bd b7 39 48 bd
       -0.07532413 -0.016116058 -0.042779997 -0.048883166
000210 c3 c4 78 3b 47 0a 87 3d f1 22 23 bc f5 2b 38 3d
       0.0037959076 0.06593757 -0.009957061 0.044963796
000220 ba c5 96 3d 9e e2 71 3c 06 7a e8 3c 83 13 82 3b
       0.07361932 0.014763502 0.028378498 0.003969611
000230 0f 12 a4 bc ed 35 17 bd c4 8e 0e 3c 3c 9f 6f bd
       -0.020028142 -0.036916662 0.00870103 -0.058501467
000240 35 c8 6f 3c 4a ea 7c bc 06 49 6e bd 5a 22 6e bd
       0.014635135 -0.015436718 -0.05817511 -0.05813823
000250 b5 c4 68 3c 98 3a 8f bd 52 33 13 bd fa fc bc 3d
       0.014207055 -0.06993598 -0.035937615 0.09227939
000260 ba dc b4 3c 2b f8 8b 3d a9 2a 1f 3c b4 ca 37 3a
       0.022077907 0.06834444 0.009714761 0.0007011101
000270 9e fd 39 3d 12 0b 10 3d 96 b1 37 bd 6a 49 30 3b
       0.045407884 0.035166807 -0.044847094 0.0026899227
000280 b7 64 d4 3b b7 c9 0a bd 2c 2b 39 3c f1 c1 27 bc
       0.0064817327 -0.033883777 0.011301797 -0.01023911
000290 bf 11 ae 3d 41 21 90 3d fe f6 b8 bd 05 fe 25 bd
       0.084994785 0.07037593 -0.09031485 -0.040525455
0002a0 9e 4a 61 bd a6 6b 1d 3d a9 c2 c8 bc 42 23 0f bd
       -0.0550028 0.03843274 -0.024506884 -0.034945734
0002b0 e8 01 1b bd 47 c6 b3 bc cd dc 0b bd 17 fe c5 bc
       -0.037843615 -0.021945132 -0.03414612 -0.024169011
0002c0 a1 ef 6e 3c 7f e1 46 bd b7 d8 a1 3c c2 91 85 bd
       0.014583499 -0.048554894 0.019756658 -0.06521942
0002d0 ea cb be 3c 2b a8 06 bd bc 7c 54 bd 30 20 a2 bd
       0.023290593 -0.03287522 -0.05187677 -0.079162955
0002e0 3c 6c 5b 3d e9 0b 79 3d 99 97 60 bd 09 f5 f4 3c
       0.053570017 0.060802374 -0.054832075 0.029901998
0002f0 c2 39 11 3d 2c 93 91 3d 20 85 94 3c b8 56 01 3d
       0.035455473 0.07108149 0.018129885 0.031576842
000300 97 af 75 bc 22 2d 9b bb 3e 3b 73 3d 2e a6 bc 3b
       -0.014995477 -0.004735605 0.05938267 0.005757115
000310 f7 b4 ba 3c 2a 5c ed 3b ac 2f ba bb a3 84 c7 bc
       0.022791369 0.007243653 -0.0056819525 -0.024355238
000320 4f cf 2a bd 26 66 0f bd 98 4d d5 3c 0a 3b aa 3b
       -0.04170161 -0.035009526 0.026037976 0.0051950263
000330 31 70 92 3d 44 23 cb 3c 3e 7c 7f 3c d9 58 26 3d
       0.07150305 0.02479709 0.0155935865 0.040612075
000340 bd 4f 94 3b c7 f5 9e 3d 44 84 1c bd e9 35 1d 3d
       0.004526107 0.07761722 -0.038212076 0.03838149
000350 3e fb bb 3c d3 bd 31 3d 15 6a 44 bc 80 d3 ad 3b
       0.02294695 0.04339392 -0.011988183 0.005304754
000360 7b 42 3c bc fe 46 b6 bd 13 39 36 bd a3 4a 20 3d
       -0.01149046 -0.089002594 -0.044488024 0.03913368
000370 d8 cf 37 3d 6b 11 b7 3d 1b f4 22 bd cf b9 84 3d
       0.04487595 0.08938869 -0.03978358 0.06480753
000380 4f d8 a1 3c 90 d4 80 bd 4f 82 68 3c a5 54 d2 3c
       0.019756464 -0.06290543 0.014191224 0.025675127
000390 73 f3 af 3c ad 0d 83 3c 5f 38 3f 3c 32 b5 0c 3d
       0.02147839 0.015997732 0.011671155 0.03435249
0003a0 79 0a 63 bd d2 61 8a bc 82 72 34 bd c4 af c2 3c
       -0.05542991 -0.016892347 -0.044054516 0.023765452
0003b0 25 c3 8e bd 7e a8 f4 3c 3d 88 73 3b a8 7c a5 bc
       -0.069708146 0.0298655 0.0037160062 -0.020201042
0003c0 a9 90 81 3d 7f 93 6e 3d df 7f 20 bc 32 ef 4b bd
       0.0632642 0.058246132 -0.009796112 -0.04978866
0003d0 74 fe 4b 3d b4 43 fa bc 2f 81 8b 3d cd 2b 5f 3d
       0.049803212 -0.030549861 0.06811749 0.05448513
0003e0 01 f7 e5 bc 12 04 62 3c 51 06 67 3d ea df 34 bd
       -0.028071882 0.013794916 0.05640251 -0.044158854
0003f0 11 3c d6 3d 5a 6e a2 bd 82 63 cd bc 16 8c b4 3c
       0.104606755 -0.07931204 -0.025071863 0.022039454

conv3.bias f4 [16]
000000 62 2f a2 b7 f4 12 bd 35 1a b0 2e b8 16 6b 41 b7
       -1.933397e-05 1.4087113e-06 -4.164884e-05 -1.1528629e-05
000010 6c f5 3c 37 39 f6 c5 37 1e 54 fd 37 5e 1e 71 37
       1.1262815e-05 2.3598886e-05 3.019912e-05 1.437179e-05
000020 10 73 11 b8 33 a9 a0 37 ec 05 74 36 6c c2 33 b6
       -3.4677854e-05 1.9152276e-05 3.636228e-06 -2.6786247e-06
000030 61 5c 1c b7 fc 19 9f 35 73 a1 e8 b7 ee db fd 37
       -9.319833e-06 1.1853986e-06 -2.7731736e-05 3.0262363e-05

bn3.weight f4 [16]
000000 5b b4 72 3f a8 cc 6b 3f 12 0a 6e 3f 51 30 56 3f
       0.9480645 0.92109156 0.92984116 0.83667475
000010 99 fa 6f 3f a7 11 64 3f 94 3d 6f 3f 58 c4 68 3f
       0.93741757 0.89089435 0.93453336 0.90924597
000020 3a 25 62 3f 0e e8 75 3f e0 dd 5c 3f 8e 92 58 3f
       0.88338053 0.9605721 0.86276054 0.84598625
000030 aa 9e 6d 3f 30 bb 61 3f f3 17 58 3f f8 37 6a 3f
       0.9282023 0.8817625 0.84411544 0.9149165

bn3.bias f4 [16]
000000 05 db d1 3b ed c8 6d 3c bf 80 7d bd 25 05 33 3c
       0.006404283 0.0145132365 -0.06189036 0.0109265195
000010 46 cf f1 bc ff 50 e9 bc ad 63 bc ba bd 86 19 bc
       -0.029517781 -0.028481005 -0.0014372967 -0.009370503
000020 38 29 08 be 5c e0 18 bc 15 37 03 bd 5d bd 1e bd
       -0.13296974 -0.009330835 -0.032034952 -0.03875481
000030 34 7f e5 bb 42 bf 5a bd c6 a6 fe 3c 24 0c 81 bd
       -0.007003689 -0.053405054 0.031085383 -0.06301144

bn3.running_mean f4 [16]
000000 f8 b9 bb ba 1c 0c 44 3e 4a 47 77 3e 58 0a 01 be
       -0.0014322391 0.19145244 0.24148288 -0.12601602
000010 28 11 49 be fd b8 0d be 88 4a c4 3e f5 08 b3 3e
       -0.19635451 -0.13840099 0.38338113 0.3496777
000020 60 53 5b 3c ef fa 64 3e 18 5a 23 bc ab a7 a3 bd
       0.013386577 0.22361349 -0.0099702105 -0.079909645
000030 3f da f1 3e 1f b6 84 3e 7a e1 cd 3e 62 61 59 3e
       0.4723682 0.25920197 0.40211087 0.21228555

bn3.running_var f4 [16]
000000 38 d8 2d 3d 02 e8 64 3e a1 eb 1c 3d 9a fa 46 3d
       0.04244253 0.22354129 0.03831065 0.048578836
000010 f8 67 52 3d 4e be 37 3d 50 4f 89 3d b7 f0 60 3d
       0.051368684 0.044859223 0.06704581 0.054917064
000020 bb 18 eb 3c f1 b5 71 3d 3e 02 04 3d 02 ed 46 3d
       0.028698316 0.059011403 0.0322287 0.048565872
000030 18 8a 68 3d ee 1a fe 3c f2 fe e0 3c c2 46 46 3d
       0.05677232 0.0310187 0.027465317 0.048407324

conv4.weight f4 [8, 16, 2, 2]
000000 e6 70 08 3e 9d 71 85 3d d3 8a 85 bd ba 84 25 3d
       0.13324317 0.06515811 -0.06520619 0.04040978
000010 07 b7 95 bd ec cc 0b bc 40 f5 ea bc 76 bb cc 3d
       -0.073103 -0.008532744 -0.028681397 0.09996693
000020 21 0b 0f 3e de c0 eb bd fd 89 a6 bd 64 39 2f 3d
       0.13969089 -0.11511396 -0.08131788 0.04277934
000030 97 9e f4 3d 1b 45 74 bc 7a 16 5d 3d db f1 7e bd
       0.11944311 -0.014909054 0.053976513 -0.06224237
000040 73 67 2a 3d 54 5a cb 3d 8f 59 58 3b 78 74 1e bd
       0.041602563 0.09929338 0.0033012365 -0.038685292
000050 3a be c4 bd e8 fc 87 bc fb 41 6a bd 80 47 a1 3a
       -0.09606595 -0.016600087 -0.05719183 0.0012304634
000060 aa bf 84 3c f0 94 de bd 55 0d 55 3d 5b 4f cc bd
       0.016204674 -0.10868251 0.052014668 -0.09976073
000070 1b 3f be bd 99 51 e7 3c 99 b4 37 bd 2d e1 21 bd
       -0.0928938 0.028237151 -0.044849966 -0.039521385
000080 d5 6d 87 3d e7 e3 1b 3d 17 ac 77 3c ab b5 33 bd
       0.06612746 0.03805914 0.015116713 -0.043874424
000090 8d 09 0f 3d a6 95 3b bd 0b 23 a9 bd 7a 89 dc 3d
       0.034921218 -0.045797013 -0.08258637 0.10768409
0000a0 fd 0f 98 bd 35 d7 f8 3a ee 89 23 bd 43 bd 02 3d
       -0.074249245 0.0018985035 -0.039926462 0.031918775
0000b0 68 ea 69 3d 36 79 f9 3d bd ef d8 3c 0d 8d f4 bd
       0.057108313 0.12181322 0.026481504 -0.11940966
0000c0 95 29 12 bd 2e ca cd 3d 5c 8d b0 3d 3e a5 0a 3e
       -0.035684187 0.10048328 0.08620712 0.13539597
0000d0 82 61 87 bd 9e 20 31 3b 0f 49 c7 3d d2 31 8d bd
       -0.06610395 0.0027027498 0.09730732 -0.06894268
0000e0 36 30 54 bd 51 3c d8 bc b0 22 fe 3c 7f fe c1 bd
       -0.05180379 -0.026395949 0.0310224 -0.094723694
0000f0 db 1b d0 bd 73 52 4b ba 79 79 c2 3c 84 b0 58 bb
       -0.10161563 -0.00077561213 0.023739563 -0.0033064196
000100 c2 a3 c4 bd 8e 27 6c bc 54 e7 2a bc 1f 3d c6 3d
       -0.09601547 -0.014413727 -0.0104311295 0.09679627
000110 f7 08 79 bd fa c8 a7 bd 31 c2 16 3d 50 52 2a bd
       -0.060799565 -0.0819263 0.03680629 -0.041582406
000120 3b 94 e1 3d bd d6 2c bd b1 1c d2 3d 46 e2 fa bd
       0.11014601 -0.042196978 0.10259379 -0.122501895
000130 3e 9e 7e bd cc cc 60 3d ed b1 b0 3d cc e4 11 3d
       -0.06216263 0.05488281 0.08627687 0.03561859
000140 ac f1 93 3d 62 b7 01 3e e6 ce 25 bd cf 43 f3 bc
       0.072238296 0.12667611 -0.040480517 -0.02969542
000150 08 19 d6 3d 4e b9 45 3d 7f cb 11 bd 25 3a 15 be
       0.10453993 0.048272423 -0.03559446 -0.14572962
000160 4d f7 e2 bc e3 1a 16 bc af d3 56 bd 4b 2e 0b bd
       -0.027705813 -0.009161684 -0.05244797 -0.033979695
000170 1c ee 85 bb a6 d9 95 3c 25 b4 d6 bd fe eb 38 3b
       -0.0040872227 0.01829226 -0.104835786 0.0028216834
000180 e2 17 be bd 9f eb c8 3b 49 44 0f bd 8c 06 a5 3b
       -0.09281899 0.006131604 -0.03497723 0.005036181
000190 1f f4 11 3d 57 24 1e 3c ca df 13 3e 8b 1f 60 3d
       0.035633203 0.009652219 0.14440838 0.05471758
0001a0 86 8e a5 3d c6 7f f1 bc 1a 3b c7 3d 6a b6 94 bb
       0.08083825 -0.029479872 0.097280696 -0.004538347
0001b0 20 7b fa bc 26 2a 9f bc cf 96 84 bc 74 65 b6 bc
       -0.030576289 -0.019429278 -0.016185192 -0.022265173
0001c0 a4 4b 21 3c f0 4c 2b 3d ed af e3 bd f0 07 47 bc
       0.009844694 0.04182142 -0.111175396 -0.012147889
0001d0 31 93 7f bc eb 66 ed bc 3e 0f 17 3d f0 43 a0 bd
       -0.015599058 -0.02897974 0.03687977 -0.07825458
0001e0 57 1b 14 3e a4 d6 5b 3d 66 51 09 3d 8b 15 d1 bc
       0.14463554 0.053671494 0.033524893 -0.025522968
0001f0 01 61 2c be 86 ee 83 3d 28 77 76 bd 39 2e c7 bd
       -0.16833879 0.06441979 -0.06017223 -0.09725613
000200 13 86 6f 3d ae 04 56 3d 8d 8a 43 bd 44 e9 16 3d
       0.058477473 0.052250557 -0.047739554 0.036843553
000210 48 5b c5 3d 6b 7a 0a 3d ea 0e dc 3d ea f9 10 bd
       0.09636551 0.033808153 0.10745032 -0.035394587
000220 85 b4 b4 bd 4d 35 af 3d 7c 0a bd bd 84 92 af bd
       -0.08823494 0.08555088 -0.09230515 -0.085728675
000230 7c 4a 89 bd d9 25 3a bd d5 73 4f bc 52 28 1c 3e
       -0.0670366 -0.04544625 -0.012661894 0.15249756
000240 1c 8d 9f 3d a4 8f 98 3d 8e a1 ab bc 50 f4 02 bd
       0.07790586 0.07449272 -0.020951059 -0.031971276
000250 05 7c 82 bd 68 50 b1 3d 86 0c ae 3d e8 15 27 3c
       -0.06371311 0.086579144 0.084984824 0.010198094
000260 3a 54 0b 3e c7 6f dc 3d f8 31 a7 bd 92 d2 da bd
       0.13606349 0.10763507 -0.08163828 -0.10684694
000270 c8 23 f5 bd f6 5f 76 bd 97 6f b5 3d 34 17 91 3d
       -0.11969715 -0.06015011 0.08859175 0.07084504
000280 5d 3e 97 bc 63 bc 85 3d a0 63 84 bd 1b e0 f3 bd
       -0.018462354 0.065300725 -0.064643145 -0.11907979
000290 c1 94 ee bc 49 5e 8e bd dd 37 9d 3d ed 65 ac 3d
       -0.029123666 -0.06951577 0.07676671 0.08417878
0002a0 69 fc b2 bd b6 1a 29 bc ff 62 c7 3c 5e d1 c4 3d
       -0.0873955 -0.01032131 0.024339197 0.09610246
0002b0 4f da 62 3d 08 65 82 bd d6 73 b5 3d af dc 73 bc
       0.055383977 -0.063669264 0.088599846 -0.014884158
0002c0 33 98 d9 3d 1e cd bd bd 22 63 46 3d 38 49 8b bd
       0.10624733 -0.092676386 0.048434384 -0.06801075
0002d0 da eb 5a bd 5a 0b 8a 3c c7 f8 91 bd 25 fe 59 3d
       -0.05344758 0.016851116 -0.07127529 0.053220887
0002e0 89 2d 33 3d ec 6f 4f bc 32 5b b7 3c 47 25 0f bb
       0.043744598 -0.012660962 0.022382353 -0.0021842287
0002f0 56 ab 61 bd 6c 09 da 3c 56 d8 9c 3d da 6f 7a 3b
       -0.05509504 0.02661582 0.0765845 0.0038213641
000300 42 83 15 bd ab 4a b5 3c 42 c0 98 3d 7b 70 e5 bc
       -0.03650213 0.022130331 0.07458545 -0.028007736
000310 63 c1 d8 bd 56 40 82 3c 83 8e d7 bd bc 63 d3 bc
       -0.105837606 0.015899818 -0.10525229 -0.025804393
000320 a2 0d 39 3d f8 e8 dc 3d 29 80 6b 3c cd 7d 8f bd
       0.045179017 0.10786623 0.0143738175 -0.070064165
000330 e5 7b f9 bc 30 b9 a2 bd 4a 7e 30 bd 0d 60 1e 3d
       -0.030454585 -0.07945478 -0.04308919 0.03866582
000340 84 f0 a7 3d f8 57 14 3d 8f 6b ca 3c b2 14 50 bd
       0.082001716 0.036216706 0.024709491 -0.050800987
000350 c8 55 88 3d 2d 07 68 3d a3 6a a5 bd dc cc c3 ba
       0.066569865 0.05664747 -0.0807698 -0.0014938372
000360 0f 74 a1 bd f5 62 e3 3d 30 8c c5 bb 4f 9c a3 bd
       -0.078834645 0.11102859 -0.0060286745 -0.07988798
000370 c9 f0 34 bd ef 86 cb 3d 33 fa f9 bc ea b0 01 be
       -0.044174943 0.09937846 -0.030514812 -0.12665144
000380 db 9e 0d bd 78 44 24 bd 2e c1 0a 3d 28 9b 9b 3d
       -0.034575325 -0.04010436 0.033875637 0.07597953
000390 1b 82 c8 bc 50 4e 02 bd 51 e7 b4 3d 55 db 1b 3d
       -0.024476102 -0.031812966 0.088331826 0.03805097
0003a0 eb 10 be bc 86 5c 14 3d 73 dd ab bd 73 37 43 3d
       -0.023201426 0.03622105 -0.083918475 0.047660302
0003b0 b0 b0 bf bc 22 71 41 3d 24 2e 82 bd ea cc 4c 3d
       -0.02339968 0.047227032 -0.06356457 0.05000011
0003c0 ac 60 3b bd c1 c7 9b 3b 4a 3d 10 3d 64 fb cc bd
       -0.04574649 0.004754037 0.0352147 -0.100088865
0003d0 2b 06 01 3a eb 2d d3 3d 48 5d 55 3d ea 5e 59 3d
       0.00049218786 0.103114925 0.052090913 0.053069033
0003e0 81 95 b9 bc b2 41 14 bc 33 91 85 3d 10 09 62 bd
       -0.022654297 -0.009048866 0.06521835 -0.055184424
0003f0 74 21 cb 3c 39 56 ad 3d 42 53 da bd 99 82 cf 3d
       0.024796225 0.08463711 -0.106604114 0.101323314

conv4.bias f4 [8]
000000 0a 43 18 b7 43 46 9f b7 21 cf f9 b7 d6 73 46 37
       -9.075515e-06 -1.8986995e-05 -2.9779565e-05 1.182869e-05
000010 3d d0 81 35 a4 c7 32 b6 05 ea 91 b6 01 ed 2f b7
       9.671854e-07 -2.6640273e-06 -4.34858e-06 -1.0485995e-05

bn4.weight f4 [8]
000000 2b 94 af 3f b8 37 b3 3f 81 65 af 3f e1 3e b1 3f
       1.3717092 1.4001379 1.3702852 1.3847314
000010 81 44 bc 3f 0b 10 a0 3f e0 be b4 3f b6 0f b1 3f
       1.4708406 1.2504896 1.412075 1.383292

bn4.bias f4 [8]
000000 4b 8b 78 3e e6 8e 95 3e af 7a 4a 3e 55 db 8b 3e
       0.24271886 0.29210585 0.19773363 0.27315775
000010 5b 2a 2b 3e 1e 31 7b 3e 48 2f 26 3e 8c 90 34 3e
       0.16715376 0.24530455 0.16228974 0.17633265

bn4.running_mean f4 [8]
000000 aa cb 5f 3d e3 f1 0b bd 55 88 80 3e 7c 43 dc 3b
       0.05463759 -0.034166228 0.25104013 0.006721912
000010 9b 53 49 3e c7 31 6d bd 46 da 06 3c 0d a4 f1 3d
       0.19660799 -0.0579088 0.008230751 0.11798868

bn4.running_var f4 [8]
000000 37 08 a6 3c 25 27 cc 3c a7 55 c0 3c 1b db 85 3c
       0.020267589 0.02492101 0.023478342 0.01633983
000010 f1 24 19 3d 19 d7 a5 3c 4f 21 98 3c 35 c4 a9 3c
       0.037388746 0.020244168 0.01857057 0.020723442

fc.weight f4 [128, 288]
000000 c9 f3 bd bd 1b 63 80 bd 57 92 73 bc e5 bb 11 3d
       -0.09275014 -0.06268903 -0.014866433 0.03557958
000010 c8 82 ac 3c 4f 16 12 3d e4 21 3d 3c 00 fd 05 3c
       0.021058455 0.035665806 0.011543725 0.008177996
000020 f5 13 91 3c 3d 0b 76 3c 97 2a b4 ba 7f 72 0c bc
       0.017709712 0.015017328 -0.0013745603 -0.00857222
000030 80 c5 82 bc dc 88 77 bc 8b c8 ab ba 4e af 09 3c
       -0.015963316 -0.015108313 -0.0013106031 0.008403612
000040 c9 e6 9a 3a 79 39 c8 3c 8b e6 c7 bb 42 af 86 3b
       0.0011818047 0.024441468 -0.006100481 0.004110248
000050 9a 1b 61 bb 59 07 9c bc d8 8f 76 bc 47 93 2d 3c
       -0.0034348727 -0.019046472 -0.015048943 0.010594196
000060 f4 5c 2d 3d 7d 4d 09 3d fa 64 19 3d 2a 41 04 3d
       0.042324975 0.033521164 0.037449814 0.032288708
000070 b8 eb 0f 3d bb 3d f8 3c 22 bd a8 bc ae ca ae bb
       0.03513691 0.030302873 -0.020597998 -0.00533422
000080 30 34 88 bb ce 5e f5 bc 48 7b 41 bc 5c 77 13 3d
       -0.004156612 -0.029952433 -0.011809178 0.0360025
000090 31 26 c0 bb c8 43 41 3c 4c 91 4b bc 95 ed 2a 3c
       -0.005863928 0.011795945 -0.012424778 0.0104326205
0000a0 1e 1b 0e 3b 03 36 ae 3c 8a e2 19 3c ad 80 09 3b
       0.0021683644 0.02126599 0.00939239 0.0020981238
0000b0 ec a1 12 bc 7e 29 9d bc 73 6e c3 bc 38 09 bc bc
       -0.008949738 -0.019184824 -0.023856377 -0.022953615
0000c0 5e 1c 68 bc a1 f2 27 3c a6 b0 fa 3b a5 1f 93 3c
       -0.0141669195 0.010250718 0.0076504527 0.017959425
0000d0 c6 92 08 3a b9 44 1c 3c 02 d3 25 3c 72 ce 74 3b
       0.0005209859 0.009537869 0.010121109 0.0037354496
0000e0 f9 18 07 3c 88 67 ca 3b 38 10 e5 b9 91 6c bb bc
       0.0082457 0.0061768927 -0.00043690368 -0.022878917
0000f0 39 08 c4 3c ee 60 32 3b ca b4 9e 3c cf 4d 8c 3c
       0.023929702 0.002721842 0.019373316 0.017126946
000100 ad 39 aa 3c 5e be c0 3c 28 44 9f bc b7 3f a1 3a
       0.020779455 0.023528274 -0.01944168 0.0012302314
000110 d2 8f 3b ba cc eb 2b bb 49 e8 76 bc 07 89 40 bd
       -0.0007154915 -0.0026233075 -0.01507003 -0.04700568
000120 a4 68 8d bd 21 ca a5 bc bf 06 ae 3b 83 d6 65 3c
       -0.06904724 -0.020237984 0.005310863 0.014028194
000130 2b 13 06 3d 7e 3a 1b 3d a4 0a 95 3c 73 e4 11 3d
       0.032733124 0.03789758 0.01819355 0.035618257
000140 8e 52 a0 3c 69 96 2f 3d f8 21 47 3b 69 ac 18 3b
       0.019570615 0.04286805 0.0030385237 0.0023296124
000150 31 48 3b 3d 91 20 96 3c aa eb 30 3d 0e d3 86 b8
       0.045723144 0.018326076 0.043193497 -6.42893e-05
000160 be 6a 0b 3d 3b b2 62 3b 33 34 9e bc 37 06 9c bc
       0.034037344 0.0034591097 -0.019312 -0.019045932
000170 67 57 a2 bc 31 f3 56 bc dc 65 a8 bc 9f a8 6a bc
       -0.019817067 -0.013119505 -0.020556383 -0.014322429
000180 68 e3 45 3d 1c 2c ca 3c 71 bd 41 3c 5b 5c 90 bc
       0.048312575 0.024679236 0.0118249515 -0.017622164
000190 a0 fb e2 bc 15 9e ef bc 58 c0 ca 3c af a6 06 3d
       -0.027707875 -0.029250184 0.02474992 0.032873806
0001a0 3d f7 39 3d 02 08 5b 3d 3d 1d ac 3c b8 22 f1 3c
       0.0454018 0.053474434 0.021010036 0.0294355
0001b0 7f 61 bf 3d 12 b6 5c 3b dc 7e 4a 3b 1f bf 81 3d
       0.09344768 0.0033677858 0.0030898368 0.063352816
0001c0 c8 02 82 3d 28 b3 53 3c 41 80 3c bc 09 95 1a bc
       0.06348187 0.012921132 -0.0115051875 -0.009434947
0001d0 19 3f 25 bc 18 66 14 bc da a7 52 bc 46 9c ed 3a
       -0.010085844 -0.009057544 -0.012857402 0.0018128238
0001e0 a3 4f b2 3c f8 f0 3e 3c e4 18 00 3c ea 0b 0e 3c
       0.02176649 0.011654131 0.007818434 0.008669833
0001f0 69 7c 15 3c cb 74 11 3c aa 64 2b bc a6 bd 1f bc
       0.0091239 0.008877943 -0.010461012 -0.009749806
000200 e0 83 5d bc 49 5a 2f bc 9d e5 59 bc 72 74 89 bc
       -0.013520211 -0.010702678 -0.013299373 -0.016779158
000210 3c e6 03 bb 20 27 c0 bc 7e 06 2d bd 1c ba 4b bd
       -0.0020126244 -0.023456156 -0.04224252 -0.049738035
000220 25 5d 2d bd e8 2c 79 bd ff 2f 10 bd 70 f3 f2 3b
       -0.042325158 -0.06083384 -0.035202023 0.007414274
000230 29 e7 c9 bc f6 8b 69 3c 25 ef 36 bd c5 8a 29 bd
       -0.024646359 0.014254561 -0.04466166 -0.041392107
000240 8c 5b cf 3c 57 51 8b bb 27 bf e7 3c 4e 75 aa 3d
       0.025312208 -0.00425164 0.02828939 0.08323155
000250 1a b4 aa 3d cb f9 70 3d bc c9 4f 3c fe 59 32 3c
       0.08335133 0.05883197 0.012682375 0.010885714
000260 aa 0c b0 3b f0 f9 4a 3c d5 97 99 3c 20 fb 9b 3c
       0.0053726034 0.012388691 0.018749157 0.019040644
000270 f7 b1 44 3a 0b 2c d5 3b 64 29 0a 3b d7 5a 8c 3a
       0.00075033255 0.0065054945 0.00210818 0.0010708225
000280 2f cb ea bb d2 74 93 ba 71 21 26 bc c7 f4 1f bb
       -0.0071653347 -0.0011250025 -0.010139809 -0.0024407373
000290 97 bf 84 3c ae 39 ad 3c 73 fc 0d 3d 6f 4b 2e 3d
       0.016204638 0.021145668 0.034664582 0.042552408
0002a0 0d ab dd bc ab d9 b2 bc a8 eb 99 bc b3 ca 97 bc
       -0.027059102 -0.021832308 -0.018789127 -0.018529272
0002b0 14 da a8 bc f9 10 9d bc 26 e8 8a bc 48 3b 48 bc
       -0.0206118 -0.019173132 -0.0169564 -0.012221165
0002c0 f1 c9 ad 3c 7a 3f ec 3c 34 df 2b bc d9 ba f3 3b
       0.021214457 0.028838862 -0.0104902275 0.0074380455
0002d0 9f 4a 52 3d c7 6a e2 3b 2d 81 bd bc 96 5a 05 3c
       0.051340695 0.0069097015 -0.023132885 0.008139273
0002e0 7a 49 08 3b 4c 16 c7 bc 59 b4 a5 bc a8 0a a4 bc
       0.0020795749 -0.024302624 -0.020227598 -0.020024613
0002f0 a7 9a 98 bc 7a 5c 9a bc c0 03 85 bc 7f 25 67 bc
       -0.018628431 -0.018842924 -0.01623714 -0.014108061
000300 71 ca 35 bd 10 61 27 bd ac 3a d3 bc 90 13 35 bc
       -0.044382516 -0.04086405 -0.025784813 -0.011052027
000310 ff 95 0c 3c fb 06 bf 3c 21 a5 c4 3a 0c f0 9d ba
       0.008580684 0.023318758 0.0015002826 -0.0012049689
000320 16 5f 1f 3c 1d ed f8 3c 3d 93 15 3c de 7c 03 3d
       0.00972726 0.030386502 0.009129343 0.032101505
000330 b3 34 05 3c 1f 54 be bc 49 d3 2c 3c d3 d2 3f 3b
       0.00813024 -0.023233471 0.010548421 0.0029269948
000340 ab 05 eb 3b 58 43 39 bd af 91 9f bc 7a 8f ca bc
       0.0071723065 -0.04523024 -0.019478647 -0.024726618
000350 93 9e cc bb 11 5b 04 bc 3b 7d b2 bb be 83 a3 bc
       -0.0062444895 -0.008078353 -0.0054470575 -0.01996028
000360 56 d8 6e 3d 5b c8 3f 3d f4 9b 2d 3d 8d 3e 95 3c
       0.058311783 0.046821933 0.042385057 0.018218303
000370 d2 22 21 3d 5a 3a fd bc 1d d5 6b bc 7e 19 1d bc
       0.039339848 -0.030911613 -0.014394072 -0.009588597
000380 54 35 07 bc 3f 2d b0 bb 12 15 46 bc 89 c6 46 bc
       -0.0082524605 -0.0053764875 -0.0120899845 -0.012132295
000390 fc 31 87 bd 56 a1 53 bd ce 50 6c bd 83 85 4c bd
       -0.06601331 -0.051667534 -0.05769425 -0.049932014
0003a0 e7 0a 0e bd 5b 96 32 bd e8 d6 c7 bc 7b c4 e1 3b
       -0.034678366 -0.04360042 -0.024394467 0.0068898774
0003b0 14 38 94 3b 73 cd 35 3c ac 04 2a 3b 37 67 9c 3c
       0.0045232866 0.011096346 0.0025942726 0.019092185
0003c0 60 90 f3 3a 8d 47 cd bc f5 c0 9e bc d5 ab 16 bd
       0.0018582456 -0.025058532 -0.019379118 -0.036784966
0003d0 ef 07 ff bc 97 53 73 bd 83 fe 5f 3d 41 96 03 3d
       -0.031131713 -0.05940589 0.05468608 0.032125715
0003e0 2f 8f 26 3d 0e b9 29 3d 31 e4 ba 3c 64 04 6f 3d
       0.040663894 0.041436248 0.022813888 0.058353797
0003f0 0a 10 79 bc 77 ae 76 3c d5 a6 97 3c 01 df 1c 3d
       -0.015201578 0.015056244 0.018512169 0.03829861

fc.bias f4 [128]
000000 04 5d e1 3c 81 8d c0 bc 22 f5 26 3c d0 9f 28 bd
       0.027510174 -0.023504974 0.01019028 -0.041168034
000010 e1 05 a8 3c 7c b5 d2 3b 2a 12 4c bd 20 96 ab bc
       0.020510616 0.006430326 -0.04982201 -0.020945609
000020 8b 49 11 bc 00 b9 f5 3a eb 9a b5 3a c3 5b e0 3b
       -0.008867632 0.0018747151 0.0013855373 0.0068468763
000030 09 30 4d 3d 4b 04 8a 3c 39 c6 de 3c 26 e3 40 3d
       0.050094638 0.01684775 0.02719413 0.047091626
000040 1f 6a e4 bb ee 91 ca 3c d3 17 ab 3c 57 2f 26 ba
       -0.0069706584 0.024727788 0.020885384 -0.00063394516
000050 fc 83 11 bd a4 20 0d 3d 62 01 31 3d 6b 19 53 bc
       -0.03552626 0.034454957 0.04321421 -0.012884478
000060 fc b7 24 3d 6b eb 47 3c f1 17 3f 3d db 70 91 3c
       0.040214524 0.012202124 0.04665369 0.017754009
000070 f5 44 34 ba e0 ff 1d bd 3d 2b bc 3b c1 1f 59 b9
       -0.00068767305 -0.0385741 0.005742459 -0.00020706562
000080 f6 68 2e 3d e4 0e 28 3d de d1 4d 39 9c 5e d0 bc
       0.042580567 0.041029826 0.00019628505 -0.025435738
000090 33 2d af bc 7a 1a d1 bb aa e8 86 3c 68 7d 84 bb
       -0.021383857 -0.00638133 0.016468365 -0.00404327
0000a0 51 4d a4 3b 61 f4 48 3b 2b 97 3e bc 68 43 a1 3c
       0.0050140996 0.003066324 -0.011632721 0.019685462
0000b0 94 29 4f 3c 9e 35 31 bd 0b e6 ee bb e6 3e 7a bb
       0.01264419 -0.043264024 -0.007290607 -0.0038184463
0000c0 31 49 d3 3c 9b 12 f9 bc 4d 03 32 bd cc a1 9d bc
       0.025791736 -0.03040438 -0.04346018 -0.01924219
0000d0 7e 13 5b 3c 75 24 64 3c ab 6b 9f 3c 27 99 a9 3c
       0.0133713465 0.013924708 0.01946052 0.020702912
0000e0 50 1b 16 bd 83 72 1c bb 56 db ee 3c 04 d7 35 bc
       -0.03664714 -0.0023871965 0.029157322 -0.011098627
0000f0 cf 0d 00 80 83 1a 44 3d d4 d4 25 3d f0 1f fc bc
       -4.954e-42 0.047876846 0.04048617 -0.030776948
000100 3e 32 0d 3d 30 4f 2f 3c ba 18 08 3d de e7 35 bc
       0.034471743 0.010700032 0.033226706 -0.011102645
000110 eb cc df bc 47 69 ef 3c 29 6a 9d 3b 4b d3 c0 3c
       -0.027319392 0.029225005 0.004803915 0.023538252
000120 aa 17 05 bd 9e a2 ab bb 3b 99 01 bc a3 e0 bd bb
       -0.03249327 -0.0052378913 -0.007910068 -0.005794601
000130 b3 fc 07 3c 89 4f ca 3b 5a f0 df 3c 68 e8 a2 3c
       0.008299994 0.006174032 0.027336288 0.01988621
000140 3c 5b 12 bd 79 30 bf 3c 28 d5 83 bd e9 f9 2d 3c
       -0.03573154 0.023338543 -0.06437141 0.010618665
000150 5e 8a 0b 3d be 25 2c bd 80 9b 98 3c bf 9a 90 3c
       0.034067504 -0.04202818 0.018628836 0.017651914
000160 38 6e d4 bb 6a 9f 21 3d b8 76 b6 bc 8d 88 f8 bb
       -0.0064828657 0.03945867 -0.022273406 -0.0075846375
000170 a1 68 e0 3c 30 95 14 bd 38 76 3e 3d fb b0 98 3c
       0.027393641 -0.03627509 0.04649946 0.018639078
000180 4a 81 71 3d 91 64 ae 3b 8d 81 6a bc 07 e6 97 3c
       0.05896119 0.005322047 -0.014313114 0.018542303
000190 65 d0 7d 3c be af 24 3d 8f 62 d8 bc bd 69 b6 3c
       0.01549158 0.040206663 -0.026414184 0.022267217
0001a0 e4 5a aa 3c 64 20 ca bc 12 a4 49 bc fe f2 cb bb
       0.020795293 -0.024673648 -0.012307184 -0.0062240353
0001b0 d1 93 a5 3c e7 1c be 3c d9 fa 1a 3d 8f 26 47 3d
       0.020212086 0.023207141 0.037836883 0.048620757
0001c0 ed 5f 0f 3c ef e9 b3 bb e4 97 d7 bc f5 0c 43 3d
       0.008750898 -0.0054905335 -0.026317544 0.04761978
0001d0 8c 59 dc 3c d5 b6 ce bb 66 3c 71 3c 9f a3 96 3c
       0.026898168 -0.0063084164 0.014723873 0.018388567
0001e0 01 b6 91 3c 73 a7 0a bc ad 4e 12 bb 6f e2 2f 3d
       0.017786982 -0.008462775 -0.0022324726 0.042940553
0001f0 ab aa 64 bc 06 29 84 3c 21 52 f4 3c 36 17 19 3c
       -0.013956706 0.016132843 0.029824318 0.009343913
