Model exports/last_model_Oct22_protANDmRNA_weights_residual_2024_11191523.pth (torch, 543746 bytes, 68 tensors)

conv1.weight f4 [16, 3, 2, 2]
-0.06284605 -0.0704975 0.051130425 0.04479385 0.16470209 0.24366908 0.13138597 0.1866494
0.12584734 -0.25000572 -0.28360012 0.00040860713 -0.16669913 -0.105208784 -0.23317878 0.14559732
0.24910979 -0.033198312 0.16789767 0.12473099 -0.23493849 -0.19438455 0.010809111 0.16740015
0.10100179 -0.16997525 -0.1174128 0.18413556 0.08232225 0.20138745 -0.040133893 0.095632
-0.18334198 0.28520623 0.06888984 -0.27183026 0.2292836 -0.2307267 0.25011986 -0.24075477
0.19767493 -0.16842343 -0.2542081 0.069583885 0.22047257 -0.12930915 0.03935534 0.04556368
0.087948315 0.11771102 -0.14534572 -0.043581497 -0.08076241 -0.081162915 -0.20908104 0.1312799
0.07983129 0.045045443 -0.11948811 0.016289374 0.13880569 -0.00015278086 -0.078066155 0.10391134
-0.0032158988 0.18498236 0.16969536 -0.11462931 -0.0006568664 0.16701438 0.12636125 0.016213391
0.056354564 0.07971861 -0.17487861 0.24348031 -0.15868287 0.05633314 0.021647485 0.05493333
-0.23290157 0.09569477 0.12703428 -0.25968295 0.18865046 -0.043825544 0.049098253 0.28666496
-8.396203e-06 -0.08504038 0.2005653 0.059805118 0.13833462 -0.22945534 0.23630951 0.10997281
0.28513372 -0.16560452 -0.104832575 0.25758374 0.054918546 0.24725841 0.15823919 0.020707794
0.18648554 -0.16861314 -0.22685556 0.021276755 0.2592895 0.106411144 -0.003224434 0.22297111
-0.02428443 -0.071577884 -0.2556994 0.2396026 0.17217335 -0.2632344 -0.18923442 0.026534755
0.24153705 0.15308869 0.13914804 -0.13299786 0.1305397 -0.20263039 -0.0020261572 0.005762648
0.11094062 -0.07748359 -0.24782471 0.122120455 -0.21200329 0.2642949 0.13384198 0.2754535
0.15916727 1.1795432e-17 -0.17069963 -0.09582364 0.17238766 0.025436578 0.06201851 0.059390277
-0.18319908 0.22747467 -0.024209743 -0.18650185 0.1654961 0.10673373 0.24297164 0.043774903
0.13354911 -0.2716696 -0.0040556663 0.22505455 0.05114817 0.22463126 -0.16254623 0.13648334
0.21656007 -0.008277628 -0.25922674 0.20819981 0.19091311 0.25552243 0.22497277 -0.10326304
0.05653331 -0.17796062 0.039249808 -0.2522607 0.0024582508 -0.07601455 0.04318161 0.027294837
0.17960058 -0.18888478 0.038736995 -0.16675276 0.13679327 0.034964345 -0.09424831 0.12885457
-0.13190292 -0.1694811 -0.028916467 0.225769 -0.14643085 -0.03427984 0.007843157 -0.28642955
00000000: 6eb5 80bd fe60 90bd 236e 513d c279 373d
00000010: aaa7 283e 6384 793e 0b8a 063e 0521 3f3e
00000020: 20de 003e c000 80be 0934 91be 523a d639
00000030: 2db3 2abe b477 d7bd 6bc6 6ebe 7717 153e
00000040: a316 7f3e f4fa 07bd 5eed 2b3e f672 ff3d
00000050: b793 70be be0c 47be b318 313c f26a 2b3e
00000060: 07da ce3d fe0d 2ebe 1f76 f0bd 088e 3c3e
00000070: 9198 a83d 8338 4e3e 7063 24bd b6da c33d
00000080: 00be 3bbe 8d06 923e 1e16 8d3d 562d 8bbe
00000090: 52c9 6a3e 9f43 6cbe b60f 803e 6b88 76be
000000a0: 4c6b 4a3e 3177 2cbe 9027 82be ff81 8e3d
000000b0: 90c3 613e 9e69 04be 1133 213d fba0 3a3d
000000c0: 3f1e b43d 7a12 f13d 82d5 14be 8382 32bd
000000d0: c366 a5bd be38 a6bd 5719 56be 3d6e 063e
000000e0: 967e a33d 9281 383d 2fb6 f4bd 4b71 853c
000000f0: 1423 0e3e cd33 20b9 26e1 9fbd 78cf d43d
00000100: d4c1 52bb 046c 3d3e 9fc4 2d3e c6c2 eabd
00000110: 8f31 2cba d105 2b3e d864 013e f2d1 843c
00000120: 0bd4 663d 8343 a33d 6113 33be e752 793e
00000130: c37d 22be 94bd 663d 1156 b13c c501 613d
00000140: c07d 6ebe 9ffb c33d 4615 023e 2af5 84be
00000150: 962d 413e 6a82 33bd 401b 493d c0c5 923e
00000160: 6bdd 0cb7 a729 aebd fd60 4d3e 36f6 743d
00000170: 97a7 0d3e 57f6 6abe 1ffb 713e 6d39 e13d
00000180: 0cfd 913e 3b94 29be 76b2 d6bd 04e2 833e
00000190: 45f2 603d 4f31 7d3e 7409 223e 64a3 a93c
000001a0: 11f6 3e3e eca8 2cbe d34c 68be 974c ae3c
000001b0: 98c1 843e 16ee d93d 0751 53bb 8a52 643e
000001c0: 24f0 c6bc 6d97 92bd 08eb 82be 625a 753e
000001d0: 364e 303e a9c6 86be abc6 41be 6a5f d93c
000001e0: 7d55 773e 48c3 1c3e d37c 0e3e 9730 08be
000001f0: 33ac 053e 577e 4fbe 47c9 04bb 98d4 bc3b
00000200: d634 e33d b7af 9ebd c3c5 7dbe 4a1a fa3d
00000210: 6417 59be a951 873e df0d 093e 3e08 8d3e
00000220: bffc 223e 5a96 5923 e2cb 2ebe 2f3f c4bd
00000230: 6486 303e 5f60 d03c 1f07 7e3d 3843 733d
00000240: 8a98 3bbe 1fef 683e 8353 c6bc 57fa 3ebe
00000250: cf77 293e 3797 da3d 8fcd 783e 504d 333d
00000260: 19c1 083e 4718 8bbe 65e5 84bb b374 663e
00000270: be80 513d bd05 663e 8572 26be 4ac2 0b3e
00000280: ecc1 5d3e e39e 07bc 5eb9 84be 5532 553e
00000290: ba7e 433e d6d3 823e 435f 663e 937b d3bd
000002a0: 798f 673d 4f3b 36be 68c4 203d 5128 81be
000002b0: 9b1a 213b 84ad 9bbd 33df 303d 6c99 df3c
000002c0: 37e9 373e 036b 41be afaa 1e3d 3cc1 2abe
000002d0: 8913 0c3e c636 0f3d 4205 c1bd 74f2 033e
000002e0: 8f11 07be 748c 2dbe 3ae2 ecbc fd2f 673e
000002f0: f8f1 15be 0469 0cbd 9680 003c e5a6 92be

conv1.bias f4 [16]
0.14218731 -0.23821728 -0.055344008 0.16205896 0.09719427 -0.0005088974 7.747053e-05 -0.13093679
-0.00080683356 0.25526074 0.17504516 0.12376916 0.13701956 0.09875944 -0.0753762 -5.2169014e-08
00000000: 8d99 113e 3bef 73be 66b0 62bd c9f2 253e
00000010: ca0d c73d 8767 05ba ad77 a238 4b14 06be
00000020: af81 53ba 89b1 823e 0a3f 333e af7a fd3d
00000030: db4e 0c3e 6442 ca3d d65e 9abd 7010 60b3

bn1.weight f4 [16]
0.99182713 0.99004495 0.9977582 0.9932228 0.9928556 0.9941427 0.9890476 0.9880028
1.0025331 1.0035052 1.0100926 0.9953909 0.99308795 0.9959902 0.99699605 0.9960831
00000000: 62e8 7d3f 9673 7d3f 156d 7f3f d943 7e3f
00000010: c92b 7e3f 2380 7e3f 3932 7d3f c0ed 7c3f
00000020: 0153 803f dc72 803f b74a 813f f0d1 7e3f
00000030: 033b 7e3f 37f9 7e3f 223b 7f3f 4dff 7e3f

bn1.bias f4 [16]
-0.0018835817 -0.007501201 0.00081345404 0.0019448937 -0.0010922013 -0.0024802114 -0.004900072 -0.0054563144
-0.0011569458 0.002727442 0.0023325272 0.00043144624 -0.0009882096 0.0017255591 -0.0005373998 8.311319e-06
00000000: 84e2 f6ba a2cc f5bb fa3d 553a ceeb fe3a
00000010: 3228 8fba 0b8b 22bb c890 a0bb e2ca b2bb
00000020: a9a4 97ba e2be 323b 50dd 183b bc33 e239
00000030: d086 81ba 282c e23a 4ae0 0cba d870 0b37

bn1.running_mean f4 [16]
-56.03765 -77.92623 -14.6649885 23.243374 4.809594 59.747196 -10.789455 92.700775
9.002113 39.45709 36.057858 102.36309 -8.067745 106.780014 -58.586525 -35.46215
00000000: 8e26 60c2 3bda 9bc2 cba3 6ac1 6ef2 b941
00000010: 32e8 9940 21fd 6e42 9ca1 2cc1 cc66 b942
00000020: a808 1041 0fd4 1d42 3f3b 1042 e7b9 cc42
00000030: 7c15 01c1 5e8f d542 9a58 6ac2 3ed9 0dc2

bn1.running_var f4 [16]
58.53645 15.78766 186.92346 54.17922 1.1892803 34.448803 144.01404 33.14411
48.884174 130.33708 186.7927 154.85214 232.65262 170.88757 19.092754 130.45065
00000000: 5325 6a42 419a 7c41 68ec 3a43 85b7 5842
00000010: 563a 983f 93cb 0942 9803 1043 9293 0442
00000020: 6589 4342 4b56 0243 eeca 3a43 26da 1a43
00000030: 12a7 6843 38e3 2a43 f6bd 9841 5e73 0243

conv2.weight f4 [32, 16, 2, 2]
-0.08738136 -0.085638985 -0.0010416938 0.0738676 0.07798283 0.03697666 0.123544075 0.06582182
0.08636713 -0.061496995 -0.06705995 -0.012605706 0.11832914 0.09738883 -0.09622693 -0.05693092
-0.04082836 0.052080773 -0.10732308 0.028098367 0.09023514 -0.074219845 -0.07062378 -0.026235204
0.019243397 0.017528832 0.053473245 0.037041068 -0.08961895 0.033975434 0.059648667 -0.1268302
-0.06625624 -0.022672951 0.033134982 -0.014037724 -0.08044847 -0.10472077 0.026747173 -0.12150967
0.101100564 0.029445391 0.03132999 0.092948966 0.11502693 0.01238348 -0.0150448335 0.121004485
0.110050336 -0.095499665 0.04049922 0.0014750027 -0.12240691 0.109509066 -0.121410824 -0.062398512
-0.09906253 -0.009837809 -0.05589418 -0.07365285 0.0007847354 -0.09461868 0.046121176 0.12173226
0.07631299 0.11420729 -0.08171582 -0.04565347 0.00023060305 0.037402235 0.03818681 -0.091723196
-0.08879911 0.030160597 -0.107990496 -0.06406934 0.024259288 0.0009731932 0.038060434 -0.05756048
0.053836714 0.09637609 0.058174197 -0.0631864 -0.09430664 -0.009636136 0.039342947 -0.06337272
-0.07872135 0.057135187 0.11536346 -0.045843236 -0.10905155 -0.08164099 0.024814457 -0.04347666
-0.112524465 0.054642305 0.049160484 -0.11865 0.10782218 0.08230217 -0.052083295 -0.018987782
-0.024520572 -0.120147444 0.12474131 -0.03817368 -0.036017574 0.031194456 0.09358966 -0.0015424453
0.07753546 -0.06777317 0.052249707 0.098275535 0.0066654175 0.059690125 0.103768036 -0.003987847
-0.030453328 0.0069350353 0.0809791 0.008006025 -0.07113161 -0.068386115 -0.00740058 -0.022037113
-0.024499753 -0.12245069 -0.028227061 -0.07975269 -0.11015585 0.07009739 0.007079648 -0.046987683
0.08196577 -0.10731178 0.07388751 -0.0009376149 0.078567 0.06946801 0.07695759 -0.11561788
-0.06895472 0.10968536 -0.024786578 -0.07720299 -0.056059904 -0.099035494 0.115235575 -0.11968518
-0.08511802 -0.05459601 -0.06009795 -0.053252652 -0.08590199 0.09417563 -0.06590073 0.033266958
-0.08663403 -0.047699183 0.008050156 -0.096029386 -0.10276093 0.111932755 -0.05565925 -0.075682916
-0.08844642 0.02563195 -0.1039139 -0.12601396 -0.10604676 0.023239525 0.06336338 -0.110444985
-0.0074766045 -0.0735036 -0.10982268 -0.010485639 0.07858585 -0.015120529 -0.10898168 0.12844874
0.075793795 0.097172655 -0.045670606 0.0716187 -0.055186406 0.027591834 0.1082587 -0.08085559
-0.028743085 0.1154618 -0.09046736 -0.049919914 0.056552567 -0.019374318 0.056152932 0.012101263
-0.115262486 0.01491279 0.014345716 0.07898729 0.09012819 -0.119127035 0.0973629 -0.07397298
-0.11051998 0.045976922 0.00468732 0.09140357 -0.10128168 0.083259195 -0.013930424 0.0046641813
-0.059041068 0.009255412 -0.09767721 0.06171803 -0.08761411 0.11537333 0.1177145 -0.07324334
0.093161605 -0.031076781 0.095196836 -0.047162905 -0.046105906 -0.033263367 0.11614015 0.0304693
0.040178295 -0.11807735 -0.10753634 0.03549401 -0.022938317 -0.11100429 0.03271622 -0.032254178
0.07250217 -0.0128786545 -0.0310206 -0.083874695 0.0883454 -0.04675537 0.022644682 -0.109499946
-0.10660807 -0.008585097 -0.009138816 -0.01100068 -0.02782544 0.024302255 -0.006448442 -0.0019983873
00000000: 00f5 b2bd 7e63 afbd 7289 88ba e547 973d
00000010: 76b5 9f3d d774 173d ad04 fd3d 97cd 863d
00000020: 40e1 b03d 46e4 7bbd ba56 89bd 2a88 4ebc
00000030: 8c56 f23d cb73 c73d a012 c5bd 6530 69bd
00000040: a33b 27bd a652 553d 34cc dbbd 8c2e e63c
00000050: 33cd b83d 9300 98bd 33a3 90bd 36eb d6bc
00000060: 54a4 9d3c a098 8f3c c306 5b3d 60b8 173d
00000070: 248a b7bd d329 0b3d 2952 743d c7df 01be
00000080: 5ab1 87bd a0bc b9bc 8cb8 073d 7bfe 65bc
00000090: 2bc2 a4bd d877 d6bd e31c db3c 10da f8bd
000000a0: d00d cf3d 7637 f13c e053 003d 075c be3d
000000b0: 3d93 eb3d 14e4 4a3c 9b7e 76bc 33d1 f73d
000000c0: 1262 e13d 5495 c3bd 83e2 253d e154 c13a
000000d0: 79b0 fabd 4a46 e03d 3da6 f8bd 9595 7fbd
000000e0: 4ce1 cabd c32e 21bc 4cf1 64bd 4ed7 96bd
000000f0: b4b6 4d3a 70c7 c1bd 8fe9 3c3d c34e f93d
00000100: fc49 9c3d 83e5 e93d a05a a7bd 22ff 3abd
00000110: 09ce 7139 1633 193d c669 1c3d 5fd9 bbbd
00000120: 4fdc b5bd 5b13 f73c 1f2a ddbd c936 83bd
00000130: 6abb c63c e41d 7f3a 42e5 1b3d 8ac4 6bbd
00000140: e383 5c3d d460 c53d 1148 6e3d df67 81bd
00000150: d723 c1bd e2e0 1dbc 1226 213d 8ec9 81bd
00000160: a938 a1bd 9606 6a3d ad43 ec3d 1ec6 3bbd
00000170: 6b56 dfbd 6433 a7bd b047 cb3c 9514 32bd
00000180: 3a73 e6bd 9cd0 5f3d 815c 493d c5fe f2bd
00000190: e0d1 dc3d 0a8e a83d 4b55 55bd 448c 9bbc
000001a0: 5edf c8bc dd0f f6bd 5f78 ff3d 015c 1cbd
000001b0: 2a87 13bd 848b ff3c f0ab bf3d e02b caba
000001c0: e9ca 9e3d a9cc 8abd ca03 563d af44 c93d
000001d0: 9369 da3b a27d 743d 5684 d43d 7cac 82bb
000001e0: 4279 f9bc 4b3f e33b 5fd8 a53d b42b 033c
000001f0: 73ad 91bd 050e 8cbd 9180 f2bb 2d87 b4bc
00000200: b5b3 c8bc 6dc7 fabd 703c e7bc 6155 a3bd
00000210: 6499 e1bd 388f 8f3d 64fc e73b 2876 40bd
00000220: abdd a73d 47c6 dbbd 5652 973d 45ca 75ba
00000230: bce7 a03d 3e45 8e3d f19b 9d3d 11c9 ecbd
00000240: 2238 8dbd b8a2 e03d 390d cbbc 9a1c 9ebd
00000250: 129f 65bd 1fd3 cabd a100 ec3d 811d f5bd
00000260: 5b52 aebd 11a0 5fbd 4529 76bd 741f 5abd
00000270: 62ed afbd 27df c03d f6f6 86bd ef42 083d
00000280: 2f6d b1bd 3860 43bd cde4 033c 0eab c4bd
00000290: 5374 d2bd 003d e53d f4fa 63bd a5ff 9abd
000002a0: 6623 b5bd 18fa d13c d0d0 d4bd ce09 01be
000002b0: 0b2f d9bd d160 be3c a9c4 813d fb30 e2bd
000002c0: 4efe f4bb 0e89 96bd b7ea e0bd f5cb 2bbc
000002d0: 9ef1 a03d 18bc 77bc c931 dfbd 1188 033e
000002e0: c739 9b3d 7502 c73d 1a11 3bbd d3ac 923d
000002f0: 240b 62bd 4508 e23c bdb6 dd3d 9e97 a5bd
00000300: 9e76 ebbc 3c77 ec3d f446 b9bd d378 4cbd
00000310: aaa3 673d e4b6 9ebc 9e00 663d 6044 463c
00000320: bd0e ecbd c654 743c 4b0a 6b3c 17c4 a13d
00000330: 2195 b83d e0f8 f3bd 3366 c73d 257f 97bd
00000340: 4d58 e2bd 4c52 3c3d 1798 993b cb31 bb3d
00000350: c56c cfbd cc83 aa3d 6f3c 64bc fdd5 983b
00000360: 0cd5 71bd 03a4 173c fd0a c8bd 0ccc 7c3d
00000370: 076f b3bd da48 ec3d 4d14 f13d 9b00 96bd
00000380: 83cb be3d bc94 febc 8ff6 c23d e42d 41bd
00000390: 8cd9 3cbd 2b3f 08bd e3da ed3d c19a f93c
000003a0: ff91 243d 8ad2 f1bd 033c dcbd 2b62 113d
000003b0: 23e9 bbbc 3856 e3bd 7101 063d f51c 04bd
000003c0: 057c 943d fe00 53bc ea1e febc 7fc6 abbd
000003d0: 6fee b43d 8f82 3fbd 5781 b93c 8241 e0bd
000003e0: 5555 dabd 82a8 0cbc f9ba 15bc 323c 34bc
000003f0: 2df2 e3bc 8615 c73c 744d d3bb 60f7 02bb

conv2.bias f4 [32]
0.011310863 0.029664924 0.049763635 -0.047031354 0.035182018 0.04349946 -0.08912244 0.04262101
-1.290006e-06 0.024390476 -0.012229573 0.07023596 -0.092585884 0.054263238 3.648046e-05 0.052908573
-0.08912091 0.0759708 0.09457286 -0.011639496 -0.053596795 -0.04414918 -0.058208697 -0.0007611026
0.07115293 0.006295938 0.07726963 0.09049236 -0.08442441 0.0015345786 0.07271846 -0.029988514
00000000: 3351 393c db03 f33c f4d4 4b3d f3a3 40bd
00000010: 051b 103d 7d2c 323d d385 b6bd 5e93 2e3d
00000020: 4524 adb5 89ce c73c 8c5e 48bc dfd7 8f3d
00000030: ab9d bdbd 2143 5e3d 9802 1938 a9b6 583d
00000040: 0685 b6bd 9496 9b3d 6aaf c13d 96b3 3ebc
00000050: 5088 5bbd c5d5 34bd 3e6c 6ebd bb84 47ba
00000060: a1b8 913d 284e ce3b 8a3f 9e3d 0f54 b93d
00000070: b4e6 acbd ea23 c93a 6aed 943d 79aa f5bc

bn2.weight f4 [32]
0.9903437 0.98943233 0.9930345 0.98844135 0.9928753 0.99375796 0.9912801 0.9889334
0.99270356 0.99080026 0.9869082 0.9927803 0.99557775 0.9909247 0.9955687 0.99044335
1.0088493 0.99236107 0.98984843 0.990505 0.9918946 0.99142754 1.0010968 0.99357665
0.99034655 0.9909308 0.9936076 0.99012893 0.9991847 0.9911371 0.98925954 0.99017715
00000000: 2a87 7d3f 704b 7d3f 8237 7e3f 7e0a 7d3f
00000010: 132d 7e3f ec66 7e3f 88c4 7d3f bd2a 7d3f
00000020: d221 7e3f 16a5 7d3f 04a6 7c3f da26 7e3f
00000030: 2fde 7e3f 3ead 7d3f 97dd 7e3f b28d 7d3f
00000040: f921 813f 600b 7e3f b566 7d3f bc91 7d3f
00000050: ceec 7d3f 32ce 7d3f f123 803f 0a5b 7e3f
00000060: 5a87 7d3f a4ad 7d3f 115d 7e3f 1779 7d3f
00000070: 92ca 7f3f 29bb 7d3f 1d40 7d3f 407c 7d3f

bn2.bias f4 [32]
-0.002112383 -0.0066705053 -0.001894811 -0.0048816516 0.0019023442 0.0011043882 2.697894e-05 -0.00068577676
-0.00044920915 0.00042382503 -0.0016007696 0.0028174447 0.001173645 -0.002301095 0.0031749646 -0.0021875983
0.0036011843 -0.0004645516 -0.0014467314 0.0018074535 -0.0010460106 -0.0011420421 0.0029147235 0.00091709924
0.0003909668 -0.0033122736 0.0045672487 0.00079417264 0.0047334624 -0.0022189205 -0.0027334644 -0.00015456052
00000000: e86f 0abb 4194 dabb 4f5b f8ba 43f6 9fbb
00000010: 1458 f93a 1ec1 903a d550 e237 b3c5 33ba
00000020: d583 ebb9 d534 de39 ead0 d1ba e1a4 383b
00000030: fed4 993a f8cd 16bb 1113 503b cf5d 0fbb
00000040: d901 6c3b 0f8f f3b9 40a0 bdba 13e8 ec3a
00000050: 4b1a 89ba 93b0 95ba f204 3f3b 7d69 703a
00000060: adfa cc39 bb12 59bb dca8 953b 0630 503a
00000070: 291b 9b3b 4f6b 11bb ec23 33bb 8611 22b9

bn2.running_mean f4 [32]
0.066742145 -0.06594119 -0.38253453 -0.13235538 -0.14682196 0.024696412 -0.16395964 0.18193609
-0.03032544 0.39967284 0.072048075 0.25199765 -0.08358641 0.1406759 0.33482563 -0.0022942335
0.18353426 0.105516635 0.19402008 -0.23460945 -0.4447379 0.15833308 -0.068283625 -0.107973926
0.45564395 -0.031074826 -0.21872562 0.3299588 0.10332597 -0.047477406 -0.112765945 -0.10165068
00000000: 1bb0 883d 2d0c 87bd 91db c3be 2b88 07be
00000010: 7f58 16be 2150 ca3c 09e5 27be 744d 3a3e
00000020: 0f6d f8bc eba1 cc3e f18d 933d d605 813e
00000030: 5a2f abbd 580d 103e 446e ab3e da5a 16bb
00000040: 68f0 3b3e 1b19 d83d 33ad 463e 763d 70be
00000050: b0b4 e3be 1122 223e 49d8 8bbd 6f21 ddbd
00000060: 2a4a e93e a290 febc 9cf9 5fbe 5cf0 a83e
00000070: 919c d33d ab77 42bd d5f1 e6bd 3b2e d0bd

bn2.running_var f4 [32]
0.038074497 0.10908663 0.15934348 0.057123695 0.13818699 0.06464264 0.03438062 0.08348761
0.06190916 0.059422523 0.113931954 0.074111804 0.14188373 0.04705732 0.06102185 0.1120583
0.06706401 0.06665823 0.12747416 0.080531016 0.13363369 0.142762 0.053988885 0.072620235
0.065682165 0.04865587 0.083281234 0.07002402 0.06810464 0.10671927 0.12004724 0.04216714
00000000: 01f4 1b3d d068 df3d f02a 233e 89fa 693d
00000010: e480 0d3e 5c63 843d b1d2 0c3d 8dfb aa3d
00000020: 7694 7d3d 0865 733d 2855 e93d eec7 973d
00000030: f849 113e 2dbf 403d 0cf2 793d d27e e53d
00000040: db58 893d 1c84 883d 9688 023e 72ed a43d
00000050: 45d7 083e 3430 123e 7323 5d3d ebb9 943d
00000060: 5f84 863d 614b 473d 5a8f aa3d c168 8f3d
00000070: 727a 8b3d a28f da3d 54db f53d 73b7 2c3d

conv3.weight f4 [16, 32, 2, 2]
0.03984434 0.038852554 -0.011830117 -0.06963091 0.033328712 -0.07088838 0.07143575 0.01225376
0.059106585 -0.034518514 0.08256959 0.060974203 0.019811613 0.0058269347 -0.042391516 -0.0012286789
-0.063044935 -0.035648923 -0.03904237 -0.019081749 -0.025054201 0.0807379 0.06365284 -0.038468815
0.026892388 0.033729848 -0.045874923 -0.06756056 0.035770718 -0.014617484 -0.0362548 -0.024925653
0.044994697 -0.06290084 0.06985512 0.08245623 -0.08130022 -0.07306437 0.013561315 -0.07726409
-0.057766117 0.06326039 0.070758425 0.036120616 0.08209228 -0.056304336 0.069102965 0.07513416
0.0047942754 0.07391879 -0.0026539536 -0.035927184 0.08789181 -0.043842405 -0.081000745 -0.014395615
0.013165479 -0.047023997 -0.015964704 0.026043842 0.04122307 -0.026303565 0.058956183 0.062481046
0.03227324 0.088677205 0.10079259 0.09536579 -0.0105892 -0.0003263021 0.025838045 -0.05211662
0.03646329 -0.0009529099 -0.012611078 -0.06556408 0.02073856 -0.059480224 0.015292021 -0.010993436
-0.08338922 0.013083046 0.022136342 0.0706072 0.055889826 -0.06373161 0.05158005 -0.06490364
0.023535058 -0.02321254 0.08092046 -0.00158143 -0.012487359 -0.026990425 -0.025342137 0.06303018
-0.0680791 0.06495418 0.027721668 0.07084576 -0.01980775 0.07363774 -0.005078877 0.03629369
-0.02537555 0.059223793 -0.032673866 0.07936246 0.03877142 -0.012328661 -0.055097703 0.046986237
0.059468716 0.08060284 -0.045890708 -0.020231754 -0.0016749668 0.022667445 -0.06929717 0.070652895
0.05757731 0.018230323 -0.0862584 -0.020289589 -0.014840127 -0.07882922 -0.01926456 0.004808548
-0.013386415 0.050014723 0.073011786 0.065722674 -0.07232186 0.006658841 -0.05851146 0.06352947
-0.056903686 -0.03249066 -0.054909185 0.07571165 0.05385787 0.058710784 -0.032903373 0.064180575
0.0029926663 0.050494052 -0.0206982 0.042567022 -0.053652678 0.044335075 -0.04737656 -0.073973276
-0.004628186 0.03994649 0.0031850948 0.014470074 0.032764077 0.05639487 0.0034983302 -0.034336038
-0.08570391 -0.068055496 0.043275196 -0.012017666 -0.0056216847 0.015742915 -0.050358944 0.06723695
-0.03982234 0.0023506356 -0.005089327 0.02045629 0.013655421 0.07514888 -0.060126625 -0.085589826
-0.050328925 0.05899878 0.077743344 -0.020489309 0.034603816 -0.066357054 0.011838852 -0.07784695
-0.028055679 0.039045386 0.075345054 0.07887863 -0.03261006 -0.0054992447 -0.06171522 0.045924757
-0.0733958 -0.07190163 -0.082404956 -0.016877558 0.06400447 -0.062487762 -0.012075412 -0.05048172
0.081650846 0.052362908 -0.0676408 0.074505955 -0.0029242658 -0.0076974384 0.016164891 0.022163682
0.05210793 -0.08138736 0.008215886 -0.065107495 -0.05198009 -0.038017035 -0.059563015 0.01921589
0.068554565 -0.012102875 -0.034367952 0.03127801 -0.07779833 -0.0529729 0.05408379 -0.028148066
-0.012541637 -0.07552614 0.07475975 0.044098884 0.084176175 -0.08429105 0.07909137 -0.06878407
-0.06750841 0.0025088107 -0.061148 0.08343854 0.000513344 -0.012841192 0.039432097 -0.008547721
0.05837632 0.085129604 -0.005627837 0.07295361 0.07294233 0.08312388 -0.0385472 -0.005303974
0.016152428 0.045108814 -0.05738061 -0.022900261 -0.08491223 -0.050161846 -0.05952098 -0.017723396
00000000: d233 233d db23 1f3d 1bd3 41bc a79a 8ebd
00000010: b083 083d ed2d 91bd e84c 923d ffc3 483c
00000020: bf19 723d 4963 0dbd 3f1a a93d 16c0 793d
00000030: f74b a23c dfef be3b baa2 2dbd 9f0b a1ba
00000040: b41d 81bd 9b04 12bd e4ea 1fbd 5451 9cbc
00000050: 783e cdbc ea59 a53d 6c5c 823d 7a91 1dbd
00000060: 6d4d dc3c 4f28 0a3d 58e7 3bbd 315d 8abd
00000070: 5184 123d 2c7e 6fbc ea7f 14bd e230 ccbc
00000080: 5c4c 383d 28d2 80bd 3310 8f3d d0de a83d
00000090: bb80 a6bd c6a2 95bd 4730 5e3c a33c 9ebd
000000a0: 2a9c 6cbd aa8e 813d cbe9 903d 36f3 133d
000000b0: ff1f a83d 609f 66bd db85 8d3d f0df 993d
000000c0: 4c19 9d3b bc62 973d f4ed 2dbb 6228 13bd
000000d0: 9f00 b43d 1894 33bd b8e3 a5bd 96db 6bbc
000000e0: 05b4 573c 3c9c 40bd 69c8 82bc e559 d53c
000000f0: 86d9 283d 937a d7bc 0a7c 713d 20ec 7f3d
00000100: f230 043d 659c b53d 586c ce3d 244f c33d
00000110: 537e 2dbc 8713 abb9 4faa d33c 3d78 55bd
00000120: 885a 153d b3cc 79ba b29e 4ebc 7646 86bd
00000130: eae3 a93c 89a1 73bd 638b 7a3c d01d 34bc
00000140: f8c7 aabd 465a 563c 4657 b53c 829a 903d
00000150: bbec 643d b885 82bd 9a45 533d 33ec 84bd
00000160: 98cc c03c 3a28 bebc a0b9 a53d fc47 cfba
00000170: c897 4cbc 061b ddbc 509a cfbc f815 813d
00000180: 0e6d 8bbd b206 853d 8d18 e33c 9517 913d
00000190: dd43 a2bc 62cf 963d b56c a6bb b1a8 143d
000001a0: 63e0 cfbc a694 723d 08d5 05bd c988 a23d
000001b0: c8ce 1e3d 27fe 49bc 21ae 61bd a474 403d
000001c0: 7895 733d 1a13 a53d e5f7 3bbd 10bd a5bc
000001d0: 8f8a dbba 14b1 b93c adeb 8dbd 77b2 903d
000001e0: 2fd6 6b3d c257 953c 3ea8 b0bd 5a36 a6bc
000001f0: 0124 73bc 3771 a1bd b6d0 9dbc 0691 9d3b
00000200: b252 5bbc 3ddc 4c3d 3487 953d 9c99 863d
00000210: 7c1d 94bd 6832 da3b b6a9 6fbd bd1b 823d
00000220: d713 69bd ed14 05bd 74e8 60bd b60e 9b3d
00000230: 129a 5c3d b87a 703d b0c5 06bd 1b71 833d
00000240: 9c20 443b dad2 4e3d 468f a9bc c25a 2e3d
00000250: e9c2 5bbd b298 353d ec0d 42bd 4d7f 97bd
00000260: 0aa8 97bb ee9e 233d 06bd 503b e413 6d3c
00000270: a033 063d 4ffe 663d 3e44 653b f2a3 0cbd
00000280: 8885 afbd ae60 8bbd 5541 313d bfe5 44bc
00000290: 1c36 b8bb 49f7 803c 2e45 4ebd 87b3 893d
000002a0: c01c 23bd 1f0d 1a3b 5fc4 a6bb f393 a73c
000002b0: fdba 5f3c a8e7 993d 5647 76bd b849 afbd
000002c0: b425 4ebd b4a8 713d e737 9f3d 32d9 a7bc
000002d0: bbbc 0d3d 35e6 87bd bff7 413c 396e 9fbd
000002e0: 06d5 e5bc 0eee 1f3d 824e 9a3d 1f8b a13d
000002f0: 2092 05bd 0233 b4bb 19c9 7cbd 991b 3c3d
00000300: 8a50 96bd 2941 93bd eec3 a8bd ce42 8abc
00000310: c714 833d 2bf3 7fbd f3d7 45bc ecc5 4ebd
00000320: 8f38 a73d 7d7a 563d 4287 8abd 9496 983d
00000330: 0aa5 3fbb cb3a fcbb 3c6c 843c 9c90 b53c
00000340: 206f 553d 6bae a6bd ec9b 063c 1457 85bd
00000350: 13e9 54bd c0b7 1bbd 59f8 73bd a46a 9d3c
00000360: 5666 8c3d 234b 46bc 69c5 0cbd 5f1d 003d
00000370: bb54 9fbd 1dfa 58bd f786 5d3d c696 e6bc
00000380: 707b 4dbc 73ad 9abd a41b 993d 08a1 343d
00000390: 8f64 ac3d c9a0 acbd a8fa a13d aade 8cbd
000003a0: d941 8abd dc6a 243b 5376 7abd d3e1 aa3d
000003b0: ef91 063a dd63 52bc 8d83 213d be0b 0cbc
000003c0: 021c 6f3d 6e58 ae3d b869 b8bb b468 953d
000003d0: ca62 953d da3c aa3d abe3 1dbd f5cc adbb
000003e0: 1952 843c 05c4 383d ee07 6bbd 5499 bbbc
000003f0: 77e6 adbd 8276 4dbd 45cc 73bd a830 91bc

conv3.bias f4 [16]
-0.001818379 -0.012396847 0.04076631 -0.03177243 0.011955214 -0.0008094823 -0.039226472 0.002263169
-0.051503178 0.05098849 0.012936875 0.033819586 -0.008671239 3.0440249e-06 -0.05945285 -0.05244719
00000000: ad56 eeba 251c 4bbc 93fa 263d cf23 02bd
00000010: cddf 433c 7033 54ba f0ab 20bd ad51 143b
00000020: fff4 52bd 4fd9 503d 30f5 533c 6886 0a3d
00000030: d011 0ebc f347 4c36 d584 73bd ddd2 56bd

bn3.weight f4 [16]
1.0036722 0.99338675 0.99181396 0.98766756 0.9897536 0.9898775 0.9887734 0.99292994
0.98713344 0.99440026 0.9902323 0.991497 1.0012832 1.0028669 0.99275464 0.99088264
00000000: 5578 803f 984e 7e3f 85e7 7d3f c8d7 7c3f
00000010: 7e60 7d3f 9d68 7d3f 4120 7d3f a830 7e3f
00000020: c7b4 7c3f 0491 7e3f dd7f 7d3f bfd2 7d3f
00000030: 0c2a 803f f15d 803f 2b25 7e3f 7caa 7d3f

bn3.bias f4 [16]
0.0062788115 -0.0019933786 -0.0022926661 -0.00096819876 -0.00046879853 -0.0034945027 -0.003892804 0.0024528357
-0.00077574904 5.03651e-06 -0.0044590384 0.0030300445 0.0034432614 0.0012118099 0.00064895843 -0.0008051094
00000000: 7dbe cd3b 58a3 02bb 8e40 16bb b8ce 7dba
00000010: 13c9 f5b9 0704 65bb 6a1e 7fbb c1bf 203b
00000020: a35b 4bba 4bff a836 201d 92bb b693 463b
00000030: 57a8 613b 98d5 9e3a dd1e 2a3a fa0d 53ba

bn3.running_mean f4 [16]
0.30344784 -0.008047013 -0.18790214 -0.20532021 0.057816412 0.2049789 0.1247218 0.031795904
-0.40600428 0.016517492 -0.08378348 -0.08060862 -0.04453939 0.40475917 -0.044455 -0.11039752
00000000: 845d 9b3e 9ed7 03bc 6b69 40be 763f 52be
00000010: e7d0 6c3d fde5 513e 256e ff3d 6c3c 023d
00000020: cbdf cfbe b14f 873c ac96 abbd 2216 a5bd
00000030: ef6e 36bd 983c cf3e 7216 36bd 1818 e2bd

bn3.running_var f4 [16]
0.12446161 0.103651196 0.10856108 0.09293296 0.08491239 0.17791626 0.082671136 0.094854206
0.107891634 0.157825 0.1184922 0.122932784 0.097515695 0.12173786 0.07489259 0.18362398
00000000: bbe5 fe3d 1447 d43d 4655 de3d a353 be3d
00000010: 8ce6 ad3d ae2f 363e 7c4f a93d ec42 c23d
00000020: 4af6 dc3d e09c 213e 0aac f23d 2fc4 fb3d
00000030: 4fb6 c73d b351 f93d 4961 993d ed07 3c3e

conv4.weight f4 [8, 16, 2, 2]
0.11141229 -0.03790026 0.098493114 -0.046426374 0.032644723 -0.04116704 0.043594304 -0.040528387
-0.08762723 0.03757189 -0.003002576 -0.022810241 0.064240865 -0.05170687 0.049571756 -0.07317844
0.09676239 -0.117007375 0.11593284 -0.114076726 -0.08285093 0.04463273 -0.023818703 -0.031108983
-0.03787756 -0.089681 0.029331049 0.00056335307 -0.079890735 -0.055721283 -0.08563508 -0.059295963
-0.07366811 0.052345958 -0.085152045 0.020438775 -0.10808735 0.07626661 -0.08618377 0.022749566
-0.050993383 -0.08111322 -0.018215815 -0.05512557 -0.09916991 0.08467814 0.09522354 0.113445505
0.046454616 0.042680673 -0.037007518 0.088040695 -0.0005864533 0.11061421 -0.008739444 0.09774659
-0.059058495 0.10303001 0.030163178 -0.05570315 -0.025939735 0.12431445 0.033324502 -0.114065416
-0.042878285 -0.055067856 -0.10829442 0.0076784217 0.10182232 -0.0928866 0.046796918 -0.106144376
0.009237276 -0.09472508 -0.08077327 0.12556897 -0.027712554 0.0478607 -0.019119319 0.098832265
-0.080399014 -0.11589135 0.00064762525 -0.11332873 -0.07894756 0.03345823 -0.068110496 -0.06083038
0.064652905 0.009103977 0.0462161 -0.040145405 0.045244776 0.09912458 0.1061761 -0.070158325
0.0025158967 -0.10357465 0.08121209 0.02552713 0.048556928 -0.08671818 -0.007989193 0.01241055
-0.056938495 0.0028207824 0.047413383 -0.03997209 0.05583184 0.10272938 -0.06901699 -0.06673227
0.04955921 -0.02365263 -0.0984294 0.015333137 0.038347017 -0.11449367 -0.102813035 0.07336789
-0.062780865 -0.038315754 0.10964746 -0.012749069 0.09635989 0.039301835 -0.03925149 -0.004149754
-0.077475555 -0.05569791 0.113262825 0.11598671 0.041508164 -0.06924999 -0.06930952 0.073317386
0.050530467 0.052876633 0.09303653 0.07888898 -0.06431038 -0.11405647 -0.05908341 0.0053246627
-0.09234968 0.007971935 0.10550308 -0.0098180715 -0.04457379 0.011454608 -0.005158923 0.07650198
-0.08569878 -0.03910871 0.08451447 0.082069196 -0.04652747 0.057847988 -0.095479466 -0.009611887
-0.065452576 -0.09822754 0.094743624 -0.030759644 -0.062221356 -0.1120755 -0.020431077 -0.020214105
-0.03954275 0.10008388 -0.08719309 0.10522408 0.0022790309 0.01482905 -0.09809533 0.0124998065
0.012038016 -0.020814076 0.055807915 0.11842161 0.00087733066 -0.024284227 0.12503082 0.013991349
-0.061908398 0.04996507 0.02876685 -0.09124863 -0.110642254 -0.098946944 0.099062406 -0.07013953
0.098267704 -0.01373856 0.099447645 0.108984224 -0.06735469 0.07303191 -0.1061717 0.05835488
-0.02044555 -0.106062256 -0.09977832 0.08473406 -0.066829585 -0.05538344 -0.020026086 0.083691254
-0.061474934 0.102383085 -0.07863883 -0.06437968 -0.045175504 0.1267578 -0.0849593 0.07189244
-0.012236451 0.021092566 -0.11144432 -0.0017326829 0.0047927075 0.062693186 0.04072843 -0.0065087043
-0.007904276 -0.07131176 -0.09628738 0.118346356 -0.032001596 0.053370155 0.040246494 0.018280983
0.11860183 0.091351256 0.11235438 0.019862045 0.042834695 -0.082495704 -0.016163902 0.0015178975
0.05575889 0.06311204 0.04726779 -0.050935827 0.075535975 0.11174715 0.09039801 0.080438726
0.02665842 0.008950067 -0.11257594 -0.09493639 0.016849684 -0.066040464 -0.04782539 0.09683814
00000000: 202c e43d 4e3d 1bbd c2b6 c93d 9529 3ebd
00000010: 79b6 053d c59e 28bd f18f 323d 1801 26bd
00000020: e875 b3bd fbe4 193d dec6 44bb 8bdc babc
00000030: b790 833d 95ca 53bd c10b 4b3d 94de 95bd
00000040: 5c2b c63d 90a1 efbd 326e ed3d 0fa1 e9bd
00000050: c0ad a9bd cfd0 363d 711f c3bc 44d8 febc
00000060: 8025 1bbd acaa b7bd ab47 f03c fcad 133a
00000070: c19d a3bd 003c 64bd 7261 afbd 53e0 72bd
00000080: 4edf 96bd b768 563d 3264 aebd 386f a73c
00000090: e75c ddbd ab31 9c3d 1e81 b0bd 4c5d ba3c
000000a0: 70de 50bd b01e a6bd 5539 95bc 5acb 61bd
000000b0: 9819 cbbd bc6b ad3d 8f04 c33d 1e56 e83d
000000c0: 3247 3e3d eed1 2e3d 3295 17bd ae4e b43d
000000d0: 37bc 19ba b489 e23d e32f 0fbc 5d2f c83d
000000e0: 52e7 71bd 6601 d33d c518 f73c fc28 64bd
000000f0: 917f d4bc 9398 fe3d 467f 083d 219b e9bd
00000100: 24a1 2fbd d58e 61bd 77c9 ddbd 459b fb3b
00000110: 3888 d03d 543b bebd 20ae 3f3d 3962 d9bd
00000120: f257 173c 39ff c1bd 756c a5bd 2795 003e
00000130: 7005 e3bc 9509 443d 1ea0 9cbc 9268 ca3d
00000140: 3da8 a4bd 7258 edbd 65c5 293a e518 e8bd
00000150: 42af a1bd 7f0b 093d 847d 8bbd 4729 79bd
00000160: be68 843d d928 153c 184d 3d3d 826f 24bd
00000170: 9652 393d d401 cb3d db72 d93d 2baf 8fbd
00000180: bee1 243b f21e d4bd 8652 a63d 461e d13c
00000190: a1e3 463d 4d99 b1bd 1be5 02bc 9f55 4b3c
000001a0: 5738 69bd e0dc 383b 8934 423d c6b9 23bd
000001b0: edaf 643d c863 d23d c858 8dbd eeaa 88bd
000001c0: 99fe 4a3d 29c3 c1bc 5a95 c9bd d637 7b3c
000001d0: c311 1d3d a87b eabd a48f d2bd e841 963d
000001e0: 4193 80bd fbf0 1cbd d98e e03d 79e1 50bc
000001f0: 5658 c53d f6fa 203d 2cc6 20bd a9fa 87bb
00000200: 81ab 9ebd 7e23 64bd 57f6 e73d 718a ed3d
00000210: 7704 2a3d f0d2 8dbd 26f2 8dbd 6d27 963d
00000220: 09f9 4e3d 2b95 583d f089 be3d 8c90 a13d
00000230: 29b5 83bd 7096 e9bd 7201 72bd 827a ae3b
00000240: d421 bdbd b89c 023c 0012 d83d fadb 20bc
00000250: 0293 36bd 1cac 3b3c 2f0c a9bb 12ad 9c3d
00000260: d882 afbd 7430 20bd ec15 ad3d e513 a83d
00000270: 9793 3ebd 03f2 6c3d bd8a c3bd 2d7b 1dbc
00000280: 000c 86bd 852b c9bd f208 c23d a6fb fbbc
00000290: d2db 7ebd d787 e5bd 135f a7bc 0d98 a5bc
000002a0: 94f7 21bd c7f8 cc3d 4a92 b2bd b97f d73d
000002b0: cb5b 153b 8bf5 723c 34e6 c8bd fdcb 4c3c
000002c0: 193b 453c 4882 aabc d796 643d 0787 f23d
000002d0: aafc 653a b7ef c6bc 1408 003e f93b 653c
000002e0: a993 7dbd 2ca8 4c3d 75a8 eb3c 90e0 babd
000002f0: 6898 e2bd b2a4 cabd 3be1 ca3d 50a5 8fbd
00000300: 9440 c93d b217 61bc 35ab cb3d 1f33 df3d
00000310: 41f1 89bd c191 953d 8c70 d9bd 8705 6f3d
00000320: 6d7d a7bc 2b37 d9bd 9358 ccbd 0d89 ad3d
00000330: f3dd 88bd bfd9 62bd bf0d a4bc 5266 ab3d
00000340: 24cd 7bbd 39ae d13d 650d a1bd 7ed9 83bd
00000350: f309 39bd cccc 013e 24ff adbd 583c 933d
00000360: 657b 48bc 51ca ac3c eb3c e4bd 311b e3ba
00000370: 250c 9d3b 4965 803d dbd2 263d f846 d5bb
00000380: f080 01bc e60b 92bd 5132 c5bd 935f f23d
00000390: 1b14 03bd aa9a 5a3d 82d9 243d 00c2 953c
000003a0: 84e5 f23d 5e16 bb3d 0e1a e63d bab5 a23c
000003b0: 6f73 2f3d 82f3 a8bd 296a 84bc 30f4 c63a
000003c0: 6f63 643d e340 813d df9b 413d 16a2 50bd
000003d0: 9bb2 9a3d b1db e43d 9822 b93d 0fbd a43d
000003e0: c262 da3c 4da3 123c 378e e6bd 036e c2bd
000003f0: 5908 8a3c 3940 87bd 8ee4 43bd 1353 c63d

conv4.bias f4 [8]
-0.009255539 0.013925839 -0.014488001 0.061343916 -0.05675894 -0.094394475 -0.012989074 -0.020272886
00000000: 8ba4 17bc 3429 643c 155f 6dbc c243 7b3d
00000010: 107c 68bd e451 c1bd 20d0 54bc 5313 a6bc

bn4.weight f4 [8]
0.9950046 0.99679875 1.0078628 0.996633 0.99652696 0.9998918 0.99465555 0.99206156
00000000: 9fb8 7e3f 342e 7f3f a601 813f 5723 7f3f
00000010: 641c 7f3f e9f8 7f3f bfa1 7e3f bff7 7d3f

bn4.bias f4 [8]
-0.00080376293 0.0028372137 0.0022439617 -0.0029445211 0.006769428 0.001593743 -0.003304365 -0.0043793423
00000000: 9eb3 52ba 8cf0 393b 6e0f 133b def8 40bb
00000010: 14d2 dd3b 24e5 d03a 0c8e 58bb 9680 8fbb

bn4.running_mean f4 [8]
-0.10708532 -0.107164584 -0.06701009 0.256211 0.22837025 0.08115712 0.15696143 0.40465817
00000000: 8c4f dbbd 1b79 dbbd 963c 89bd 172e 833e
00000010: e4d9 693e b435 a63d 7fba 203e 5b2f cf3e

bn4.running_var f4 [8]
0.08113426 0.10326517 0.19663315 0.1279406 0.15667978 0.13739584 0.103063 0.120235465
00000000: b829 a63d b07c d33d 335a 493e dc02 033e
00000010: aa70 203e 7fb1 0c3e b212 d33d 033e f63d

fc.weight f4 [128, 288]
-0.04413613 -0.024724668 -0.056025863 -0.03361225 0.04127331 0.006894983 0.022235718 -0.023085915
0.040449057 -0.00455379 -0.05296701 -0.050539687 -0.057630908 -0.038531948 0.03618644 0.026256306
-0.041651465 -0.033896748 -0.0153428735 0.028093286 -0.04175976 -0.031025296 -0.038270295 -0.027570793
-0.018835861 -0.017652724 0.015229305 0.037695397 -0.03133221 -0.007128822 0.044469837 0.044946525
0.048919547 0.03643745 -0.019138495 -0.023248294 0.03874112 -0.024992567 0.001096982 -0.058255836
-0.033280443 0.024891302 0.024595063 0.056469575 0.04541431 -0.05378084 0.006606509 0.04365178
0.020531874 -0.011778786 -0.0008053224 0.0026374736 0.058958236 -0.005697047 -0.015856396 0.0019762265
0.0014614838 -0.039211642 0.050578743 0.014626979 -0.043256715 -0.010454551 0.030869886 0.044212416
-0.0547738 0.03675217 0.052261956 0.020070368 0.019859372 0.051136106 -0.0076180845 -0.030759187
0.02199099 -0.014700645 -0.055694703 0.01475443 0.017735725 -0.04634728 0.03347113 0.040168673
-0.03348303 0.047003794 0.035844244 -0.0406823 0.053002063 -0.044189665 -0.016200645 -0.041899644
0.0013905318 0.008845437 -0.026819065 0.030317685 0.012796044 -0.031443037 0.012982594 0.036333434
0.037429694 -0.054487865 0.042918704 0.044471636 -0.015976062 -0.03490845 0.029722884 0.039290186
-0.042622823 0.04485497 0.007832296 0.03978573 -0.03687057 -0.006518437 0.017768014 -0.02607167
0.0051432713 0.0027128097 0.030974273 -0.0421859 -0.02215911 0.02310222 -0.008657749 -0.035685223
0.021289794 -0.052810572 0.02346866 0.02328803 -0.05286054 0.018618261 0.02063246 0.026009385
0.0435059 0.04561592 0.038375873 0.051491827 0.04392487 0.049597263 -0.055542633 -0.03761473
-0.043855887 0.041474927 -0.04210566 0.038568497 -0.025447926 0.05248132 -0.01129375 0.029496394
0.036088742 0.049099475 -0.051646385 -0.018893009 -0.022458673 -0.03275233 -0.047016554 -0.043228447
0.034010503 0.05344663 0.002914907 0.037438814 0.0549684 0.0148643935 -0.033156853 -0.006026445
-0.05253969 -0.029178673 -0.018644307 -0.038717177 -0.0150215775 0.05380255 0.060004685 0.004124655
-0.045603916 0.033334054 0.00366174 -0.05478064 -0.05166179 -0.037155606 -0.0160009 -0.0059857415
0.041071527 -0.010018583 0.014101659 -0.025880326 0.018394897 0.048669305 -0.027992707 -0.018425934
0.04545882 0.038573783 -0.04439823 -0.048774056 0.0114354715 -0.037432257 -0.008762308 0.01782254
0.007829364 0.018155817 -0.058113933 0.020929819 0.042033177 -0.01740762 0.0056716846 0.010063553
-0.014739134 0.0187858 0.030195842 0.05426598 -0.051770903 -0.028842168 0.03469985 0.057492554
-0.048213113 -0.017775144 0.014554997 0.018411944 0.02672516 0.055289302 0.00030581764 0.036927126
0.03429813 0.020185353 0.027070405 0.007691803 0.032585066 -0.052475527 -0.015038908 0.021941071
-0.036409277 -0.022980968 -0.047400907 0.015549255 -0.015206721 0.051722072 0.050525934 0.022672951
0.052940432 0.052703127 0.006572002 0.036529873 0.03305556 -0.042135265 -0.028846234 0.002452874
0.023351392 -0.036057267 -0.012112027 0.049113356 0.02560611 0.024624383 0.05375844 -0.051133487
0.022079322 0.033377066 -0.021619407 -0.03918195 -0.024232382 0.041855343 -0.015742006 0.058875613
00000000: 16c8 34bd 638b cabc 607b 65bd 00ad 09bd
00000010: 340e 293d 4fef e13b ae27 b63c ac1e bdbc
00000020: e9ad 253d f637 95bb eff3 58bd b402 4fbd
00000030: 630e 6cbd add3 1dbd 3c38 143d 7717 d73c
00000040: ba9a 2abd 51d7 0abd ad60 7bbc e423 e63c
00000050: 480c 2bbd c328 febc 50c1 1cbd 25dc e1bc
00000060: aa4d 9abc 729c 90bc 5684 793c 7d66 1a3d
00000070: 3456 00bd e598 e9bb 0126 363d d919 383d
00000080: dd5f 483d 703f 153d 55c8 9cbc 3573 bebc
00000090: 02af 1e3d 36bd ccbc 9cc8 8f3a ac9d 6ebd
000000a0: 1351 08bd d8e8 cb3c 967b c93c a44c 673d
000000b0: 5b04 3a3d 4c49 5cbd 6a7b d83b 35cc 323d
000000c0: 7632 a83c cffb 40bc 451c 53ba 77d9 2c3b
000000d0: 317e 713d 4bae babb 46e5 81bc 9483 013b
000000e0: 428f bf3a 639c 20bd a82b 4f3d ffa5 6f3c
000000f0: f42d 31bd 9149 2bbc d8e2 fc3c 1418 353d
00000100: 7e5a 60bd 7289 163d a210 563d 9d6a a43c
00000110: 1fb0 a23c 1874 513d 20a1 f9bb b1fa fbbc
00000120: 7326 b43c f9da 70bc 2120 64bd 91bc 713c
00000130: 834a 913c a5d6 3dbd 0619 093d e887 243d
00000140: 8025 09bd 0d87 403d 6ad1 123d 7ca2 26bd
00000150: b118 593d 3900 35bd 37b7 84bc f69e 2bbd
00000160: 8142 b63a 74ec 103c a8b3 dbbc cb5c f83c
00000170: 80a6 513c 6aca 00bd f2b4 543c 5ed2 143d
00000180: e14f 193d ab2e 5fbd 86cb 2f3d e427 363d
00000190: 3be0 82bc 2afc 0ebd 687d f33c bfee 203d
000001a0: 4595 2ebd d8b9 373d 0853 003c 5df6 223d
000001b0: 9805 17bd 9d98 d5bb 3a8e 913c 4194 d5bc
000001c0: e388 a83b 65c9 313b c2bd fd3c 1fcb 2cbd
000001d0: 0687 b5bc de40 bd3c 3bd9 0dbc ab2a 12bd
000001e0: ef67 ae3c e64f 58bd 5941 c03c 8ac6 be3c
000001f0: 4b84 58bd 5385 983c 6805 a93c a211 d53c
00000200: 3e33 323d c2d7 3a3d 0530 1d3d 18e9 523d
00000210: 91ea 333d 8026 4b3d ac80 63bd e711 1abd
00000220: 3ba2 33bd 9de1 293d fc76 2cbd 00fa 1d3d
00000230: 2b78 d0bc a7f6 563d 6c09 39bc 6ca2 f13c
00000240: cad1 133d 881c 493d 298b 53bd 83c5 9abc
00000250: 40fb b7bc 4f27 06bd 6e94 40bd 5010 31bd
00000260: 994e 0b3d daea 5a3d 0608 3f3b 7159 193d
00000270: 8c26 613d c989 733c 7bcf 07bd 7c79 c5bb
00000280: dc33 57bd 1d08 efbc f2bb 98bc e795 1ebd
00000290: 101d 76bc 1060 5c3d 79c7 753d 1d28 873b
000002a0: 2ccb 3abd 4a89 083d cef9 6f3b aa61 60bd
000002b0: 509b 53bd 7a30 18bd 5214 83bc 0a24 c4bb
000002c0: 9e3a 283d fc24 24bc a50a 673c fa02 d4bc
000002d0: e5b0 963c 7759 473d f650 e5bc fcf1 96bc
000002e0: 0733 3a3d 8bff 1d3d ebda 35bd 4ec7 47bd
000002f0: d85b 3b3c 9152 19bd c98f 0fbc 9300 923c
00000300: bc46 003c 82bb 943c e008 6ebd 0375 ab3c
00000310: fb2a 2c3d 6d9a 8ebc 8ad9 b93b 9ae1 243c
00000320: 697c 71bc aee4 993c 455d f73c 0146 5e3d
00000330: ba0d 54bd 6946 ecbc 6e21 0e3d 507d 6b3d
00000340: 1d7b 45bd 2e9d 91bc 1578 6e3c a5d4 963c
00000350: b9ee da3c 0977 623d 2656 a039 e640 173d
00000360: 327c 0c3d c15b a53c c1c2 dd3c 850b fc3b
00000370: eb77 053d 94f0 56bd c165 76bc c3bd b33c
00000380: e521 15bd 9542 bcbc 7427 42bd 4dc2 7e3c
00000390: 9c25 79bc 86da 533d 48f4 4e3d a0bc b93c
000003a0: 11d8 583d 3cdf 573d f359 d73b 59a0 153d
000003b0: 4465 073d 0796 2cbd f04e ecbc 66c0 203b
000003c0: 6b4b bf3c c9b0 13bd 8671 46bc 162b 493d
000003d0: e8c3 d13c 13b9 c93c cf31 5c3d 5971 51bd
000003e0: b2df b43c 64b6 083d 2f1b b1bc 417d 20bd
000003f0: fd82 c6bc 8270 2b3d 61f5 80bc 8e27 713d

fc.bias f4 [128]
0.0052651414 0.052402295 0.0008220532 -0.0073794755 -0.020772675 0.027242726 -0.021161083 -0.0034508342
-0.030355442 -0.041008856 -0.019095866 -0.014588845 -0.02018632 0.03801666 0.0053366893 -0.03456392
-0.037137456 0.0645822 -0.017407816 -0.046814375 0.062325303 -0.0022063756 -0.013565793 -0.042040903
-0.0023019798 -0.051960718 -0.022925595 0.018835055 0.026761185 -0.030562002 0.03420803 0.032807104
0.02321189 -0.0051343967 0.00678665 -0.0337814 0.04515299 -0.0014555727 -0.03604745 0.036138278
-0.034329537 0.011534395 -0.056393504 0.0020722894 0.05318244 0.03468523 0.05746544 0.0020353007
0.05802342 0.036664236 -0.046263363 0.035752483 -0.0024804706 0.011248487 -0.03433081 0.031600386
0.014894745 0.0034056897 -0.03213761 -0.015458316 0.025834128 0.018144822 -0.056801733 -0.025651596
-0.00816902 0.02091996 -0.016368879 0.0008296998 0.007150322 0.024804 0.02088279 0.016567552
-0.0071189166 -0.042728808 -0.0380699 0.018922482 0.038815062 0.013606019 0.042563323 -0.05717882
-0.022576911 -0.021201842 0.01555744 -0.03428617 -0.031888627 -0.0019616445 0.03435373 0.046236854
0.013416755 0.010031269 -0.057716157 -0.016021654 -0.022054642 -0.027742349 0.05821334 -0.03972926
-0.05518907 -0.039618354 -0.002122945 0.009758319 -0.003069235 -0.05668299 0.028336775 0.02011519
-0.002257236 0.0018946787 0.04716069 0.054571208 -0.027469503 0.039722297 -0.026207656 -0.03081018
0.045215465 -0.019291483 -0.05167179 0.04295342 0.008812311 -0.014432459 -0.03646028 -0.05248467
-0.056752972 -0.03231463 0.02768879 0.031987753 0.016461816 -0.028744394 0.0046900823 0.0021239289
00000000: 3587 ac3b caa3 563d 0e7f 573a 87cf f1bb
00000010: 752b aabc 232c df3c 025a adbc 6427 62bb
00000020: faab f8bc e7f8 27bd ef6e 9cbc 0d06 6fbc
00000030: c85d a5bc 5bb7 1b3d 65df ae3b e692 0dbd
00000040: 721d 18bd ac43 843d d69a 8ebc 6ec0 3fbd
00000050: d148 7f3d d798 10bb 0f43 5ebc 1533 2cbd
00000060: d0dc 16bb c3d4 54bd 75ce bbbc f94b 9a3c
00000070: 463a db3c 2a5d fabc b81d 0c3d be60 063d
00000080: dd26 be3c 713e a8bb 8c62 de3b 5e5e 0abd
00000090: 57f2 383d eac8 beba 7ea6 13bd bb05 143d
000000a0: 219d 0cbd c2fa 3c3c e0fc 66bd 3fcf 073b
000000b0: d5d5 593d 1a12 0e3d e260 6b3d ae62 053b
000000c0: f7a9 6d3d 3d2d 163d a77e 3dbd 3271 123d
000000d0: 648f 22bb 934b 383c 779e 0cbd 686f 013d
000000e0: 1709 743c fe31 5f3b baa2 03bd e044 7dbc
000000f0: 18a2 d33c 73a4 943c efa8 68bd 4c23 d2bc
00000100: 5ad7 05bc 5660 ab3c 0718 86bc 3680 593a
00000110: 404d ea3b c231 cb3c 6312 ab3c adb8 873c
00000120: cd45 e9bb 6704 2fbd 2fef 1bbd 5203 9b3c
00000130: 8bfc 1e3d c8eb 5e3c e156 2e3d 5734 6abd
00000140: 37f3 b8bc 7caf adbc a2e4 7e3c a86f 0cbd
00000150: a69d 02bd ef8e 00bb 7fb6 0c3d db62 3d3d
00000160: f3d1 5b3c 315a 243c c767 6cbd d83f 83bc
00000170: f0ab b4bc ec43 e3bc 1c71 6e3d 26bb 22bd
00000180: ef0d 62bd db46 22bd 1b21 0bbb 5be1 1f3c
00000190: 3825 49bb 6c2c 68bd 8622 e83c 9cc8 a43c
000001a0: 23ee 13bb de56 f83a 912b 413d 0f86 5f3d
000001b0: b907 e1bc d9b3 223d 70b1 d6bc a165 fcbc
000001c0: da33 393d 2c09 9ebc cda5 53bd edef 2f3d
000001d0: 8361 103c 1f76 6cbc 6057 15bd 2afa 56bd
000001e0: ce75 68bd 585c 04bd 9ad3 e23c 9705 033d
000001f0: eeda 863c 5d79 ebbc 43af 993b 9d31 0b3b

out.weight f4 [4, 128]
-0.076740995 -0.07347894 0.053489547 -0.07385868 0.016950062 0.0345231 -0.051092092 0.01252675
0.07321738 0.082948536 0.044294927 0.013559657 -0.015192588 -0.08458045 0.06575032 -0.047365
0.06955051 -0.045809034 0.0385507 0.041238483 -0.067752495 -0.03576339 -0.051460274 0.077640854
0.03182307 0.06935262 0.0033317865 -0.08384262 0.0057147383 -0.052736703 0.016201172 -0.09081548
0.024648054 0.059788723 -0.05400501 0.050447896 0.044434246 -0.03594174 -0.053394943 0.01622869
0.041803677 -0.029493028 -0.007990565 -0.061809544 0.034130048 -0.031409953 -0.03910693 0.07545088
-0.07380903 0.06133866 -0.050249275 0.008436842 0.045109052 0.0019879558 0.06890148 0.04448528
-0.036987357 0.018651731 -0.035381924 -0.0247769 -0.07553763 -0.0029161384 -0.061789803 -0.036822833
0.037025083 0.032431066 0.0013488233 -0.041098602 -0.08867156 0.073699445 -0.084065355 -0.08166398
-0.08629064 0.06711729 0.031073691 0.05984814 -0.059007745 0.019596994 -0.017450552 -0.057601415
0.03847888 -0.0024327235 0.017432678 -0.078003235 -0.02858508 -0.06485942 0.03626445 0.027205028
-0.024196403 0.019733982 -0.00057140103 0.03788978 -0.07236047 0.039516382 -0.02542347 0.085166536
0.017741492 -0.035501476 -0.090829425 -0.042818926 -0.07207625 0.0586858 0.04508878 0.020073874
0.0051116827 0.07935067 0.0070851254 0.051487967 0.00791092 0.04843843 0.05590886 -0.050166856
-0.050165348 0.014815529 -0.06639895 -0.03283987 0.065907456 -0.04032676 0.049898557 -0.09257357
-0.069225214 0.07366105 -0.031676814 -0.07195808 -0.06789138 -0.059476286 0.08188079 0.0051977998
-0.08288402 -0.008232428 -0.057025794 -0.039793707 -0.023071356 -0.003812973 -0.044351064 0.07127858
0.0536901 -0.051634237 0.033656824 -0.06843356 -0.010533848 0.015253421 -0.02571574 0.083611116
-0.042746954 -0.047090672 0.04771233 -0.045893986 0.058182634 0.07243858 -0.07331985 -0.04599987
-0.008511824 0.039390214 0.021128329 0.012222571 0.06520125 0.07674821 0.06665793 0.024333969
0.024509836 -0.03055466 -0.062258396 -0.07284993 -0.061686013 0.02130529 -0.036802903 0.0728502
-0.005039479 -0.05712549 -0.026118618 -0.06251248 -0.004459145 -0.02738825 0.013441637 0.053579167
-0.023078106 -0.029376794 0.011867062 0.030665271 0.05308297 0.0151063185 -0.036866747 0.04570824
-0.0189097 0.07273794 -0.083445184 -0.07277306 0.010945807 0.010434063 0.051760677 -0.06729153
0.0439387 -0.04108286 0.01952264 -0.030135328 -0.036653865 -0.0039565735 0.033723168 0.029098583
0.030121159 0.051447913 0.03110441 -0.005914974 -0.072728395 -0.031091034 0.09016513 -0.07531671
0.018890357 0.02714563 0.062039863 -0.029972982 0.07882892 0.026962563 0.059475448 -0.07489112
-0.017419128 -0.031502057 0.054440606 -0.03937781 0.07366064 0.045271832 -0.009425929 -0.030348372
-0.07495059 0.05189144 0.049241766 -0.045496605 -0.019893432 -0.085709214 0.013893047 0.010434622
0.0785811 0.02388272 -0.07950121 -0.023969555 0.092049256 -0.033815507 0.009537181 0.025161799
-0.07371109 0.07518992 -0.060817387 -0.018651452 0.0077095586 -0.042238664 -0.06301261 -0.019950904
0.018301215 0.044246685 0.044909213 0.0780067 0.027861945 -0.035639726 -0.08016295 0.06718112
00000000: 622a 9dbd 207c 96bd db17 5b3d 3843 97bd
00000010: dbda 8a3c 1868 0d3d f145 51bd ff3c 4d3c
00000020: fef2 953d ece0 a93d 996e 353d 5329 5e3c
00000030: 55ea 78bc 8438 adbd 1ba8 863d cd01 42bd
00000040: 7f70 8e3d 41a2 3bbd 57e7 1d3d afe9 283d
00000050: d2c1 8abd a27c 12bd 02c8 52bd 2b02 9f3d
00000060: e858 023d bf08 8e3d 1a5a 5a3b aeb5 abbd
00000070: b342 bb3b 7102 58bd 52b8 843c 77fd b9bd
00000080: b7ea c93c 05e5 743d 5b34 5dbd 74a2 4e3d
00000090: af00 363d a537 13bd a8b4 5abd 08f2 843c
000000a0: 553a 2b3d 5d9b f1bc dcea 02bc 012c 7dbd
000000b0: f3cb 0b3d b9a7 00bd 972e 20bd fe85 9a3d
000000c0: 3029 97bd 3f3e 7b3d 2fd2 4dbd ae3a 0a3c
000000d0: 45c4 383d 5d48 023b 381c 8d3d 3236 363d
000000e0: 0e80 17bd 84cb 983c a3ec 10bd edf8 cabc
000000f0: 79b3 9abd af1c 3fbb 4e17 7dbd 8ad3 16bd
00000100: 9da7 173d 70d6 043d 00cb b03a 0257 28bd
00000110: 6f99 b5bd bcef 963d 752a acbd 723f a7bd
00000120: 26b9 b0bd ca74 893d 418e fe3c 5323 753d
00000130: 1bb2 71bd e089 a03c 76f4 8ebc 76ef 6bbd
00000140: 089c 1d3d 546e 1fbb face 8e3c 29c0 9fbd
00000150: 422b eabc 04d5 84bd 088a 143d 14dd de3c
00000160: 8937 c6bc 29a9 a13c 13ca 15ba 5032 1b3d
00000170: ba31 94bd eedb 213d e244 d0bc cb6b ae3d
00000180: 9b56 913c ff69 11bd c704 babd e662 2fbd
00000190: b79c 93bd 8560 703d 03af 383d f771 a43c
000001a0: e77f a73b 9b82 a23d 572a e83b 0ce5 523d
000001b0: ce9c 013c 6067 463d b000 653d c37b 4dbd
000001c0: 2e7a 4dbd d5bc 723c 2cfc 87bd 1983 06bd
000001d0: 7dfa 863d ac2d 25bd 6e62 4c3d 3697 bdbd
000001e0: f3c5 8dbd 9bdb 963d 8cbf 01bd c25e 93bd
000001f0: a30a 8bbd 689d 73bd 1eb1 a73d 4e52 aa3b
00000200: 19bf a9bd 4ee1 06bc e193 69bd bafe 22bd
00000210: 2400 bdbc 12e3 79bb 76a9 35bd 81fa 913d
00000220: 26ea 5b3d 6c7e 53bd bddb 093d e526 8cbd
00000230: 2996 2cbc 7ce9 793c d1a9 d2bc 4e3c ab3d
00000240: 6e17 2fbd 26e2 40bd 016e 433d 55fb 3bbd
00000250: ea50 6e3d ae5a 943d b828 96bd 5c6a 3cbd
00000260: 2d75 0bbc a257 213d 5115 ad3c 2e41 483c
00000270: 3c88 853d 2a2e 9d3d f483 883d 0858 c73c
00000280: dac8 c83c c44d fabc a902 7fbd 5832 95bd
00000290: 79aa 7cbd 6e88 ae3c a4be 16bd 7c32 953d
000002a0: 3722 a5bb 6bfc 69bd b6f6 d5bc 8b06 80bd
000002b0: 051e 92bb 535d e0bc 503a 5c3c d475 5b3d
000002c0: 4c0e bdbc 9aa7 f0bc 116e 423c bc35 fb3c
000002d0: 876d 593d 7e80 773c 9601 17bd 9038 3b3d
000002e0: 84e8 9abc a1f7 943d 4fe5 aabd 0b0a 95bd
000002f0: 0b56 333c a2f3 2a3c 0103 543d 24d0 89bd
00000300: 11f9 333d 8046 28bd f2ed 9f3c 5dde f6bc
00000310: 5d22 16bd 25a6 81bb 4e21 0a3d 2760 ee3c
00000320: a6c0 f63c 0cbb 523d adce fe3c 66d2 c1bb
00000330: a0f2 94bd a0b2 febc 7fa8 b83d a63f 9abd
00000340: f3bf 9a3c 8360 de3c 831d 7e3d e689 f5bc
00000350: 0f71 a13d 98e0 dc3c 879c 733d 8460 99bd
00000360: 8fb2 8ebc 4d08 01bd 1dfd 5e3d a04a 21bd
00000370: 64db 963d f56e 393d 366f 1abc 269d f8bc
00000380: b27f 99bd 1e8c 543d bcb1 493d a65a 3abd
00000390: 8df7 a2bc 5088 afbd aa9f 633c faf5 2a3c
000003a0: 21ef a03d b2a5 c33c 88d1 a2bd cd5b c4bc
000003b0: 5284 bc3d 2182 0abd d641 1c3c 1e20 ce3c
000003c0: d7f5 96bd 2cfd 993d a71b 79bd eeca 98bc
000003d0: 77a0 fc3b 7302 2dbd c10c 81bd 1470 a3bc
000003e0: 6eec 953c 033c 353d b9f2 373d fac1 9f3d
000003f0: bc3e e43c f6fa 11bd 792c a4bd 4196 893d

out.bias f4 [4]
-0.059744023 0.068334185 0.09155355 -0.041448783
00000000: 26b6 74bd cbf2 8b3d 6d80 bb3d 33c6 29bd
